…
      sampler {
        min_scale: 0.3
        max_scale: 1
        min_aspect_ratio: 0.5
        max_aspect_ratio: 2
      }
      sample_constraint {
        min_jaccard_overlap: 0.9
      }
      max_sample: 1
      max_trials: 50
    }
    batch_sampler {
      sampler {
        min_scale: 0.3
        max_scale: 1
        min_aspect_ratio: 0.5
        max_aspect_ratio: 2
      }
      sample_constraint {
        max_jaccard_overlap: 1
      }
      max_sample: 1
      max_trials: 50
    }
    label_map_file: "data/VOC0712/labelmap_voc.prototxt"
  }
}
layer {
  name: "conv1_1"
  type: "Convolution"
  bottom: "data"
  top: "conv1_1"
  param {
    lr_mult: 1
    decay_mult: 1
  }
  param {
    lr_mult: 2
    decay_mult: 0
  }
  convolution_param {
    num_output: 64
    pad: 1
    kernel_size: 3
    weight_filler {
      type: "xavier"
    }
    bias_filler {
      type: "constant"
      value: 0
    }
  }
}
layer {
  name: "relu1_1"
  type: "ReLU"
  bottom: "conv1_1"
  top: "conv1_1"
}
layer {
  name: "conv1_2"
  type: "Convolution"
  bottom: "conv1_1"
  top: "conv1_2"
  param {
    lr_mult: 1
    decay_mult: 1
  }
  param {
    lr_mult: 2
    decay_mult: 0
  }
  convolution_param {
    num_output: 64
    pad: 1
    kernel_size: 3
    weight_filler {
      type: "xavier"
    }
    bias_filler {
      type: "constant"
      value: 0
    }
  }
}
layer {
  name: "relu1_2"
  type: "ReLU"
  bottom: "conv1_2"
  top: "conv1_2"
}
layer {
  name: "pool1"
  type: "Pooling"
  bottom: "conv1_2"
  top: "pool1"
  pooling_param {
    pool: MAX
    kernel_size: 2
    stride: 2
  }
}
layer {
  name: "conv2_1"
  type: "Convolution"
  bottom: "pool1"
  top: "conv2_1"
  param {
    lr_mult: 1
    decay_mult: 1
  }
  param {
    lr_mult: 2
    decay_mult: 0
  }
  convolution_param {
    num_output: 128
    pad: 1
    kernel_size: 3
    weight_filler {
      type: "xavier"
    }
    bias_filler {
      type: "constant"
      value: 0
    }
  }
}
layer {
  name: "relu2_1"
  type: "ReLU"
  bottom: "conv2_1"
  top: "conv2_1"
}
layer {
  name: "conv2_2"
  type: "Convolution"
  bottom: "conv2_1"
  top: "conv2_2"
  param {
    lr_mult: 1
    decay_mult: 1
  }
  param {
    lr_mult: 2
    decay_mult: 0
  }
  convolution_param {
    num_output: 128
    pad: 1
    kernel_size: 3
    weight_filler {
      type: "xavier"
    }
    bias_filler {
      type: "constant"
      value: 0
    }
  }
}
layer {
  name: "relu2_2"
  type: "ReLU"
  bottom: "conv2_2"
  top: "conv2_2"
}
layer {
  name: "pool2"
  type: "Pooling"
  bottom: "conv2_2"
  top: "pool2"
  pooling_param {
    pool: MAX
    kernel_size: 2
    stride: 2
  }
}
layer {
  name: "conv3_1"
  type: "Convolution"
  bottom: "pool2"
  top: "conv3_1"
  param {
    lr_mult: 1
    decay_mult: 1
  }
  param {
    lr_mult: 2
    decay_mult: 0
  }
  convolution_param {
    num_output: 256
    pad: 1
    kernel_size: 3
    weight_filler {
      type: "xavier"
    }
    bias_filler {
      type: "constant"
      value: 0
    }
  }
}
layer {
  name: "relu3_1"
  type: "ReLU"
  bottom: "conv3_1"
  top: "conv3_1"
}
layer {
  name: "conv3_2"
  type: "Convolution"
  bottom: "conv3_1"
  top: "conv3_2"
  param {
    lr_mult: 1
    decay_mult: 1
  }
  param {
    lr_mult: 2
    decay_mult: 0
  }
  convolution_param {
    num_output: 256
    pad: 1
    kernel_size: 3
    weight_filler {
      type: "xavier"
    }
    bias_filler {
      type: "constant"
      value: 0
    }
  }
}
layer {
  name: "relu3_2"
  type: "ReLU"
  bottom: "conv3_2"
  top: "conv3_2"
}
layer {
  name: "conv3_3"
  type: "Convolution"
  bottom: "conv3_2"
  top: "conv3_3"
  param {
    lr_mult: 1
    decay_mult: 1
  }
  param {
    lr_mult: 2
    decay_mult: 0
  }
  convolution_param {
    num_output: 256
    pad: 1
    kernel_size: 3
    weight_filler {
      type: "xavier"
    }
    bias_filler {
      type: "constant"
      value: 0
    }
  }
}
layer {
  name: "relu3_3"
  type: "ReLU"
  bottom: "conv3_3"
  top: "conv3_3"
}
layer {
  name: "pool3"
  type: "Pooling"
  bottom: "conv3_3"
  top: "pool3"
  pooling_param {
    pool: MAX
    kernel_size: 2
    stride: 2
  }
}
layer {
  name: "conv4_1"
  type: "Convolution"
  bottom: "pool3"
  top: "conv4_1"
  param {
    lr_mult: 1
    decay_mult: 1
  }
  param {
    lr_mult: 2
    decay_mult: 0
  }
  convolution_param {
    num_output: 512
    pad: 1
    kernel_size: 3
    weight_filler {
      type: "xavier"
    }
    bias_filler {
      type: "constant"
      value: 0
    }
  }
}
layer {
  name: "relu4_1"
  type: "ReLU"
  bottom: "conv4_1"
  top: "conv4_1"
}
layer {
  name: "conv4_2"
  type: "Convolution"
  bottom: "conv4_1"
  top: "conv4_2"
  param {
    lr_mult: 1
    decay_mult: 1
  }
  param {
    lr_mult: 2
    decay_mult: 0
  }
  convolution_param {
    num_output: 512
    pad: 1
    kernel_size: 3
    weight_filler {
      type: "xavier"
    }
    bias_filler {
      type: "constant"
      value: 0
    }
  }
}
layer {
  name: "relu4_2"
  type: "ReLU"
  bottom: "conv4_2"
  top: "conv4_2"
}
layer {
  name: "conv4_3"
  type: "Convolution"
  bottom: "conv4_2"
  top: "conv4_3"
  param {
    lr_mult: 1
    decay_mult: 1
  }
  param {
    lr_mult: 2
    decay_mult: 0
  }
  convolution_param {
    num_output: 512
    pad: 1
    kernel_size: 3
    weight_filler {
      type: "xavier"
    }
    bias_filler {
      type: "constant"
      value: 0
    }
  }
}
layer {
  name: "relu4_3"
  type: "ReLU"
  bottom: "conv4_3"
  top: "conv4_3"
}
layer {
  name: "pool4"
  type: "Pooling"
  bottom: "conv4_3"
  top: "pool4"
  pooling_param {
    pool: MAX
    kernel_size: 2
    stride: 2
  }
}
layer {
  name: "conv5_1"
  type: "Convolution"
  bottom: "pool4"
  top: "conv5_1"
  param {
    lr_mult: 1
    decay_mult: 1
  }
  param {
    lr_mult: 2
    decay_mult: 0
  }
  convolution_param {
    num_output: 512
    pad: 1
    kernel_size: 3
    weight_filler {
      type: "xavier"
    }
    bias_filler {
      type: "constant"
      value: 0
    }
    dilation: 1
  }
}
layer {
  name: "relu5_1"
  type: "ReLU"
  bottom: "conv5_1"
  top: "conv5_1"
}
layer {
  name: "conv5_2"
  type: "Convolution"
  bottom: "conv5_1"
  top: "conv5_2"
  param {
    lr_mult: 1
    decay_mult: 1
  }
  param {
    lr_mult: 2
    decay_mult: 0
  }
  convolution_param {
    num_output: 512
    pad: 1
    kernel_size: 3
    weight_filler {
      type: "xavier"
    }
    bias_filler {
      type: "constant"
      value: 0
    }
    dilation: 1
  }
}
layer {
  name: "relu5_2"
  type: "ReLU"
  bottom: "conv5_2"
  top: "conv5_2"
}
layer {
  name: "conv5_3"
  type: "Convolution"
  bottom: "conv5_2"
  top: "conv5_3"
  param {
    lr_mult: 1
    decay_mult: 1
  }
  param {
    lr_mult: 2
    decay_mult: 0
  }
  convolution_param {
    num_output: 512
    pad: 1
    kernel_size: 3
    weight_filler {
      type: "xavier"
    }
    bias_filler {
      type: "constant"
      value: 0
    }
    dilation: 1
  }
}
layer {
  name: "relu5_3"
  type: "ReLU"
  bottom: "conv5_3"
  top: "conv5_3"
}
layer {
  name: "pool5"
  type: "Pooling"
  bottom: "conv5_3"
  top: "pool5"
  pooling_param {
    pool: MAX
    kernel_size: 3
    stride: 1
    pad: 1
  }
}
layer {
  name: "fc6"
  type: "Convolution"
  bottom: "pool5"
  top: "fc6"
  param {
    lr_mult: 1
    decay_mult: 1
  }
  param {
    lr_mult: 2
    decay_mult: 0
  }
  convolution_param {
    num_output: 1024
    pad: 6
    kernel_size: 3
    weight_filler {
      type: "xavier"
    }
    bias_filler {
      type: "constant"
      value: 0
    }
    dilation: 6
  }
}
layer {
  name: "relu6"
  type: "ReLU"
  bottom: "fc6"
  top: "fc6"
}
layer {
  name: "fc7"
  type: "Convolution"
  bottom: "fc6"
  top: "fc7"
  param {
    lr_mult: 1
    decay_mult: 1
  }
  param {
    lr_mult: 2
    decay_mult: 0
  }
  convolution_param {
    num_output: 1024
    kernel_size: 1
    weight_filler {
      type: "xavier"
    }
    bias_filler {
      type: "constant"
      value: 0
    }
  }
}
layer {
  name: "relu7"
  type: "ReLU"
  bottom: "fc7"
  top: "fc7"
}
layer {
  name: "conv6_1"
  type: "Convolution"
  bottom: "fc7"
  top: "conv6_1"
  param {
    lr_mult: 1
    decay_mult: 1
  }
  param {
    lr_mult: 2
    decay_mult: 0
  }
  convolution_param {
    num_output: 256
    pad: 0
    kernel_size: 1
    stride: 1
    weight_filler {
      type: "xavier"
    }
    bias_filler {
      type: "constant"
      value: 0
    }
  }
}
layer {
  name: "conv6_1_relu"
  type: "ReLU"
  bottom: "conv6_1"
  top: "conv6_1"
}
layer {
  name: "conv6_2"
  type: "Convolution"
  bottom: "conv6_1"
  top: "conv6_2"
  param {
    lr_mult: 1
    decay_mult: 1
  }
  param {
    lr_mult: 2
    decay_mult: 0
  }
  convolution_param {
    num_output: 512
    pad: 1
    kernel_size: 3
    stride: 2
    weight_filler {
      type: "xavier"
    }
    bias_filler {
      type: "constant"
      value: 0
    }
  }
}
layer {
  name: "conv6_2_relu"
  type: "ReLU"
  bottom: "conv6_2"
  top: "conv6_2"
}
layer {
  name: "conv7_1"
  type: "Convolution"
  bottom: "conv6_2"
  top: "conv7_1"
  param {
    lr_mult: 1
    decay_mult: 1
  }
  param {
    lr_mult: 2
    decay_mult: 0
  }
  convolution_param {
    num_output: 128
    pad: 0
    kernel_size: 1
    stride: 1
    weight_filler {
      type: "xavier"
    }
    bias_filler {
      type: "constant"
      value: 0
    }
  }
}
layer {
  name: "conv7_1_relu"
  type: "ReLU"
  bottom: "conv7_1"
  top: "conv7_1"
}
layer {
  name: "conv7_2"
  type: "Convolution"
  bottom: "conv7_1"
  top: "conv7_2"
  param {
    lr_mult: 1
    decay_mult: 1
  }
  param {
    lr_mult: 2
    decay_mult: 0
  }
  convolution_param {
    num_output: 256
    pad: 1
    kernel_size: 3
    stride: 2
    weight_filler {
      type: "xavier"
    }
    bias_filler {
      type: "constant"
      value: 0
    }
  }
}
layer {
  name: "conv7_2_relu"
  type: "ReLU"
  bottom: "conv7_2"
  top: "conv7_2"
}
layer {
  name: "conv8_1"
  type: "Convolution"
  bottom: "conv7_2"
  top: "conv8_1"
  param {
    lr_mult: 1
    decay_mult: 1
  }
  param {
    lr_mult: 2
    decay_mult: 0
  }
  convolution_param {
    num_output: 128
    pad: 0
    kernel_size: 1
    stride: 1
    weight_filler {
      type: "xavier"
    }
    bias_filler {
      type: "constant"
      value: 0
    }
  }
}
layer {
  name: "conv8_1_relu"
  type: "ReLU"
  bottom: "conv8_1"
  top: "conv8_1"
}
layer {
  name: "conv8_2"
  type: "Convolution"
  bottom: "conv8_1"
  top: "conv8_2"
  param {
    lr_mult: 1
    decay_mult: 1
  }
  param {
    lr_mult: 2
    decay_mult: 0
  }
  convolution_param {
    num_output: 256
    pad: 0
    kernel_size: 3
    stride: 1
    weight_filler {
      type: "xavier"
    }
    bias_filler {
      type: "constant"
      value: 0
    }
  }
}
layer {
  name: "conv8_2_relu"
  type: "ReLU"
  bottom: "conv8_2"
  top: "conv8_2"
}
layer {
  name: "conv9_1"
  type: "Convolution"
  bottom: "conv8_2"
  top: "conv9_1"
  param {
    lr_mult: 1
    decay_mult: 1
  }
  param {
    lr_mult: 2
    decay_mult: 0
  }
  convolution_param {
    num_output: 128
    pad: 0
    kernel_size: 1
    stride: 1
    weight_filler {
      type: "xavier"
    }
    bias_filler {
      type: "constant"
      value: 0
    }
  }
}
layer {
  name: "conv9_1_relu"
  type: "ReLU"
  bottom: "conv9_1"
  top: "conv9_1"
}
layer {
  name: "conv9_2"
  type: "Convolution"
  bottom: "conv9_1"
  top: "conv9_2"
  param {
    lr_mult: 1
    decay_mult: 1
  }
  param {
    lr_mult: 2
    decay_mult: 0
  }
  convolution_param {
    num_output: 256
    pad: 0
    kernel_size: 3
    stride: 1
    weight_filler {
      type: "xavier"
    }
    bias_filler {
      type: "constant"
      value: 0
    }
  }
}
layer {
  name: "conv9_2_relu"
  type: "ReLU"
  bottom: "conv9_2"
  top: "conv9_2"
}
layer {
  name: "conv4_3_norm"
  type: "Normalize"
  bottom: "conv4_3"
  top: "conv4_3_norm"
  norm_param {
    across_spatial: false
    scale_filler {
      type: "constant"
      value: 20
    }
    channel_shared: false
  }
}
layer {
  name: "conv4_3_norm_mbox_loc"
  type: "Convolution"
  bottom: "conv4_3_norm"
  top: "conv4_3_norm_mbox_loc"
  param {
    lr_mult: 1
    decay_mult: 1
  }
  param {
    lr_mult: 2
    decay_mult: 0
  }
  convolution_param {
    num_output: 16
    pad: 1
    kernel_size: 3
    stride: 1
    weight_filler {
      type: "xavier"
    }
    bias_filler {
      type: "constant"
      value: 0
    }
  }
}
layer {
  name: "conv4_3_norm_mbox_loc_perm"
  type: "Permute"
  bottom: "conv4_3_norm_mbox_loc"
  top: "conv4_3_norm_mbox_loc_perm"
  permute_param {
    order: 0
    order: 2
    order: 3
    order: 1
  }
}
layer {
  name: "conv4_3_norm_mbox_loc_flat"
  type: "Flatten"
  bottom: "conv4_3_norm_mbox_loc_perm"
  top: "conv4_3_norm_mbox_loc_flat"
  flatten_param {
    axis: 1
  }
}
layer {
  name: "conv4_3_norm_mbox_conf"
  type: "Convolution"
  bottom: "conv4_3_norm"
  top: "conv4_3_norm_mbox_conf"
  param {
    lr_mult: 1
    decay_mult: 1
  }
  param {
    lr_mult: 2
    decay_mult: 0
  }
  convolution_param {
    num_output: 84
    pad: 1
    kernel_size: 3
    stride: 1
    weight_filler {
      type: "xavier"
    }
    bias_filler {
      type: "constant"
      value: 0
    }
  }
}
layer {
  name: "conv4_3_norm_mbox_conf_perm"
  type: "Permute"
  bottom: "conv4_3_norm_mbox_conf"
  top: "conv4_3_norm_mbox_conf_perm"
  permute_param {
    order: 0
    order: 2
    order: 3
    order: 1
  }
}
layer {
  name: "conv4_3_norm_mbox_conf_flat"
  type: "Flatten"
  bottom: "conv4_3_norm_mbox_conf_perm"
  top: "conv4_3_norm_mbox_conf_flat"
  flatten_param {
    axis: 1
  }
}
layer {
  name: "conv4_3_norm_mbox_priorbox"
  type: "PriorBox"
  bottom: "conv4_3_norm"
  bottom: "data"
  top: "conv4_3_norm_mbox_priorbox"
  prior_box_param {
    min_size: 30
    max_size: 60
    aspect_ratio: 2
    flip: true
    clip: false
    variance: 0.1
    variance: 0.1
    variance: 0.2
    variance: 0.2
    step: 8
    offset: 0.5
  }
}
layer {
  name: "fc7_mbox_loc"
  type: "Convolution"
  bottom: "fc7"
  top: "fc7_mbox_loc"
  param {
    lr_mult: 1
    decay_mult: 1
  }
  param {
    lr_mult: 2
    decay_mult: 0
  }
  convolution_param {
    num_output: 24
    pad: 1
    kernel_size: 3
    stride: 1
    weight_filler {
      type: "xavier"
    }
    bias_filler {
      type: "constant"
      value: 0
    }
  }
}
layer {
  name: "fc7_mbox_loc_perm"
  type: "Permute"
  bottom: "fc7_mbox_loc"
  top: "fc7_mbox_loc_perm"
  permute_param {
    order: 0
    order: 2
    order: 3
    order: 1
  }
}
layer {
  name: "fc7_mbox_loc_flat"
  type: "Flatten"
  bottom: "fc7_mbox_loc_perm"
  top: "fc7_mbox_loc_flat"
  flatten_param {
    axis: 1
  }
}
layer {
  name: "fc7_mbox_conf"
  type: "Convolution"
  bottom: "fc7"
  top: "fc7_mbox_conf"
  param {
    lr_mult: 1
    decay_mult: 1
  }
  param {
    lr_mult: 2
    decay_mult: 0
  }
  convolution_param {
    num_output: 126
    pad: 1
    kernel_size: 3
    stride: 1
    weight_filler {
      type: "xavier"
    }
    bias_filler {
      type: "constant"
      value: 0
    }
  }
}
layer {
  name: "fc7_mbox_conf_perm"
  type: "Permute"
  bottom: "fc7_mbox_conf"
  top: "fc7_mbox_conf_perm"
  permute_param {
    order: 0
    order: 2
    order: 3
    order: 1
  }
}
layer {
  name: "fc7_mbox_conf_flat"
  type: "Flatten"
  bottom: "fc7_mbox_conf_perm"
  top: "fc7_mbox_conf_flat"
  flatten_param {
    axis: 1
  }
}
layer {
  name: "fc7_mbox_priorbox"
  type: "PriorBox"
  bottom: "fc7"
  bottom: "data"
  top: "fc7_mbox_priorbox"
  prior_box_param {
    min_size: 60
    max_size: 111
    aspect_ratio: 2
    aspect_ratio: 3
    flip: true
    clip: false
    variance: 0.1
    variance: 0.1
    variance: 0.2
    variance: 0.2
    step: 16
    offset: 0.5
  }
}
layer {
  name: "conv6_2_mbox_loc"
  type: "Convolution"
  bottom: "conv6_2"
  top: "conv6_2_mbox_loc"
  param {
    lr_mult: 1
    decay_mult: 1
  }
  param {
    lr_mult: 2
    decay_mult: 0
  }
  convolution_param {
    num_output: 24
    pad: 1
    kernel_size: 3
    stride: 1
    weight_filler {
      type: "xavier"
    }
    bias_filler {
      type: "constant"
      value: 0
    }
  }
}
layer {
  name: "conv6_2_mbox_loc_perm"
  type: "Permute"
  bottom: "conv6_2_mbox_loc"
  top: "conv6_2_mbox_loc_perm"
  permute_param {
    order: 0
    order: 2
    order: 3
    order: 1
  }
}
layer {
  name: "conv6_2_mbox_loc_flat"
  type: "Flatten"
  bottom: "conv6_2_mbox_loc_perm"
  top: "conv6_2_mbox_loc_flat"
  flatten_param {
    axis: 1
  }
}
layer {
  name: "conv6_2_mbox_conf"
  type: "Convolution"
  bottom: "conv6_2"
  top: "conv6_2_mbox_conf"
  param {
    lr_mult: 1
    decay_mult: 1
  }
  param {
    lr_mult: 2
    decay_mult: 0
  }
  convolution_param {
    num_output: 126
    pad: 1
    kernel_size: 3
    stride: 1
    weight_filler {
      type: "xavier"
    }
    bias_filler {
      type: "constant"
      value: 0
    }
  }
}
layer {
  name: "conv6_2_mbox_conf_perm"
  type: "Permute"
  bottom: "conv6_2_mbox_conf"
  top: "conv6_2_mbox_conf_perm"
  permute_param {
    order: 0
    order: 2
    order: 3
    order: 1
  }
}
layer {
  name: "conv6_2_mbox_conf_flat"
  type: "Flatten"
  bottom: "conv6_2_mbox_conf_perm"
  top: "conv6_2_mbox_conf_flat"
  flatten_param {
    axis: 1
  }
}
layer {
  name: "conv6_2_mbox_priorbox"
  type: "PriorBox"
  bottom: "conv6_2"
  bottom: "data"
  top: "conv6_2_mbox_priorbox"
  prior_box_param {
    min_size: 111
    max_size: 162
    aspect_ratio: 2
    aspect_ratio: 3
    flip: true
    clip: false
    variance: 0.1
    variance: 0.1
    variance: 0.2
    variance: 0.2
    step: 32
    offset: 0.5
  }
}
layer {
  name: "conv7_2_mbox_loc"
  type: "Convolution"
  bottom: "conv7_2"
  top: "conv7_2_mbox_loc"
  param {
    lr_mult: 1
    decay_mult: 1
  }
  param {
    lr_mult: 2
    decay_mult: 0
  }
  convolution_param {
    num_output: 24
    pad: 1
    kernel_size: 3
    stride: 1
    weight_filler {
      type: "xavier"
    }
    bias_filler {
      type: "constant"
      value: 0
    }
  }
}
layer {
  name: "conv7_2_mbox_loc_perm"
  type: "Permute"
  bottom: "conv7_2_mbox_loc"
  top: "conv7_2_mbox_loc_perm"
  permute_param {
    order: 0
    order: 2
    order: 3
    order: 1
  }
}
layer {
  name: "conv7_2_mbox_loc_flat"
  type: "Flatten"
  bottom: "conv7_2_mbox_loc_perm"
  top: "conv7_2_mbox_loc_flat"
  flatten_param {
    axis: 1
  }
}
layer {
  name: "conv7_2_mbox_conf"
  type: "Convolution"
  bottom: "conv7_2"
  top: "conv7_2_mbox_conf"
  param {
    lr_mult: 1
    decay_mult: 1
  }
  param {
    lr_mult: 2
    decay_mult: 0
  }
  convolution_param {
    num_output: 126
    pad: 1
    kernel_size: 3
    stride: 1
    weight_filler {
      type: "xavier"
    }
    bias_filler {
      type: "constant"
      value: 0
    }
  }
}
layer {
  name: "conv7_2_mbox_conf_perm"
  type: "Permute"
  bottom: "conv7_2_mbox_conf"
  top: "conv7_2_mbox_conf_perm"
  permute_param {
    order: 0
    order: 2
    order: 3
    order: 1
  }
}
layer {
  name: "conv7_2_mbox_conf_flat"
  type: "Flatten"
  bottom: "conv7_2_mbox_conf_perm"
  top: "conv7_2_mbox_conf_flat"
  flatten_param {
    axis: 1
  }
}
layer {
  name: "conv7_2_mbox_priorbox"
  type: "PriorBox"
  bottom: "conv7_2"
  bottom: "data"
  top: "conv7_2_mbox_priorbox"
  prior_box_param {
    min_size: 162
    max_size: 213
    aspect_ratio: 2
    aspect_ratio: 3
    flip: true
    clip: false
    variance: 0.1
    variance: 0.1
    variance: 0.2
    variance: 0.2
    step: 64
    offset: 0.5
  }
}
layer {
  name: "conv8_2_mbox_loc"
  type: "Convolution"
  bottom: "conv8_2"
  top: "conv8_2_mbox_loc"
  param {
    lr_mult: 1
    decay_mult: 1
  }
  param {
    lr_mult: 2
    decay_mult: 0
  }
  convolution_param {
    num_output: 16
    pad: 1
    kernel_size: 3
    stride: 1
    weight_filler {
      type: "xavier"
    }
    bias_filler {
      type: "constant"
      value: 0
    }
  }
}
layer {
  name: "conv8_2_mbox_loc_perm"
  type: "Permute"
  bottom: "conv8_2_mbox_loc"
  top: "conv8_2_mbox_loc_perm"
  permute_param {
    order: 0
    order: 2
    order: 3
    order: 1
  }
}
layer {
  name: "conv8_2_mbox_loc_flat"
  type: "Flatten"
  bottom: "conv8_2_mbox_loc_perm"
  top: "conv8_2_mbox_loc_flat"
  flatten_param {
    axis: 1
  }
}
layer {
  name: "conv8_2_mbox_conf"
  type: "Convolution"
  bottom: "conv8_2"
  top: "conv8_2_mbox_conf"
  param {
    lr_mult: 1
    decay_mult: 1
  }
  param {
    lr_mult: 2
    decay_mult: 0
  }
  convolution_param {
    num_output: 84
    pad: 1
    kernel_size: 3
    stride: 1
    weight_filler {
      type: "xavier"
    }
    bias_filler {
      type: "constant"
      value: 0
    }
  }
}
layer {
  name: "conv8_2_mbox_conf_perm"
  type: "Permute"
  bottom: "conv8_2_mbox_conf"
  top: "conv8_2_mbox_conf_perm"
  permute_param {
    order: 0
    order: 2
    order: 3
    order: 1
  }
}
layer {
  name: "conv8_2_mbox_conf_flat"
  type: "Flatten"
  bottom: "conv8_2_mbox_conf_perm"
  top: "conv8_2_mbox_conf_flat"
  flatten_param {
    axis: 1
  }
}
layer {
  name: "conv8_2_mbox_priorbox"
  type: "PriorBox"
  bottom: "conv8_2"
  bottom: "data"
  top: "conv8_2_mbox_priorbox"
  prior_box_param {
    min_size: 213
    max_size: 264
    aspect_ratio: 2
    flip: true
    clip: false
    variance: 0.1
    variance: 0.1
    variance: 0.2
    variance: 0.2
    step: 100
    offset: 0.5
  }
}
layer {
  name: "conv9_2_mbox_loc"
  type: "Convolution"
  bottom: "conv9_2"
  top: "conv9_2_mbox_loc"
  param {
    lr_mult: 1
    decay_mult: 1
  }
  param {
    lr_mult: 2
    decay_mult: 0
  }
  convolution_param {
    num_output: 16
    pad: 1
    kernel_size: 3
    stride: 1
    weight_filler {
      type: "xavier"
    }
    bias_filler {
      type: "constant"
      value: 0
    }
  }
}
layer {
  name: "conv9_2_mbox_loc_perm"
  type: "Permute"
  bottom: "conv9_2_mbox_loc"
  top: "conv9_2_mbox_loc_perm"
  permute_param {
    order: 0
    order: 2
    order: 3
    order: 1
  }
}
layer {
  name: "conv9_2_mbox_loc_flat"
  type: "Flatten"
  bottom: "conv9_2_mbox_loc_perm"
  top: "conv9_2_mbox_loc_flat"
  flatten_param {
    axis: 1
  }
}
layer {
  name: "conv9_2_mbox_conf"
  type: "Convolution"
  bottom: "conv9_2"
  top: "conv9_2_mbox_conf"
  param {
    lr_mult: 1
    decay_mult: 1
  }
  param {
    lr_mult: 2
    decay_mult: 0
  }
  convolution_param {
    num_output: 84
    pad: 1
    kernel_size: 3
    stride: 1
    weight_filler {
      type: "xavier"
    }
    bias_filler {
      type: "constant"
      value: 0
    }
  }
}
layer {
  name: "conv9_2_mbox_conf_perm"
  type: "Permute"
  bottom: "conv9_2_mbox_conf"
  top: "conv9_2_mbox_conf_perm"
  permute_param {
    order: 0
    order: 2
    order: 3
    order: 1
  }
}
layer {
  name: "conv9_2_mbox_conf_flat"
  type: "Flatten"
  bottom: "conv9_2_mbox_conf_perm"
  top: "conv9_2_mbox_conf_flat"
  flatten_param {
    axis: 1
  }
}
layer {
  name: "conv9_2_mbox_priorbox"
  type: "PriorBox"
  bottom: "conv9_2"
  bottom: "data"
  top: "conv9_2_mbox_priorbox"
  prior_box_param {
    min_size: 264
    max_size: 315
    aspect_ratio: 2
    flip: true
    clip: false
    variance: 0.1
    variance: 0.1
    variance: 0.2
    variance: 0.2
    step: 300
    offset: 0.5
  }
}
layer {
  name: "mbox_loc"
  type: "Concat"
  bottom: "conv4_3_norm_mbox_loc_flat"
  bottom: "fc7_mbox_loc_flat"
  bottom: "conv6_2_mbox_loc_flat"
  bottom: "conv7_2_mbox_loc_flat"
  bottom: "conv8_2_mbox_loc_flat"
  bottom: "conv9_2_mbox_loc_flat"
  top: "mbox_loc"
  concat_param {
    axis: 1
  }
}
layer {
  name: "mbox_conf"
  type: "Concat"
  bottom: "conv4_3_norm_mbox_conf_flat"
  bottom: "fc7_mbox_conf_flat"
  bottom: "conv6_2_mbox_conf_flat"
  bottom: "conv7_2_mbox_conf_flat"
  bottom: "conv8_2_mbox_conf_flat"
  bottom: "conv9_2_mbox_conf_flat"
  top: "mbox_conf"
  concat_param {
    axis: 1
  }
}
layer {
  name: "mbox_priorbox"
  type: "Concat"
  bottom: "conv4_3_norm_mbox_priorbox"
  bottom: "fc7_mbox_priorbox"
  bottom: "conv6_2_mbox_priorbox"
  bottom: "conv7_2_mbox_priorbox"
  bottom: "conv8_2_mbox_priorbox"
  bottom: "conv9_2_mbox_priorbox"
  top: "mbox_priorbox"
  concat_param {
    axis: 2
  }
}
layer {
  name: "mbox_loss"
  type: "MultiBoxLoss"
  bottom: "mbox_loc"
  bottom: "mbox_conf"
  bottom: "mbox_priorbox"
  bottom: "label"
  top: "mbox_loss"
  include {
    phase: TRAIN
  }
  propagate_down: true
  propagate_down: true
  propagate_down: false
  propagate_down: false
  loss_param {
    normalization: VALID
  }
  multibox_loss_param {
    loc_loss_type: SMOOTH_L1
    conf_loss_type: SOFTMAX
    loc_weight: 1
    num_classes: 21
    share_location: true
    match_type: PER_PREDICTION
    overlap_threshold: 0.5
    use_prior_for_matching: true
    background_label_id: 0
    use_difficult_gt: true
    neg_pos_ratio: 3
    neg_overlap: 0.5
    code_type: CENTER_SIZE
    ignore_cross_boundary_bbox: false
    mining_type: MAX_NEGATIVE
  }
}
I0220 17:03:19.081702 17564 layer_factory.hpp:77] Creating layer data
I0220 17:03:19.081840 17564 net.cpp:100] Creating Layer data
I0220 17:03:19.081851 17564 net.cpp:408] data -> data
I0220 17:03:19.081879 17564 net.cpp:408] data -> label
I0220 17:03:19.082203 17579 db_lmdb.cpp:35] Opened lmdb examples/VOC0712/VOC0712_trainval_lmdb
I0220 17:03:19.110934 17564 annotated_data_layer.cpp:62] output data size: 1,3,300,300
I0220 17:03:19.114626 17564 net.cpp:150] Setting up data
I0220 17:03:19.114657 17564 net.cpp:157] Top shape: 1 3 300 300 (270000)
I0220 17:03:19.114665 17564 net.cpp:157] Top shape: 1 1 1 8 (8)
I0220 17:03:19.114668 17564 net.cpp:165] Memory required for data: 1080032
I0220 17:03:19.114709 17564 layer_factory.hpp:77] Creating layer data_data_0_split
I0220 17:03:19.114724 17564 net.cpp:100] Creating Layer data_data_0_split
I0220 17:03:19.114732 17564 net.cpp:434] data_data_0_split <- data
I0220 17:03:19.114748 17564 net.cpp:408] data_data_0_split -> data_data_0_split_0
I0220 17:03:19.114761 17564 net.cpp:408] data_data_0_split -> data_data_0_split_1
I0220 17:03:19.114769 17564 net.cpp:408] data_data_0_split -> data_data_0_split_2
I0220 17:03:19.114779 17564 net.cpp:408] data_data_0_split -> data_data_0_split_3
I0220 17:03:19.114787 17564 net.cpp:408] data_data_0_split -> data_data_0_split_4
I0220 17:03:19.114795 17564 net.cpp:408] data_data_0_split -> data_data_0_split_5
I0220 17:03:19.114804 17564 net.cpp:408] data_data_0_split -> data_data_0_split_6
I0220 17:03:19.114910 17564 net.cpp:150] Setting up data_data_0_split
I0220 17:03:19.114919 17564 net.cpp:157] Top shape: 1 3 300 300 (270000)
I0220 17:03:19.114926 17564 net.cpp:157] Top shape: 1 3 300 300 (270000)
I0220 17:03:19.114931 17564 net.cpp:157] Top shape: 1 3 300 300 (270000)
I0220 17:03:19.114938 17564 net.cpp:157] Top shape: 1 3 300 300 (270000)
I0220 17:03:19.114943 17564 net.cpp:157] Top shape: 1 3 300 300 (270000)
I0220 17:03:19.114948 17564 net.cpp:157] Top shape: 1 3 300 300 (270000)
I0220 17:03:19.114954 17564 net.cpp:157] Top shape: 1 3 300 300 (270000)
I0220 17:03:19.114959 17564 net.cpp:165] Memory required for data: 8640032
I0220 17:03:19.114962 17564 layer_factory.hpp:77] Creating layer conv1_1
I0220 17:03:19.114980 17564 net.cpp:100] Creating Layer conv1_1
I0220 17:03:19.114985 17564 net.cpp:434] conv1_1 <- data_data_0_split_0
I0220 17:03:19.114995 17564 net.cpp:408] conv1_1 -> conv1_1
I0220 17:03:19.116044 17564 net.cpp:150] Setting up conv1_1
I0220 17:03:19.116057 17564 net.cpp:157] Top shape: 1 64 300 300 (5760000)
I0220 17:03:19.116083 17564 net.cpp:165] Memory required for data: 31680032
I0220 17:03:19.116128 17564 layer_factory.hpp:77] Creating layer relu1_1
I0220 17:03:19.116149 17564 net.cpp:100] Creating Layer relu1_1
I0220 17:03:19.116154 17564 net.cpp:434] relu1_1 <- conv1_1
I0220 17:03:19.116184 17564 net.cpp:395] relu1_1 -> conv1_1 (in-place)
I0220 17:03:19.116205 17564 net.cpp:150] Setting up relu1_1
I0220 17:03:19.116211 17564 net.cpp:157] Top shape: 1 64 300 300 (5760000)
I0220 17:03:19.116228 17564 net.cpp:165] Memory required for data: 54720032
I0220 17:03:19.116245 17564 layer_factory.hpp:77] Creating layer conv1_2
I0220 17:03:19.116276 17564 net.cpp:100] Creating Layer conv1_2
I0220 17:03:19.116282 17564 net.cpp:434] conv1_2 <- conv1_1
I0220 17:03:19.116312 17564 net.cpp:408] conv1_2 -> conv1_2
I0220 17:03:19.117396 17564 net.cpp:150] Setting up conv1_2
I0220 17:03:19.117409 17564 net.cpp:157] Top shape: 1 64 300 300 (5760000)
I0220 17:03:19.117437 17564 net.cpp:165] Memory required for data: 77760032
I0220 17:03:19.117473 17564 layer_factory.hpp:77] Creating layer relu1_2
I0220 17:03:19.117494 17564 net.cpp:100] Creating Layer relu1_2
I0220 17:03:19.117501 17564 net.cpp:434] relu1_2 <- conv1_2
I0220 17:03:19.117530 17564 net.cpp:395] relu1_2 -> conv1_2 (in-place)
I0220 17:03:19.117552 17564 net.cpp:150] Setting up relu1_2
I0220 17:03:19.117569 17564 net.cpp:157] Top shape: 1 64 300 300 (5760000)
I0220 17:03:19.117575 17564 net.cpp:165] Memory required for data: 100800032
I0220 17:03:19.117593 17564 layer_factory.hpp:77] Creating layer pool1
I0220 17:03:19.117622 17564 net.cpp:100] Creating Layer pool1
I0220 17:03:19.117629 17564 net.cpp:434] pool1 <- conv1_2
I0220 17:03:19.117686 17564 net.cpp:408] pool1 -> pool1
I0220 17:03:19.117746 17564 net.cpp:150] Setting up pool1
I0220 17:03:19.117755 17564 net.cpp:157] Top shape: 1 64 150 150 (1440000)
I0220 17:03:19.117774 17564 net.cpp:165] Memory required for data: 106560032
I0220 17:03:19.117789 17564 layer_factory.hpp:77] Creating layer conv2_1
I0220 17:03:19.117822 17564 net.cpp:100] Creating Layer conv2_1
I0220 17:03:19.117828 17564 net.cpp:434] conv2_1 <- pool1
I0220 17:03:19.117861 17564 net.cpp:408] conv2_1 -> conv2_1
I0220 17:03:19.118516 17564 net.cpp:150] Setting up conv2_1
I0220 17:03:19.118530 17564 net.cpp:157] Top shape: 1 128 150 150 (2880000)
I0220 17:03:19.118535 17564 net.cpp:165] Memory required for data: 118080032
I0220 17:03:19.118544 17564 layer_factory.hpp:77] Creating layer relu2_1
I0220 17:03:19.118551 17564 net.cpp:100] Creating Layer relu2_1
I0220 17:03:19.118556 17564 net.cpp:434] relu2_1 <- conv2_1
I0220 17:03:19.118561 17564 net.cpp:395] relu2_1 -> conv2_1 (in-place)
I0220 17:03:19.118568 17564 net.cpp:150] Setting up relu2_1
I0220 17:03:19.118573 17564 net.cpp:157] Top shape: 1 128 150 150 (2880000)
I0220 17:03:19.118577 17564 net.cpp:165] Memory required for data: 129600032
I0220 17:03:19.118582 17564 layer_factory.hpp:77] Creating layer conv2_2
I0220 17:03:19.118590 17564 net.cpp:100] Creating Layer conv2_2
I0220 17:03:19.118594 17564 net.cpp:434] conv2_2 <- conv2_1
I0220 17:03:19.118600 17564 net.cpp:408] conv2_2 -> conv2_2
I0220 17:03:19.120159 17564 net.cpp:150] Setting up conv2_2
I0220 17:03:19.120169 17564 net.cpp:157] Top shape: 1 128 150 150 (2880000)
I0220 17:03:19.120174 17564 net.cpp:165] Memory required for data: 141120032
I0220 17:03:19.120183 17564 layer_factory.hpp:77] Creating layer relu2_2
I0220 17:03:19.120192 17564 net.cpp:100] Creating Layer relu2_2
I0220 17:03:19.120196 17564 net.cpp:434] relu2_2 <- conv2_2
I0220 17:03:19.120203 17564 net.cpp:395] relu2_2 -> conv2_2 (in-place)
I0220 17:03:19.120209 17564 net.cpp:150] Setting up relu2_2
I0220 17:03:19.120216 17564 net.cpp:157] Top shape: 1 128 150 150 (2880000)
I0220 17:03:19.120221 17564 net.cpp:165] Memory required for data: 152640032
I0220 17:03:19.120225 17564 layer_factory.hpp:77] Creating layer pool2
I0220 17:03:19.120231 17564 net.cpp:100] Creating Layer pool2
I0220 17:03:19.120236 17564 net.cpp:434] pool2 <- conv2_2
I0220 17:03:19.120242 17564 net.cpp:408] pool2 -> pool2
I0220 17:03:19.120275 17564 net.cpp:150] Setting up pool2
I0220 17:03:19.120281 17564 net.cpp:157] Top shape: 1 128 75 75 (720000)
I0220 17:03:19.120287 17564 net.cpp:165] Memory required for data: 155520032
I0220 17:03:19.120291 17564 layer_factory.hpp:77] Creating layer conv3_1
I0220 17:03:19.120301 17564 net.cpp:100] Creating Layer conv3_1
I0220 17:03:19.120304 17564 net.cpp:434] conv3_1 <- pool2
I0220 17:03:19.120312 17564 net.cpp:408] conv3_1 -> conv3_1
I0220 17:03:19.123487 17564 net.cpp:150] Setting up conv3_1
I0220 17:03:19.123504 17564 net.cpp:157] Top shape: 1 256 75 75 (1440000)
I0220 17:03:19.123509 17564 net.cpp:165] Memory required for data: 161280032
I0220 17:03:19.123524 17564 layer_factory.hpp:77] Creating layer relu3_1
I0220 17:03:19.123533 17564 net.cpp:100] Creating Layer relu3_1
I0220 17:03:19.123538 17564 net.cpp:434] relu3_1 <- conv3_1
I0220 17:03:19.123544 17564 net.cpp:395] relu3_1 -> conv3_1 (in-place)
I0220 17:03:19.123554 17564 net.cpp:150] Setting up relu3_1
I0220 17:03:19.123561 17564 net.cpp:157] Top shape: 1 256 75 75 (1440000)
I0220 17:03:19.123565 17564 net.cpp:165] Memory required for data: 167040032
I0220 17:03:19.123569 17564 layer_factory.hpp:77] Creating layer conv3_2
I0220 17:03:19.123580 17564 net.cpp:100] Creating Layer conv3_2
I0220 17:03:19.123585 17564 net.cpp:434] conv3_2 <- conv3_1
I0220 17:03:19.123592 17564 net.cpp:408] conv3_2 -> conv3_2
I0220 17:03:19.128453 17564 net.cpp:150] Setting up conv3_2
I0220 17:03:19.128468 17564 net.cpp:157] Top shape: 1 256 75 75 (1440000)
I0220 17:03:19.128473 17564 net.cpp:165] Memory required for data: 172800032
I0220 17:03:19.128484 17564 layer_factory.hpp:77] Creating layer relu3_2
I0220 17:03:19.128492 17564 net.cpp:100] Creating Layer relu3_2
I0220 17:03:19.128499 17564 net.cpp:434] relu3_2 <- conv3_2
I0220 17:03:19.128507 17564 net.cpp:395] relu3_2 -> conv3_2 (in-place)
I0220 17:03:19.128516 17564 net.cpp:150] Setting up relu3_2
I0220 17:03:19.128522 17564 net.cpp:157] Top shape: 1 256 75 75 (1440000)
I0220 17:03:19.128527 17564 net.cpp:165] Memory required for data: 178560032
I0220 17:03:19.128533 17564 layer_factory.hpp:77] Creating layer conv3_3
I0220 17:03:19.128545 17564 net.cpp:100] Creating Layer conv3_3
I0220 17:03:19.128561 17564 net.cpp:434] conv3_3 <- conv3_2
I0220 17:03:19.128569 17564 net.cpp:408] conv3_3 -> conv3_3
I0220 17:03:19.133886 17564 net.cpp:150] Setting up conv3_3
I0220 17:03:19.133903 17564 net.cpp:157] Top shape: 1 256 75 75 (1440000)
I0220 17:03:19.133908 17564 net.cpp:165] Memory required for data: 184320032
I0220 17:03:19.133916 17564 layer_factory.hpp:77] Creating layer relu3_3
I0220 17:03:19.133924 17564 net.cpp:100] Creating Layer relu3_3
I0220 17:03:19.133929 17564 net.cpp:434] relu3_3 <- conv3_3
I0220 17:03:19.133934 17564 net.cpp:395] relu3_3 -> conv3_3 (in-place)
I0220 17:03:19.133942 17564 net.cpp:150] Setting up relu3_3
I0220 17:03:19.133947 17564 net.cpp:157] Top shape: 1 256 75 75 (1440000)
I0220 17:03:19.133950 17564 net.cpp:165] Memory required for data: 190080032
I0220 17:03:19.133955 17564 layer_factory.hpp:77] Creating layer pool3
I0220 17:03:19.133960 17564 net.cpp:100] Creating Layer pool3
I0220 17:03:19.133965 17564 net.cpp:434] pool3 <- conv3_3
I0220 17:03:19.133970 17564 net.cpp:408] pool3 -> pool3
I0220 17:03:19.134009 17564 net.cpp:150] Setting up pool3
I0220 17:03:19.134016 17564 net.cpp:157] Top shape: 1 256 38 38 (369664)
I0220 17:03:19.134019 17564 net.cpp:165] Memory required for data: 191558688
I0220 17:03:19.134022 17564 layer_factory.hpp:77] Creating layer conv4_1
I0220 17:03:19.134032 17564 net.cpp:100] Creating Layer conv4_1
I0220 17:03:19.134037 17564 net.cpp:434] conv4_1 <- pool3
I0220 17:03:19.134042 17564 net.cpp:408] conv4_1 -> conv4_1
I0220 17:03:19.144224 17564 net.cpp:150] Setting up conv4_1
I0220 17:03:19.144248 17564 net.cpp:157] Top shape: 1 512 38 38 (739328)
I0220 17:03:19.144251 17564 net.cpp:165] Memory required for data: 194516000
I0220 17:03:19.144263 17564 layer_factory.hpp:77] Creating layer relu4_1
I0220 17:03:19.144273 17564 net.cpp:100] Creating Layer relu4_1
I0220 17:03:19.144300 17564 net.cpp:434] relu4_1 <- conv4_1
I0220 17:03:19.144320 17564 net.cpp:395] relu4_1 -> conv4_1 (in-place)
I0220 17:03:19.144341 17564 net.cpp:150] Setting up relu4_1
I0220 17:03:19.144351 17564 net.cpp:157] Top shape: 1 512 38 38 (739328)
I0220 17:03:19.144356 17564 net.cpp:165] Memory required for data: 197473312
I0220 17:03:19.144359 17564 layer_factory.hpp:77] Creating layer conv4_2
I0220 17:03:19.144371 17564 net.cpp:100] Creating Layer conv4_2
I0220 17:03:19.144377 17564 net.cpp:434] conv4_2 <- conv4_1
I0220 17:03:19.144387 17564 net.cpp:408] conv4_2 -> conv4_2
I0220 17:03:19.161727 17564 net.cpp:150] Setting up conv4_2
I0220 17:03:19.161749 17564 net.cpp:157] Top shape: 1 512 38 38 (739328)
I0220 17:03:19.161753 17564 net.cpp:165] Memory required for data: 200430624
I0220 17:03:19.161769 17564 layer_factory.hpp:77] Creating layer relu4_2
I0220 17:03:19.161779 17564 net.cpp:100] Creating Layer relu4_2
I0220 17:03:19.161784 17564 net.cpp:434] relu4_2 <- conv4_2
I0220 17:03:19.161792 17564 net.cpp:395] relu4_2 -> conv4_2 (in-place)
I0220 17:03:19.161803 17564 net.cpp:150] Setting up relu4_2
I0220 17:03:19.161809 17564 net.cpp:157] Top shape: 1 512 38 38 (739328)
I0220 17:03:19.161813 17564 net.cpp:165] Memory required for data: 203387936
I0220 17:03:19.161816 17564 layer_factory.hpp:77] Creating layer conv4_3
I0220 17:03:19.161828 17564 net.cpp:100] Creating Layer conv4_3
I0220 17:03:19.161834 17564 net.cpp:434] conv4_3 <- conv4_2
I0220 17:03:19.161841 17564 net.cpp:408] conv4_3 -> conv4_3
I0220 17:03:19.180544 17564 net.cpp:150] Setting up conv4_3
I0220 17:03:19.180572 17564 net.cpp:157] Top shape: 1 512 38 38 (739328)
I0220 17:03:19.180577 17564 net.cpp:165] Memory required for data: 206345248
I0220 17:03:19.180586 17564 layer_factory.hpp:77] Creating layer relu4_3
I0220 17:03:19.180598 17564 net.cpp:100] Creating Layer relu4_3
I0220 17:03:19.180603 17564 net.cpp:434] relu4_3 <- conv4_3
I0220 17:03:19.180610 17564 net.cpp:395] relu4_3 -> conv4_3 (in-place)
I0220 17:03:19.180621 17564 net.cpp:150] Setting up relu4_3
I0220 17:03:19.180627 17564 net.cpp:157] Top shape: 1 512 38 38 (739328)
I0220 17:03:19.180632 17564 net.cpp:165] Memory required for data: 209302560
I0220 17:03:19.180655 17564 layer_factory.hpp:77] Creating layer conv4_3_relu4_3_0_split
I0220 17:03:19.180665 17564 net.cpp:100] Creating Layer conv4_3_relu4_3_0_split
I0220 17:03:19.180670 17564 net.cpp:434] conv4_3_relu4_3_0_split <- conv4_3
I0220 17:03:19.180677 17564 net.cpp:408] conv4_3_relu4_3_0_split -> conv4_3_relu4_3_0_split_0
I0220 17:03:19.180686 17564 net.cpp:408] conv4_3_relu4_3_0_split -> conv4_3_relu4_3_0_split_1
I0220 17:03:19.180732 17564 net.cpp:150] Setting up conv4_3_relu4_3_0_split
I0220 17:03:19.180740 17564 net.cpp:157] Top shape: 1 512 38 38 (739328)
I0220 17:03:19.180748 17564 net.cpp:157] Top shape: 1 512 38 38 (739328)
I0220 17:03:19.180752 17564 net.cpp:165] Memory required for data: 215217184
I0220 17:03:19.180757 17564 layer_factory.hpp:77] Creating layer pool4
I0220 17:03:19.180765 17564 net.cpp:100] Creating Layer pool4
I0220 17:03:19.180771 17564 net.cpp:434] pool4 <- conv4_3_relu4_3_0_split_0
I0220 17:03:19.180778 17564 net.cpp:408] pool4 -> pool4
I0220 17:03:19.180819 17564 net.cpp:150] Setting up pool4
I0220 17:03:19.180827 17564 net.cpp:157] Top shape: 1 512 19 19 (184832)
I0220 17:03:19.180832 17564 net.cpp:165] Memory required for data: 215956512
I0220 17:03:19.180837 17564 layer_factory.hpp:77] Creating layer conv5_1
I0220 17:03:19.180848 17564 net.cpp:100] Creating Layer conv5_1
I0220 17:03:19.180855 17564 net.cpp:434] conv5_1 <- pool4
I0220 17:03:19.180863 17564 net.cpp:408] conv5_1 -> conv5_1
I0220 17:03:19.198842 17564 net.cpp:150] Setting up conv5_1
I0220 17:03:19.198873 17564 net.cpp:157] Top shape: 1 512 19 19 (184832)
I0220 17:03:19.198878 17564 net.cpp:165] Memory required for data: 216695840
I0220 17:03:19.198890 17564 layer_factory.hpp:77] Creating layer relu5_1
I0220 17:03:19.198900 17564 net.cpp:100] Creating Layer relu5_1
I0220 17:03:19.198905 17564 net.cpp:434] relu5_1 <- conv5_1
I0220 17:03:19.198912 17564 net.cpp:395] relu5_1 -> conv5_1 (in-place)
I0220 17:03:19.198923 17564 net.cpp:150] Setting up relu5_1
I0220 17:03:19.198930 17564 net.cpp:157] Top shape: 1 512 19 19 (184832)
I0220 17:03:19.198935 17564 net.cpp:165] Memory required for data: 217435168
I0220 17:03:19.198938 17564 layer_factory.hpp:77] Creating layer conv5_2
I0220 17:03:19.198951 17564 net.cpp:100] Creating Layer conv5_2
I0220 17:03:19.198954 17564 net.cpp:434] conv5_2 <- conv5_1
I0220 17:03:19.198962 17564 net.cpp:408] conv5_2 -> conv5_2
I0220 17:03:19.218277 17564 net.cpp:150] Setting up conv5_2
I0220 17:03:19.218303 17564 net.cpp:157] Top shape: 1 512 19 19 (184832)
I0220 17:03:19.218308 17564 net.cpp:165] Memory required for data: 218174496
I0220 17:03:19.218319 17564 layer_factory.hpp:77] Creating layer relu5_2
I0220 17:03:19.218331 17564 net.cpp:100] Creating Layer relu5_2
I0220 17:03:19.218338 17564 net.cpp:434] relu5_2 <- conv5_2
I0220 17:03:19.218346 17564 net.cpp:395] relu5_2 -> conv5_2 (in-place)
I0220 17:03:19.218359 17564 net.cpp:150] Setting up relu5_2
I0220 17:03:19.218365 17564 net.cpp:157] Top shape: 1 512 19 19 (184832)
I0220 17:03:19.218369 17564 net.cpp:165] Memory required for data: 218913824
I0220 17:03:19.218374 17564 layer_factory.hpp:77] Creating layer conv5_3
I0220 17:03:19.218389 17564 net.cpp:100] Creating Layer conv5_3
I0220 17:03:19.218394 17564 net.cpp:434] conv5_3 <- conv5_2
I0220 17:03:19.218405 17564 net.cpp:408] conv5_3 -> conv5_3
I0220 17:03:19.235780 17564 net.cpp:150] Setting up conv5_3
I0220 17:03:19.235805 17564 net.cpp:157] Top shape: 1 512 19 19 (184832)
I0220 17:03:19.235810 17564 net.cpp:165] Memory required for data: 219653152
I0220 17:03:19.235821 17564 layer_factory.hpp:77] Creating layer relu5_3
I0220 17:03:19.235836 17564 net.cpp:100] Creating Layer relu5_3
I0220 17:03:19.235842 17564 net.cpp:434] relu5_3 <- conv5_3
I0220 17:03:19.235851 17564 net.cpp:395] relu5_3 -> conv5_3 (in-place)
I0220 17:03:19.235862 17564 net.cpp:150] Setting up relu5_3
I0220 17:03:19.235868 17564 net.cpp:157] Top shape: 1 512 19 19 (184832)
I0220 17:03:19.235873 17564 net.cpp:165] Memory required for data: 220392480
I0220 17:03:19.235913 17564 layer_factory.hpp:77] Creating layer pool5
I0220 17:03:19.235932 17564 net.cpp:100] Creating Layer pool5
I0220 17:03:19.235947 17564 net.cpp:434] pool5 <- conv5_3
I0220 17:03:19.235965 17564 net.cpp:408] pool5 -> pool5
I0220 17:03:19.236012 17564 net.cpp:150] Setting up pool5
I0220 17:03:19.236021 17564 net.cpp:157] Top shape: 1 512 19 19 (184832)
I0220 17:03:19.236024 17564 net.cpp:165] Memory required for data: 221131808
I0220 17:03:19.236028 17564 layer_factory.hpp:77] Creating layer fc6
I0220 17:03:19.236042 17564 net.cpp:100] Creating Layer fc6
I0220 17:03:19.236045 17564 net.cpp:434] fc6 <- pool5
I0220 17:03:19.236052 17564 net.cpp:408] fc6 -> fc6
I0220 17:03:19.269579 17564 net.cpp:150] Setting up fc6
I0220 17:03:19.269604 17564 net.cpp:157] Top shape: 1 1024 19 19 (369664)
I0220 17:03:19.269608 17564 net.cpp:165] Memory required for data: 222610464
I0220 17:03:19.269620 17564 layer_factory.hpp:77] Creating layer relu6
I0220 17:03:19.269632 17564 net.cpp:100] Creating Layer relu6
I0220 17:03:19.269645 17564 net.cpp:434] relu6 <- fc6
I0220 17:03:19.269660 17564 net.cpp:395] relu6 -> fc6 (in-place)
I0220 17:03:19.269672 17564 net.cpp:150] Setting up relu6
I0220 17:03:19.269680 17564 net.cpp:157] Top shape: 1 1024 19 19 (369664)
I0220 17:03:19.269685 17564 net.cpp:165] Memory required for data: 224089120
I0220 17:03:19.269688 17564 layer_factory.hpp:77] Creating layer fc7
I0220 17:03:19.269700 17564 net.cpp:100] Creating Layer fc7
I0220 17:03:19.269704 17564 net.cpp:434] fc7 <- fc6
I0220 17:03:19.269711 17564 net.cpp:408] fc7 -> fc7
I0220 17:03:19.277161 17564 net.cpp:150] Setting up fc7
I0220 17:03:19.277175 17564 net.cpp:157] Top shape: 1 1024 19 19 (369664)
I0220 17:03:19.277180 17564 net.cpp:165] Memory required for data: 225567776
I0220 17:03:19.277189 17564 layer_factory.hpp:77] Creating layer relu7
I0220 17:03:19.277197 17564 net.cpp:100] Creating Layer relu7
I0220 17:03:19.277204 17564 net.cpp:434] relu7 <- fc7
I0220 17:03:19.277210 17564 net.cpp:395] relu7 -> fc7 (in-place)
I0220 17:03:19.277220 17564 net.cpp:150] Setting up relu7
I0220 17:03:19.277238 17564 net.cpp:157] Top shape: 1 1024 19 19 (369664)
I0220 17:03:19.277245 17564 net.cpp:165] Memory required for data: 227046432
I0220 17:03:19.277248 17564 layer_factory.hpp:77] Creating layer fc7_relu7_0_split
I0220 17:03:19.277256 17564 net.cpp:100] Creating Layer fc7_relu7_0_split
I0220 17:03:19.277261 17564 net.cpp:434] fc7_relu7_0_split <- fc7
I0220 17:03:19.277267 17564 net.cpp:408] fc7_relu7_0_split -> fc7_relu7_0_split_0
I0220 17:03:19.277276 17564 net.cpp:408] fc7_relu7_0_split -> fc7_relu7_0_split_1
I0220 17:03:19.277292 17564 net.cpp:408] fc7_relu7_0_split -> fc7_relu7_0_split_2
I0220 17:03:19.277299 17564 net.cpp:408] fc7_relu7_0_split -> fc7_relu7_0_split_3
I0220 17:03:19.277349 17564 net.cpp:150] Setting up fc7_relu7_0_split
I0220 17:03:19.277356 17564 net.cpp:157] Top shape: 1 1024 19 19 (369664)
I0220 17:03:19.277364 17564 net.cpp:157] Top shape: 1 1024 19 19 (369664)
I0220 17:03:19.277370 17564 net.cpp:157] Top shape: 1 1024 19 19 (369664)
I0220 17:03:19.277376 17564 net.cpp:157] Top shape: 1 1024 19 19 (369664)
I0220 17:03:19.277381 17564 net.cpp:165] Memory required for data: 232961056
I0220 17:03:19.277387 17564 layer_factory.hpp:77] Creating layer conv6_1
I0220 17:03:19.277397 17564 net.cpp:100] Creating Layer conv6_1
I0220 17:03:19.277402 17564 net.cpp:434] conv6_1 <- fc7_relu7_0_split_0
I0220 17:03:19.277410 17564 net.cpp:408] conv6_1 -> conv6_1
I0220 17:03:19.279794 17564 net.cpp:150] Setting up conv6_1
I0220 17:03:19.279808 17564 net.cpp:157] Top shape: 1 256 19 19 (92416)
I0220 17:03:19.279811 17564 net.cpp:165] Memory required for data: 233330720
I0220 17:03:19.279819 17564 layer_factory.hpp:77] Creating layer conv6_1_relu
I0220 17:03:19.279829 17564 net.cpp:100] Creating Layer conv6_1_relu
I0220 17:03:19.279834 17564 net.cpp:434] conv6_1_relu <- conv6_1
I0220 17:03:19.279841 17564 net.cpp:395] conv6_1_relu -> conv6_1 (in-place)
I0220 17:03:19.279850 17564 net.cpp:150] Setting up conv6_1_relu
I0220 17:03:19.279856 17564 net.cpp:157] Top shape: 1 256 19 19 (92416)
I0220 17:03:19.279873 17564 net.cpp:165] Memory required for data: 233700384
I0220 17:03:19.279878 17564 layer_factory.hpp:77] Creating layer conv6_2
I0220 17:03:19.279889 17564 net.cpp:100] Creating Layer conv6_2
I0220 17:03:19.279894 17564 net.cpp:434] conv6_2 <- conv6_1
I0220 17:03:19.279902 17564 net.cpp:408] conv6_2 -> conv6_2
I0220 17:03:19.288210 17564 net.cpp:150] Setting up conv6_2
I0220 17:03:19.288228 17564 net.cpp:157] Top shape: 1 512 10 10 (51200)
I0220 17:03:19.288231 17564 net.cpp:165] Memory required for data: 233905184
I0220 17:03:19.288249 17564 layer_factory.hpp:77] Creating layer conv6_2_relu
I0220 17:03:19.288257 17564 net.cpp:100] Creating Layer conv6_2_relu
I0220 17:03:19.288264 17564 net.cpp:434] conv6_2_relu <- conv6_2
I0220 17:03:19.288271 17564 net.cpp:395] conv6_2_relu -> conv6_2 (in-place)
I0220 17:03:19.288282 17564 net.cpp:150] Setting up conv6_2_relu
I0220 17:03:19.288287 17564 net.cpp:157] Top shape: 1 512 10 10 (51200)
I0220 17:03:19.288291 17564 net.cpp:165] Memory required for data: 234109984
I0220 17:03:19.288295 17564 layer_factory.hpp:77] Creating layer conv6_2_conv6_2_relu_0_split
I0220 17:03:19.288302 17564 net.cpp:100] Creating Layer conv6_2_conv6_2_relu_0_split
I0220 17:03:19.288306 17564 net.cpp:434] conv6_2_conv6_2_relu_0_split <- conv6_2
I0220 17:03:19.288313 17564 net.cpp:408] conv6_2_conv6_2_relu_0_split -> conv6_2_conv6_2_relu_0_split_0
I0220 17:03:19.288334 17564 net.cpp:408] conv6_2_conv6_2_relu_0_split -> conv6_2_conv6_2_relu_0_split_1
I0220 17:03:19.288343 17564 net.cpp:408] conv6_2_conv6_2_relu_0_split -> conv6_2_conv6_2_relu_0_split_2
I0220 17:03:19.288352 17564 net.cpp:408] conv6_2_conv6_2_relu_0_split -> conv6_2_conv6_2_relu_0_split_3
I0220 17:03:19.288404 17564 net.cpp:150] Setting up conv6_2_conv6_2_relu_0_split
I0220 17:03:19.288411 17564 net.cpp:157] Top shape: 1 512 10 10 (51200)
I0220 17:03:19.288417 17564 net.cpp:157] Top shape: 1 512 10 10 (51200)
I0220 17:03:19.288424 17564 net.cpp:157] Top shape: 1 512 10 10 (51200)
I0220 17:03:19.288430 17564 net.cpp:157] Top shape: 1 512 10 10 (51200)
I0220 17:03:19.288434 17564 net.cpp:165] Memory required for data: 234929184
I0220 17:03:19.288439 17564 layer_factory.hpp:77] Creating layer conv7_1
I0220 17:03:19.288451 17564 net.cpp:100] Creating Layer conv7_1
I0220 17:03:19.288456 17564 net.cpp:434] conv7_1 <- conv6_2_conv6_2_relu_0_split_0
I0220 17:03:19.288463 17564 net.cpp:408] conv7_1 -> conv7_1
I0220 17:03:19.289026 17564 net.cpp:150] Setting up conv7_1
I0220 17:03:19.289034 17564 net.cpp:157] Top shape: 1 128 10 10 (12800)
I0220 17:03:19.289039 17564 net.cpp:165] Memory required for data: 234980384
I0220 17:03:19.289047 17564 layer_factory.hpp:77] Creating layer conv7_1_relu
I0220 17:03:19.289053 17564 net.cpp:100] Creating Layer conv7_1_relu
I0220 17:03:19.289058 17564 net.cpp:434] conv7_1_relu <- conv7_1
I0220 17:03:19.289064 17564 net.cpp:395] conv7_1_relu -> conv7_1 (in-place)
I0220 17:03:19.289072 17564 net.cpp:150] Setting up conv7_1_relu
I0220 17:03:19.289079 17564 net.cpp:157] Top shape: 1 128 10 10 (12800)
I0220 17:03:19.289084 17564 net.cpp:165] Memory required for data: 235031584
I0220 17:03:19.289088 17564 layer_factory.hpp:77] Creating layer conv7_2
I0220 17:03:19.289096 17564 net.cpp:100] Creating Layer conv7_2
I0220 17:03:19.289101 17564 net.cpp:434] conv7_2 <- conv7_1
I0220 17:03:19.289108 17564 net.cpp:408] conv7_2 -> conv7_2
I0220 17:03:19.291687 17564 net.cpp:150] Setting up conv7_2
I0220 17:03:19.291697 17564 net.cpp:157] Top shape: 1 256 5 5 (6400)
I0220 17:03:19.291702 17564 net.cpp:165] Memory required for data: 235057184
I0220 17:03:19.291712 17564 layer_factory.hpp:77] Creating layer conv7_2_relu
I0220 17:03:19.291718 17564 net.cpp:100] Creating Layer conv7_2_relu
I0220 17:03:19.291724 17564 net.cpp:434] conv7_2_relu <- conv7_2
I0220 17:03:19.291733 17564 net.cpp:395] conv7_2_relu -> conv7_2 (in-place)
I0220 17:03:19.291741 17564 net.cpp:150] Setting up conv7_2_relu
I0220 17:03:19.291748 17564 net.cpp:157] Top shape: 1 256 5 5 (6400)
I0220 17:03:19.291764 17564 net.cpp:165] Memory required for data: 235082784
I0220 17:03:19.291770 17564 layer_factory.hpp:77] Creating layer conv7_2_conv7_2_relu_0_split
I0220 17:03:19.291776 17564 net.cpp:100] Creating Layer conv7_2_conv7_2_relu_0_split
I0220 17:03:19.291781 17564 net.cpp:434] conv7_2_conv7_2_relu_0_split <- conv7_2
I0220 17:03:19.291788 17564 net.cpp:408] conv7_2_conv7_2_relu_0_split -> conv7_2_conv7_2_relu_0_split_0
I0220 17:03:19.291798 17564 net.cpp:408] conv7_2_conv7_2_relu_0_split -> conv7_2_conv7_2_relu_0_split_1
I0220 17:03:19.291806 17564 net.cpp:408] conv7_2_conv7_2_relu_0_split -> conv7_2_conv7_2_relu_0_split_2
I0220 17:03:19.291815 17564 net.cpp:408] conv7_2_conv7_2_relu_0_split -> conv7_2_conv7_2_relu_0_split_3
I0220 17:03:19.291864 17564 net.cpp:150] Setting up conv7_2_conv7_2_relu_0_split
I0220 17:03:19.291872 17564 net.cpp:157] Top shape: 1 256 5 5 (6400)
I0220 17:03:19.291877 17564 net.cpp:157] Top shape: 1 256 5 5 (6400)
I0220 17:03:19.291883 17564 net.cpp:157] Top shape: 1 256 5 5 (6400)
I0220 17:03:19.291889 17564 net.cpp:157] Top shape: 1 256 5 5 (6400)
I0220 17:03:19.291894 17564 net.cpp:165] Memory required for data: 235185184
I0220 17:03:19.291898 17564 layer_factory.hpp:77] Creating layer conv8_1
I0220 17:03:19.291909 17564 net.cpp:100] Creating Layer conv8_1
I0220 17:03:19.291914 17564 net.cpp:434] conv8_1 <- conv7_2_conv7_2_relu_0_split_0
I0220 17:03:19.291923 17564 net.cpp:408] conv8_1 -> conv8_1
I0220 17:03:19.292284 17564 net.cpp:150] Setting up conv8_1
I0220 17:03:19.292291 17564 net.cpp:157] Top shape: 1 128 5 5 (3200)
I0220 17:03:19.292295 17564 net.cpp:165] Memory required for data: 235197984
I0220 17:03:19.292302 17564 layer_factory.hpp:77] Creating layer conv8_1_relu
I0220 17:03:19.292309 17564 net.cpp:100] Creating Layer conv8_1_relu
I0220 17:03:19.292315 17564 net.cpp:434] conv8_1_relu <- conv8_1
I0220 17:03:19.292320 17564 net.cpp:395] conv8_1_relu -> conv8_1 (in-place)
I0220 17:03:19.292328 17564 net.cpp:150] Setting up conv8_1_relu
I0220 17:03:19.292335 17564 net.cpp:157] Top shape: 1 128 5 5 (3200)
I0220 17:03:19.292340 17564 net.cpp:165] Memory required for data: 235210784
I0220 17:03:19.292345 17564 layer_factory.hpp:77] Creating layer conv8_2
I0220 17:03:19.292352 17564 net.cpp:100] Creating Layer conv8_2
I0220 17:03:19.292357 17564 net.cpp:434] conv8_2 <- conv8_1
I0220 17:03:19.292366 17564 net.cpp:408] conv8_2 -> conv8_2
I0220 17:03:19.294896 17564 net.cpp:150] Setting up conv8_2
I0220 17:03:19.294909 17564 net.cpp:157] Top shape: 1 256 3 3 (2304)
I0220 17:03:19.294912 17564 net.cpp:165] Memory required for data: 235220000
I0220 17:03:19.294921 17564 layer_factory.hpp:77] Creating layer conv8_2_relu
I0220 17:03:19.294929 17564 net.cpp:100] Creating Layer conv8_2_relu
I0220 17:03:19.294934 17564 net.cpp:434] conv8_2_relu <- conv8_2
I0220 17:03:19.294940 17564 net.cpp:395] conv8_2_relu -> conv8_2 (in-place)
I0220 17:03:19.294950 17564 net.cpp:150] Setting up conv8_2_relu
I0220 17:03:19.294956 17564 net.cpp:157] Top shape: 1 256 3 3 (2304)
I0220 17:03:19.294960 17564 net.cpp:165] Memory required for data: 235229216
I0220 17:03:19.294965 17564 layer_factory.hpp:77] Creating layer conv8_2_conv8_2_relu_0_split
I0220 17:03:19.294972 17564 net.cpp:100] Creating Layer conv8_2_conv8_2_relu_0_split
I0220 17:03:19.294977 17564 net.cpp:434] conv8_2_conv8_2_relu_0_split <- conv8_2
I0220 17:03:19.294984 17564 net.cpp:408] conv8_2_conv8_2_relu_0_split -> conv8_2_conv8_2_relu_0_split_0
I0220 17:03:19.294993 17564 net.cpp:408] conv8_2_conv8_2_relu_0_split -> conv8_2_conv8_2_relu_0_split_1
I0220 17:03:19.295002 17564 net.cpp:408] conv8_2_conv8_2_relu_0_split -> conv8_2_conv8_2_relu_0_split_2
I0220 17:03:19.295011 17564 net.cpp:408] conv8_2_conv8_2_relu_0_split -> conv8_2_conv8_2_relu_0_split_3
I0220 17:03:19.295059 17564 net.cpp:150] Setting up conv8_2_conv8_2_relu_0_split
I0220 17:03:19.295065 17564 net.cpp:157] Top shape: 1 256 3 3 (2304)
I0220 17:03:19.295073 17564 net.cpp:157] Top shape: 1 256 3 3 (2304)
I0220 17:03:19.295079 17564 net.cpp:157] Top shape: 1 256 3 3 (2304)
I0220 17:03:19.295094 17564 net.cpp:157] Top shape: 1 256 3 3 (2304)
I0220 17:03:19.295099 17564 net.cpp:165] Memory required for data: 235266080
I0220 17:03:19.295102 17564 layer_factory.hpp:77] Creating layer conv9_1
I0220 17:03:19.295114 17564 net.cpp:100] Creating Layer conv9_1
I0220 17:03:19.295119 17564 net.cpp:434] conv9_1 <- conv8_2_conv8_2_relu_0_split_0
I0220 17:03:19.295125 17564 net.cpp:408] conv9_1 -> conv9_1
I0220 17:03:19.295485 17564 net.cpp:150] Setting up conv9_1
I0220 17:03:19.295493 17564 net.cpp:157] Top shape: 1 128 3 3 (1152)
I0220 17:03:19.295498 17564 net.cpp:165] Memory required for data: 235270688
I0220 17:03:19.295506 17564 layer_factory.hpp:77] Creating layer conv9_1_relu
I0220 17:03:19.295511 17564 net.cpp:100] Creating Layer conv9_1_relu
I0220 17:03:19.295517 17564 net.cpp:434] conv9_1_relu <- conv9_1
I0220 17:03:19.295523 17564 net.cpp:395] conv9_1_relu -> conv9_1 (in-place)
I0220 17:03:19.295531 17564 net.cpp:150] Setting up conv9_1_relu
I0220 17:03:19.295537 17564 net.cpp:157] Top shape: 1 128 3 3 (1152)
I0220 17:03:19.295543 17564 net.cpp:165] Memory required for data: 235275296
I0220 17:03:19.295547 17564 layer_factory.hpp:77] Creating layer conv9_2
I0220 17:03:19.295555 17564 net.cpp:100] Creating Layer conv9_2
I0220 17:03:19.295560 17564 net.cpp:434] conv9_2 <- conv9_1
I0220 17:03:19.295568 17564 net.cpp:408] conv9_2 -> conv9_2
I0220 17:03:19.298107 17564 net.cpp:150] Setting up conv9_2
I0220 17:03:19.298118 17564 net.cpp:157] Top shape: 1 256 1 1 (256)
I0220 17:03:19.298122 17564 net.cpp:165] Memory required for data: 235276320
I0220 17:03:19.298131 17564 layer_factory.hpp:77] Creating layer conv9_2_relu
I0220 17:03:19.298138 17564 net.cpp:100] Creating Layer conv9_2_relu
I0220 17:03:19.298144 17564 net.cpp:434] conv9_2_relu <- conv9_2
I0220 17:03:19.298151 17564 net.cpp:395] conv9_2_relu -> conv9_2 (in-place)
I0220 17:03:19.298161 17564 net.cpp:150] Setting up conv9_2_relu
I0220 17:03:19.298166 17564 net.cpp:157] Top shape: 1 256 1 1 (256)
I0220 17:03:19.298171 17564 net.cpp:165] Memory required for data: 235277344
I0220 17:03:19.298174 17564 layer_factory.hpp:77] Creating layer conv9_2_conv9_2_relu_0_split
I0220 17:03:19.298182 17564 net.cpp:100] Creating Layer conv9_2_conv9_2_relu_0_split
I0220 17:03:19.298187 17564 net.cpp:434] conv9_2_conv9_2_relu_0_split <- conv9_2
I0220 17:03:19.298193 17564 net.cpp:408] conv9_2_conv9_2_relu_0_split -> conv9_2_conv9_2_relu_0_split_0
I0220 17:03:19.298202 17564 net.cpp:408] conv9_2_conv9_2_relu_0_split -> conv9_2_conv9_2_relu_0_split_1
I0220 17:03:19.298212 17564 net.cpp:408] conv9_2_conv9_2_relu_0_split -> conv9_2_conv9_2_relu_0_split_2
I0220 17:03:19.298250 17564 net.cpp:150] Setting up conv9_2_conv9_2_relu_0_split
I0220 17:03:19.298256 17564 net.cpp:157] Top shape: 1 256 1 1 (256)
I0220 17:03:19.298261 17564 net.cpp:157] Top shape: 1 256 1 1 (256)
I0220 17:03:19.298267 17564 net.cpp:157] Top shape: 1 256 1 1 (256)
I0220 17:03:19.298271 17564 net.cpp:165] Memory required for data: 235280416
I0220 17:03:19.298275 17564 layer_factory.hpp:77] Creating layer conv4_3_norm
I0220 17:03:19.298285 17564 net.cpp:100] Creating Layer conv4_3_norm
I0220 17:03:19.298290 17564 net.cpp:434] conv4_3_norm <- conv4_3_relu4_3_0_split_1
I0220 17:03:19.298297 17564 net.cpp:408] conv4_3_norm -> conv4_3_norm
I0220 17:03:19.298411 17564 net.cpp:150] Setting up conv4_3_norm
I0220 17:03:19.298418 17564 net.cpp:157] Top shape: 1 512 38 38 (739328)
I0220 17:03:19.298424 17564 net.cpp:165] Memory required for data: 238237728
I0220 17:03:19.298430 17564 layer_factory.hpp:77] Creating layer conv4_3_norm_conv4_3_norm_0_split
I0220 17:03:19.298437 17564 net.cpp:100] Creating Layer conv4_3_norm_conv4_3_norm_0_split
I0220 17:03:19.298442 17564 net.cpp:434] conv4_3_norm_conv4_3_norm_0_split <- conv4_3_norm
I0220 17:03:19.298451 17564 net.cpp:408] conv4_3_norm_conv4_3_norm_0_split -> conv4_3_norm_conv4_3_norm_0_split_0
I0220 17:03:19.298460 17564 net.cpp:408] conv4_3_norm_conv4_3_norm_0_split -> conv4_3_norm_conv4_3_norm_0_split_1
I0220 17:03:19.298468 17564 net.cpp:408] conv4_3_norm_conv4_3_norm_0_split -> conv4_3_norm_conv4_3_norm_0_split_2
I0220 17:03:19.298516 17564 net.cpp:150] Setting up conv4_3_norm_conv4_3_norm_0_split
I0220 17:03:19.298522 17564 net.cpp:157] Top shape: 1 512 38 38 (739328)
I0220 17:03:19.298529 17564 net.cpp:157] Top shape: 1 512 38 38 (739328)
I0220 17:03:19.298535 17564 net.cpp:157] Top shape: 1 512 38 38 (739328)
I0220 17:03:19.298539 17564 net.cpp:165] Memory required for data: 247109664
I0220 17:03:19.298544 17564 layer_factory.hpp:77] Creating layer conv4_3_norm_mbox_loc
I0220 17:03:19.298555 17564 net.cpp:100] Creating Layer conv4_3_norm_mbox_loc
I0220 17:03:19.298560 17564 net.cpp:434] conv4_3_norm_mbox_loc <- conv4_3_norm_conv4_3_norm_0_split_0
I0220 17:03:19.298568 17564 net.cpp:408] conv4_3_norm_mbox_loc -> conv4_3_norm_mbox_loc
I0220 17:03:19.299175 17564 net.cpp:150] Setting up conv4_3_norm_mbox_loc
I0220 17:03:19.299185 17564 net.cpp:157] Top shape: 1 16 38 38 (23104)
I0220 17:03:19.299188 17564 net.cpp:165] Memory required for data: 247202080
I0220 17:03:19.299196 17564 layer_factory.hpp:77] Creating layer conv4_3_norm_mbox_loc_perm
I0220 17:03:19.299204 17564 net.cpp:100] Creating Layer conv4_3_norm_mbox_loc_perm
I0220 17:03:19.299211 17564 net.cpp:434] conv4_3_norm_mbox_loc_perm <- conv4_3_norm_mbox_loc
I0220 17:03:19.299217 17564 net.cpp:408] conv4_3_norm_mbox_loc_perm -> conv4_3_norm_mbox_loc_perm
I0220 17:03:19.299293 17564 net.cpp:150] Setting up conv4_3_norm_mbox_loc_perm
I0220 17:03:19.299300 17564 net.cpp:157] Top shape: 1 38 38 16 (23104)
I0220 17:03:19.299304 17564 net.cpp:165] Memory required for data: 247294496
I0220 17:03:19.299307 17564 layer_factory.hpp:77] Creating layer conv4_3_norm_mbox_loc_flat
I0220 17:03:19.299314 17564 net.cpp:100] Creating Layer conv4_3_norm_mbox_loc_flat
I0220 17:03:19.299320 17564 net.cpp:434] conv4_3_norm_mbox_loc_flat <- conv4_3_norm_mbox_loc_perm
I0220 17:03:19.299326 17564 net.cpp:408] conv4_3_norm_mbox_loc_flat -> conv4_3_norm_mbox_loc_flat
I0220 17:03:19.299357 17564 net.cpp:150] Setting up conv4_3_norm_mbox_loc_flat
I0220 17:03:19.299365 17564 net.cpp:157] Top shape: 1 23104 (23104)
I0220 17:03:19.299370 17564 net.cpp:165] Memory required for data: 247386912
I0220 17:03:19.299373 17564 layer_factory.hpp:77] Creating layer conv4_3_norm_mbox_conf
I0220 17:03:19.299387 17564 net.cpp:100] Creating Layer conv4_3_norm_mbox_conf
I0220 17:03:19.299392 17564 net.cpp:434] conv4_3_norm_mbox_conf <- conv4_3_norm_conv4_3_norm_0_split_1
I0220 17:03:19.299401 17564 net.cpp:408] conv4_3_norm_mbox_conf -> conv4_3_norm_mbox_conf
I0220 17:03:19.302654 17564 net.cpp:150] Setting up conv4_3_norm_mbox_conf
I0220 17:03:19.302672 17564 net.cpp:157] Top shape: 1 84 38 38 (121296)
I0220 17:03:19.302676 17564 net.cpp:165] Memory required for data: 247872096
I0220 17:03:19.302686 17564 layer_factory.hpp:77] Creating layer conv4_3_norm_mbox_conf_perm
I0220 17:03:19.302697 17564 net.cpp:100] Creating Layer conv4_3_norm_mbox_conf_perm
I0220 17:03:19.302702 17564 net.cpp:434] conv4_3_norm_mbox_conf_perm <- conv4_3_norm_mbox_conf
I0220 17:03:19.302711 17564 net.cpp:408] conv4_3_norm_mbox_conf_perm -> conv4_3_norm_mbox_conf_perm
I0220 17:03:19.302788 17564 net.cpp:150] Setting up conv4_3_norm_mbox_conf_perm
I0220 17:03:19.302794 17564 net.cpp:157] Top shape: 1 38 38 84 (121296)
I0220 17:03:19.302798 17564 net.cpp:165] Memory required for data: 248357280
I0220 17:03:19.302803 17564 layer_factory.hpp:77] Creating layer conv4_3_norm_mbox_conf_flat
I0220 17:03:19.302809 17564 net.cpp:100] Creating Layer conv4_3_norm_mbox_conf_flat
I0220 17:03:19.302815 17564 net.cpp:434] conv4_3_norm_mbox_conf_flat <- conv4_3_norm_mbox_conf_perm
I0220 17:03:19.302822 17564 net.cpp:408] conv4_3_norm_mbox_conf_flat -> conv4_3_norm_mbox_conf_flat
I0220 17:03:19.302845 17564 net.cpp:150] Setting up conv4_3_norm_mbox_conf_flat
I0220 17:03:19.302851 17564 net.cpp:157] Top shape: 1 121296 (121296)
I0220 17:03:19.302855 17564 net.cpp:165] Memory required for data: 248842464
I0220 17:03:19.302860 17564 layer_factory.hpp:77] Creating layer conv4_3_norm_mbox_priorbox
I0220 17:03:19.302880 17564 net.cpp:100] Creating Layer conv4_3_norm_mbox_priorbox
I0220 17:03:19.302886 17564 net.cpp:434] conv4_3_norm_mbox_priorbox <- conv4_3_norm_conv4_3_norm_0_split_2
I0220 17:03:19.302896 17564 net.cpp:434] conv4_3_norm_mbox_priorbox <- data_data_0_split_1
I0220 17:03:19.302903 17564 net.cpp:408] conv4_3_norm_mbox_priorbox -> conv4_3_norm_mbox_priorbox
I0220 17:03:19.302932 17564 net.cpp:150] Setting up conv4_3_norm_mbox_priorbox
I0220 17:03:19.302938 17564 net.cpp:157] Top shape: 1 2 23104 (46208)
I0220 17:03:19.302942 17564 net.cpp:165] Memory required for data: 249027296
I0220 17:03:19.302947 17564 layer_factory.hpp:77] Creating layer fc7_mbox_loc
I0220 17:03:19.302956 17564 net.cpp:100] Creating Layer fc7_mbox_loc
I0220 17:03:19.302961 17564 net.cpp:434] fc7_mbox_loc <- fc7_relu7_0_split_1
I0220 17:03:19.302969 17564 net.cpp:408] fc7_mbox_loc -> fc7_mbox_loc
I0220 17:03:19.304466 17564 net.cpp:150] Setting up fc7_mbox_loc
I0220 17:03:19.304476 17564 net.cpp:157] Top shape: 1 24 19 19 (8664)
I0220 17:03:19.304482 17564 net.cpp:165] Memory required for data: 249061952
I0220 17:03:19.304491 17564 layer_factory.hpp:77] Creating layer fc7_mbox_loc_perm
I0220 17:03:19.304498 17564 net.cpp:100] Creating Layer fc7_mbox_loc_perm
I0220 17:03:19.304504 17564 net.cpp:434] fc7_mbox_loc_perm <- fc7_mbox_loc
I0220 17:03:19.304512 17564 net.cpp:408] fc7_mbox_loc_perm -> fc7_mbox_loc_perm
I0220 17:03:19.304589 17564 net.cpp:150] Setting up fc7_mbox_loc_perm
I0220 17:03:19.304596 17564 net.cpp:157] Top shape: 1 19 19 24 (8664)
I0220 17:03:19.304600 17564 net.cpp:165] Memory required for data: 249096608
I0220 17:03:19.304605 17564 layer_factory.hpp:77] Creating layer fc7_mbox_loc_flat
I0220 17:03:19.304613 17564 net.cpp:100] Creating Layer fc7_mbox_loc_flat
I0220 17:03:19.304618 17564 net.cpp:434] fc7_mbox_loc_flat <- fc7_mbox_loc_perm
I0220 17:03:19.304625 17564 net.cpp:408] fc7_mbox_loc_flat -> fc7_mbox_loc_flat
I0220 17:03:19.304649 17564 net.cpp:150] Setting up fc7_mbox_loc_flat
I0220 17:03:19.304656 17564 net.cpp:157] Top shape: 1 8664 (8664)
I0220 17:03:19.304658 17564 net.cpp:165] Memory required for data: 249131264
I0220 17:03:19.304662 17564 layer_factory.hpp:77] Creating layer fc7_mbox_conf
I0220 17:03:19.304672 17564 net.cpp:100] Creating Layer fc7_mbox_conf
I0220 17:03:19.304678 17564 net.cpp:434] fc7_mbox_conf <- fc7_relu7_0_split_2
I0220 17:03:19.304687 17564 net.cpp:408] fc7_mbox_conf -> fc7_mbox_conf
I0220 17:03:19.312875 17564 net.cpp:150] Setting up fc7_mbox_conf
I0220 17:03:19.312889 17564 net.cpp:157] Top shape: 1 126 19 19 (45486)
I0220 17:03:19.312894 17564 net.cpp:165] Memory required for data: 249313208
I0220 17:03:19.312903 17564 layer_factory.hpp:77] Creating layer fc7_mbox_conf_perm
I0220 17:03:19.312912 17564 net.cpp:100] Creating Layer fc7_mbox_conf_perm
I0220 17:03:19.312918 17564 net.cpp:434] fc7_mbox_conf_perm <- fc7_mbox_conf
I0220 17:03:19.312930 17564 net.cpp:408] fc7_mbox_conf_perm -> fc7_mbox_conf_perm
I0220 17:03:19.313014 17564 net.cpp:150] Setting up fc7_mbox_conf_perm
I0220 17:03:19.313021 17564 net.cpp:157] Top shape: 1 19 19 126 (45486)
I0220 17:03:19.313026 17564 net.cpp:165] Memory required for data: 249495152
I0220 17:03:19.313032 17564 layer_factory.hpp:77] Creating layer fc7_mbox_conf_flat
I0220 17:03:19.313040 17564 net.cpp:100] Creating Layer fc7_mbox_conf_flat
I0220 17:03:19.313045 17564 net.cpp:434] fc7_mbox_conf_flat <- fc7_mbox_conf_perm
I0220 17:03:19.313052 17564 net.cpp:408] fc7_mbox_conf_flat -> fc7_mbox_conf_flat
I0220 17:03:19.313078 17564 net.cpp:150] Setting up fc7_mbox_conf_flat
I0220 17:03:19.313084 17564 net.cpp:157] Top shape: 1 45486 (45486)
I0220 17:03:19.313087 17564 net.cpp:165] Memory required for data: 249677096
I0220 17:03:19.313091 17564 layer_factory.hpp:77] Creating layer fc7_mbox_priorbox
I0220 17:03:19.313103 17564 net.cpp:100] Creating Layer fc7_mbox_priorbox
I0220 17:03:19.313107 17564 net.cpp:434] fc7_mbox_priorbox <- fc7_relu7_0_split_3
I0220 17:03:19.313114 17564 net.cpp:434] fc7_mbox_priorbox <- data_data_0_split_2
I0220 17:03:19.313123 17564 net.cpp:408] fc7_mbox_priorbox -> fc7_mbox_priorbox
I0220 17:03:19.313158 17564 net.cpp:150] Setting up fc7_mbox_priorbox
I0220 17:03:19.313165 17564 net.cpp:157] Top shape: 1 2 8664 (17328)
I0220 17:03:19.313170 17564 net.cpp:165] Memory required for data: 249746408
I0220 17:03:19.313174 17564 layer_factory.hpp:77] Creating layer conv6_2_mbox_loc
I0220 17:03:19.313192 17564 net.cpp:100] Creating Layer conv6_2_mbox_loc
I0220 17:03:19.313199 17564 net.cpp:434] conv6_2_mbox_loc <- conv6_2_conv6_2_relu_0_split_1
I0220 17:03:19.313207 17564 net.cpp:408] conv6_2_mbox_loc -> conv6_2_mbox_loc
I0220 17:03:19.314048 17564 net.cpp:150] Setting up conv6_2_mbox_loc
I0220 17:03:19.314057 17564 net.cpp:157] Top shape: 1 24 10 10 (2400)
I0220 17:03:19.314061 17564 net.cpp:165] Memory required for data: 249756008
I0220 17:03:19.314069 17564 layer_factory.hpp:77] Creating layer conv6_2_mbox_loc_perm
I0220 17:03:19.314079 17564 net.cpp:100] Creating Layer conv6_2_mbox_loc_perm
I0220 17:03:19.314085 17564 net.cpp:434] conv6_2_mbox_loc_perm <- conv6_2_mbox_loc
I0220 17:03:19.314091 17564 net.cpp:408] conv6_2_mbox_loc_perm -> conv6_2_mbox_loc_perm
I0220 17:03:19.314172 17564 net.cpp:150] Setting up conv6_2_mbox_loc_perm
I0220 17:03:19.314178 17564 net.cpp:157] Top shape: 1 10 10 24 (2400)
I0220 17:03:19.314183 17564 net.cpp:165] Memory required for data: 249765608
I0220 17:03:19.314188 17564 layer_factory.hpp:77] Creating layer conv6_2_mbox_loc_flat
I0220 17:03:19.314193 17564 net.cpp:100] Creating Layer conv6_2_mbox_loc_flat
I0220 17:03:19.314198 17564 net.cpp:434] conv6_2_mbox_loc_flat <- conv6_2_mbox_loc_perm
I0220 17:03:19.314208 17564 net.cpp:408] conv6_2_mbox_loc_flat -> conv6_2_mbox_loc_flat
I0220 17:03:19.314230 17564 net.cpp:150] Setting up conv6_2_mbox_loc_flat
I0220 17:03:19.314236 17564 net.cpp:157] Top shape: 1 2400 (2400)
I0220 17:03:19.314240 17564 net.cpp:165] Memory required for data: 249775208
I0220 17:03:19.314245 17564 layer_factory.hpp:77] Creating layer conv6_2_mbox_conf
I0220 17:03:19.314255 17564 net.cpp:100] Creating Layer conv6_2_mbox_conf
I0220 17:03:19.314260 17564 net.cpp:434] conv6_2_mbox_conf <- conv6_2_conv6_2_relu_0_split_2
I0220 17:03:19.314270 17564 net.cpp:408] conv6_2_mbox_conf -> conv6_2_mbox_conf
I0220 17:03:19.318680 17564 net.cpp:150] Setting up conv6_2_mbox_conf
I0220 17:03:19.318693 17564 net.cpp:157] Top shape: 1 126 10 10 (12600)
I0220 17:03:19.318697 17564 net.cpp:165] Memory required for data: 249825608
I0220 17:03:19.318706 17564 layer_factory.hpp:77] Creating layer conv6_2_mbox_conf_perm
I0220 17:03:19.318716 17564 net.cpp:100] Creating Layer conv6_2_mbox_conf_perm
I0220 17:03:19.318722 17564 net.cpp:434] conv6_2_mbox_conf_perm <- conv6_2_mbox_conf
I0220 17:03:19.318732 17564 net.cpp:408] conv6_2_mbox_conf_perm -> conv6_2_mbox_conf_perm
I0220 17:03:19.318814 17564 net.cpp:150] Setting up conv6_2_mbox_conf_perm
I0220 17:03:19.318823 17564 net.cpp:157] Top shape: 1 10 10 126 (12600)
I0220 17:03:19.318827 17564 net.cpp:165] Memory required for data: 249876008
I0220 17:03:19.318832 17564 layer_factory.hpp:77] Creating layer conv6_2_mbox_conf_flat
I0220 17:03:19.318840 17564 net.cpp:100] Creating Layer conv6_2_mbox_conf_flat
I0220 17:03:19.318845 17564 net.cpp:434] conv6_2_mbox_conf_flat <- conv6_2_mbox_conf_perm
I0220 17:03:19.318853 17564 net.cpp:408] conv6_2_mbox_conf_flat -> conv6_2_mbox_conf_flat
I0220 17:03:19.318876 17564 net.cpp:150] Setting up conv6_2_mbox_conf_flat
I0220 17:03:19.318882 17564 net.cpp:157] Top shape: 1 12600 (12600)
I0220 17:03:19.318886 17564 net.cpp:165] Memory required for data: 249926408
I0220 17:03:19.318891 17564 layer_factory.hpp:77] Creating layer conv6_2_mbox_priorbox
I0220 17:03:19.318899 17564 net.cpp:100] Creating Layer conv6_2_mbox_priorbox
I0220 17:03:19.318904 17564 net.cpp:434] conv6_2_mbox_priorbox <- conv6_2_conv6_2_relu_0_split_3
I0220 17:03:19.318912 17564 net.cpp:434] conv6_2_mbox_priorbox <- data_data_0_split_3
I0220 17:03:19.318922 17564 net.cpp:408] conv6_2_mbox_priorbox -> conv6_2_mbox_priorbox
I0220 17:03:19.318946 17564 net.cpp:150] Setting up conv6_2_mbox_priorbox
I0220 17:03:19.318964 17564 net.cpp:157] Top shape: 1 2 2400 (4800)
I0220 17:03:19.318969 17564 net.cpp:165] Memory required for data: 249945608
I0220 17:03:19.318972 17564 layer_factory.hpp:77] Creating layer conv7_2_mbox_loc
I0220 17:03:19.318985 17564 net.cpp:100] Creating Layer conv7_2_mbox_loc
I0220 17:03:19.318989 17564 net.cpp:434] conv7_2_mbox_loc <- conv7_2_conv7_2_relu_0_split_1
I0220 17:03:19.319000 17564 net.cpp:408] conv7_2_mbox_loc -> conv7_2_mbox_loc
I0220 17:03:19.319528 17564 net.cpp:150] Setting up conv7_2_mbox_loc
I0220 17:03:19.319538 17564 net.cpp:157] Top shape: 1 24 5 5 (600)
I0220 17:03:19.319541 17564 net.cpp:165] Memory required for data: 249948008
I0220 17:03:19.319550 17564 layer_factory.hpp:77] Creating layer conv7_2_mbox_loc_perm
I0220 17:03:19.319557 17564 net.cpp:100] Creating Layer conv7_2_mbox_loc_perm
I0220 17:03:19.319561 17564 net.cpp:434] conv7_2_mbox_loc_perm <- conv7_2_mbox_loc
I0220 17:03:19.319567 17564 net.cpp:408] conv7_2_mbox_loc_perm -> conv7_2_mbox_loc_perm
I0220 17:03:19.319665 17564 net.cpp:150] Setting up conv7_2_mbox_loc_perm
I0220 17:03:19.319674 17564 net.cpp:157] Top shape: 1 5 5 24 (600)
I0220 17:03:19.319677 17564 net.cpp:165] Memory required for data: 249950408
I0220 17:03:19.319680 17564 layer_factory.hpp:77] Creating layer conv7_2_mbox_loc_flat
I0220 17:03:19.319687 17564 net.cpp:100] Creating Layer conv7_2_mbox_loc_flat
I0220 17:03:19.319692 17564 net.cpp:434] conv7_2_mbox_loc_flat <- conv7_2_mbox_loc_perm
I0220 17:03:19.319700 17564 net.cpp:408] conv7_2_mbox_loc_flat -> conv7_2_mbox_loc_flat
I0220 17:03:19.319725 17564 net.cpp:150] Setting up conv7_2_mbox_loc_flat
I0220 17:03:19.319730 17564 net.cpp:157] Top shape: 1 600 (600)
I0220 17:03:19.319733 17564 net.cpp:165] Memory required for data: 249952808
I0220 17:03:19.319736 17564 layer_factory.hpp:77] Creating layer conv7_2_mbox_conf
I0220 17:03:19.319742 17564 net.cpp:100] Creating Layer conv7_2_mbox_conf
I0220 17:03:19.319746 17564 net.cpp:434] conv7_2_mbox_conf <- conv7_2_conv7_2_relu_0_split_2
I0220 17:03:19.319753 17564 net.cpp:408] conv7_2_mbox_conf -> conv7_2_mbox_conf
I0220 17:03:19.322301 17564 net.cpp:150] Setting up conv7_2_mbox_conf
I0220 17:03:19.322311 17564 net.cpp:157] Top shape: 1 126 5 5 (3150)
I0220 17:03:19.322314 17564 net.cpp:165] Memory required for data: 249965408
I0220 17:03:19.322319 17564 layer_factory.hpp:77] Creating layer conv7_2_mbox_conf_perm
I0220 17:03:19.322324 17564 net.cpp:100] Creating Layer conv7_2_mbox_conf_perm
I0220 17:03:19.322329 17564 net.cpp:434] conv7_2_mbox_conf_perm <- conv7_2_mbox_conf
I0220 17:03:19.322335 17564 net.cpp:408] conv7_2_mbox_conf_perm -> conv7_2_mbox_conf_perm
I0220 17:03:19.322413 17564 net.cpp:150] Setting up conv7_2_mbox_conf_perm
I0220 17:03:19.322419 17564 net.cpp:157] Top shape: 1 5 5 126 (3150)
I0220 17:03:19.322422 17564 net.cpp:165] Memory required for data: 249978008
I0220 17:03:19.322424 17564 layer_factory.hpp:77] Creating layer conv7_2_mbox_conf_flat
I0220 17:03:19.322429 17564 net.cpp:100] Creating Layer conv7_2_mbox_conf_flat
I0220 17:03:19.322432 17564 net.cpp:434] conv7_2_mbox_conf_flat <- conv7_2_mbox_conf_perm
I0220 17:03:19.322438 17564 net.cpp:408] conv7_2_mbox_conf_flat -> conv7_2_mbox_conf_flat
I0220 17:03:19.322455 17564 net.cpp:150] Setting up conv7_2_mbox_conf_flat
I0220 17:03:19.322460 17564 net.cpp:157] Top shape: 1 3150 (3150)
I0220 17:03:19.322463 17564 net.cpp:165] Memory required for data: 249990608
I0220 17:03:19.322464 17564 layer_factory.hpp:77] Creating layer conv7_2_mbox_priorbox
I0220 17:03:19.322471 17564 net.cpp:100] Creating Layer conv7_2_mbox_priorbox
I0220 17:03:19.322474 17564 net.cpp:434] conv7_2_mbox_priorbox <- conv7_2_conv7_2_relu_0_split_3
I0220 17:03:19.322477 17564 net.cpp:434] conv7_2_mbox_priorbox <- data_data_0_split_4
I0220 17:03:19.322482 17564 net.cpp:408] conv7_2_mbox_priorbox -> conv7_2_mbox_priorbox
I0220 17:03:19.322501 17564 net.cpp:150] Setting up conv7_2_mbox_priorbox
I0220 17:03:19.322505 17564 net.cpp:157] Top shape: 1 2 600 (1200)
I0220 17:03:19.322507 17564 net.cpp:165] Memory required for data: 249995408
I0220 17:03:19.322521 17564 layer_factory.hpp:77] Creating layer conv8_2_mbox_loc
I0220 17:03:19.322530 17564 net.cpp:100] Creating Layer conv8_2_mbox_loc
I0220 17:03:19.322533 17564 net.cpp:434] conv8_2_mbox_loc <- conv8_2_conv8_2_relu_0_split_1
I0220 17:03:19.322538 17564 net.cpp:408] conv8_2_mbox_loc -> conv8_2_mbox_loc
I0220 17:03:19.322954 17564 net.cpp:150] Setting up conv8_2_mbox_loc
I0220 17:03:19.322962 17564 net.cpp:157] Top shape: 1 16 3 3 (144)
I0220 17:03:19.322964 17564 net.cpp:165] Memory required for data: 249995984
I0220 17:03:19.322978 17564 layer_factory.hpp:77] Creating layer conv8_2_mbox_loc_perm
I0220 17:03:19.322983 17564 net.cpp:100] Creating Layer conv8_2_mbox_loc_perm
I0220 17:03:19.322988 17564 net.cpp:434] conv8_2_mbox_loc_perm <- conv8_2_mbox_loc
I0220 17:03:19.322993 17564 net.cpp:408] conv8_2_mbox_loc_perm -> conv8_2_mbox_loc_perm
I0220 17:03:19.323068 17564 net.cpp:150] Setting up conv8_2_mbox_loc_perm
I0220 17:03:19.323073 17564 net.cpp:157] Top shape: 1 3 3 16 (144)
I0220 17:03:19.323076 17564 net.cpp:165] Memory required for data: 249996560
I0220 17:03:19.323078 17564 layer_factory.hpp:77] Creating layer conv8_2_mbox_loc_flat
I0220 17:03:19.323083 17564 net.cpp:100] Creating Layer conv8_2_mbox_loc_flat
I0220 17:03:19.323087 17564 net.cpp:434] conv8_2_mbox_loc_flat <- conv8_2_mbox_loc_perm
I0220 17:03:19.323092 17564 net.cpp:408] conv8_2_mbox_loc_flat -> conv8_2_mbox_loc_flat
I0220 17:03:19.323109 17564 net.cpp:150] Setting up conv8_2_mbox_loc_flat
I0220 17:03:19.323114 17564 net.cpp:157] Top shape: 1 144 (144)
I0220 17:03:19.323117 17564 net.cpp:165] Memory required for data: 249997136
I0220 17:03:19.323119 17564 layer_factory.hpp:77] Creating layer conv8_2_mbox_conf
I0220 17:03:19.323129 17564 net.cpp:100] Creating Layer conv8_2_mbox_conf
I0220 17:03:19.323133 17564 net.cpp:434] conv8_2_mbox_conf <- conv8_2_conv8_2_relu_0_split_2
I0220 17:03:19.323139 17564 net.cpp:408] conv8_2_mbox_conf -> conv8_2_mbox_conf
I0220 17:03:19.324440 17564 net.cpp:150] Setting up conv8_2_mbox_conf
I0220 17:03:19.324446 17564 net.cpp:157] Top shape: 1 84 3 3 (756)
I0220 17:03:19.324448 17564 net.cpp:165] Memory required for data: 250000160
I0220 17:03:19.324453 17564 layer_factory.hpp:77] Creating layer conv8_2_mbox_conf_perm
I0220 17:03:19.324457 17564 net.cpp:100] Creating Layer conv8_2_mbox_conf_perm
I0220 17:03:19.324461 17564 net.cpp:434] conv8_2_mbox_conf_perm <- conv8_2_mbox_conf
I0220 17:03:19.324467 17564 net.cpp:408] conv8_2_mbox_conf_perm -> conv8_2_mbox_conf_perm
I0220 17:03:19.324542 17564 net.cpp:150] Setting up conv8_2_mbox_conf_perm
I0220 17:03:19.324548 17564 net.cpp:157] Top shape: 1 3 3 84 (756)
I0220 17:03:19.324550 17564 net.cpp:165] Memory required for data: 250003184
I0220 17:03:19.324553 17564 layer_factory.hpp:77] Creating layer conv8_2_mbox_conf_flat
I0220 17:03:19.324556 17564 net.cpp:100] Creating Layer conv8_2_mbox_conf_flat
I0220 17:03:19.324559 17564 net.cpp:434] conv8_2_mbox_conf_flat <- conv8_2_mbox_conf_perm
I0220 17:03:19.324564 17564 net.cpp:408] conv8_2_mbox_conf_flat -> conv8_2_mbox_conf_flat
I0220 17:03:19.324580 17564 net.cpp:150] Setting up conv8_2_mbox_conf_flat
I0220 17:03:19.324585 17564 net.cpp:157] Top shape: 1 756 (756)
I0220 17:03:19.324589 17564 net.cpp:165] Memory required for data: 250006208
I0220 17:03:19.324591 17564 layer_factory.hpp:77] Creating layer conv8_2_mbox_priorbox
I0220 17:03:19.324595 17564 net.cpp:100] Creating Layer conv8_2_mbox_priorbox
I0220 17:03:19.324599 17564 net.cpp:434] conv8_2_mbox_priorbox <- conv8_2_conv8_2_relu_0_split_3
I0220 17:03:19.324602 17564 net.cpp:434] conv8_2_mbox_priorbox <- data_data_0_split_5
I0220 17:03:19.324609 17564 net.cpp:408] conv8_2_mbox_priorbox -> conv8_2_mbox_priorbox
I0220 17:03:19.324626 17564 net.cpp:150] Setting up conv8_2_mbox_priorbox
I0220 17:03:19.324632 17564 net.cpp:157] Top shape: 1 2 144 (288)
I0220 17:03:19.324635 17564 net.cpp:165] Memory required for data: 250007360
I0220 17:03:19.324637 17564 layer_factory.hpp:77] Creating layer conv9_2_mbox_loc
I0220 17:03:19.324652 17564 net.cpp:100] Creating Layer conv9_2_mbox_loc
I0220 17:03:19.324656 17564 net.cpp:434] conv9_2_mbox_loc <- conv9_2_conv9_2_relu_0_split_0
I0220 17:03:19.324661 17564 net.cpp:408] conv9_2_mbox_loc -> conv9_2_mbox_loc
I0220 17:03:19.325055 17564 net.cpp:150] Setting up conv9_2_mbox_loc
I0220 17:03:19.325062 17564 net.cpp:157] Top shape: 1 16 1 1 (16)
I0220 17:03:19.325063 17564 net.cpp:165] Memory required for data: 250007424
I0220 17:03:19.325068 17564 layer_factory.hpp:77] Creating layer conv9_2_mbox_loc_perm
I0220 17:03:19.325074 17564 net.cpp:100] Creating Layer conv9_2_mbox_loc_perm
I0220 17:03:19.325078 17564 net.cpp:434] conv9_2_mbox_loc_perm <- conv9_2_mbox_loc
I0220 17:03:19.325081 17564 net.cpp:408] conv9_2_mbox_loc_perm -> conv9_2_mbox_loc_perm
I0220 17:03:19.325155 17564 net.cpp:150] Setting up conv9_2_mbox_loc_perm
I0220 17:03:19.325160 17564 net.cpp:157] Top shape: 1 1 1 16 (16)
I0220 17:03:19.325162 17564 net.cpp:165] Memory required for data: 250007488
I0220 17:03:19.325165 17564 layer_factory.hpp:77] Creating layer conv9_2_mbox_loc_flat
I0220 17:03:19.325170 17564 net.cpp:100] Creating Layer conv9_2_mbox_loc_flat
I0220 17:03:19.325172 17564 net.cpp:434] conv9_2_mbox_loc_flat <- conv9_2_mbox_loc_perm
I0220 17:03:19.325177 17564 net.cpp:408] conv9_2_mbox_loc_flat -> conv9_2_mbox_loc_flat
I0220 17:03:19.325194 17564 net.cpp:150] Setting up conv9_2_mbox_loc_flat
I0220 17:03:19.325199 17564 net.cpp:157] Top shape: 1 16 (16)
I0220 17:03:19.325201 17564 net.cpp:165] Memory required for data: 250007552
I0220 17:03:19.325204 17564 layer_factory.hpp:77] Creating layer conv9_2_mbox_conf
I0220 17:03:19.325211 17564 net.cpp:100] Creating Layer conv9_2_mbox_conf
I0220 17:03:19.325214 17564 net.cpp:434] conv9_2_mbox_conf <- conv9_2_conv9_2_relu_0_split_1
I0220 17:03:19.325220 17564 net.cpp:408] conv9_2_mbox_conf -> conv9_2_mbox_conf
I0220 17:03:19.326539 17564 net.cpp:150] Setting up conv9_2_mbox_conf
I0220 17:03:19.326546 17564 net.cpp:157] Top shape: 1 84 1 1 (84)
I0220 17:03:19.326550 17564 net.cpp:165] Memory required for data: 250007888
I0220 17:03:19.326555 17564 layer_factory.hpp:77] Creating layer conv9_2_mbox_conf_perm
I0220 17:03:19.326558 17564 net.cpp:100] Creating Layer conv9_2_mbox_conf_perm
I0220 17:03:19.326561 17564 net.cpp:434] conv9_2_mbox_conf_perm <- conv9_2_mbox_conf
I0220 17:03:19.326565 17564 net.cpp:408] conv9_2_mbox_conf_perm -> conv9_2_mbox_conf_perm
I0220 17:03:19.326638 17564 net.cpp:150] Setting up conv9_2_mbox_conf_perm
I0220 17:03:19.326645 17564 net.cpp:157] Top shape: 1 1 1 84 (84)
I0220 17:03:19.326649 17564 net.cpp:165] Memory required for data: 250008224
I0220 17:03:19.326653 17564 layer_factory.hpp:77] Creating layer conv9_2_mbox_conf_flat
I0220 17:03:19.326661 17564 net.cpp:100] Creating Layer conv9_2_mbox_conf_flat
I0220 17:03:19.326665 17564 net.cpp:434] conv9_2_mbox_conf_flat <- conv9_2_mbox_conf_perm
I0220 17:03:19.326673 17564 net.cpp:408] conv9_2_mbox_conf_flat -> conv9_2_mbox_conf_flat
I0220 17:03:19.326711 17564 net.cpp:150] Setting up conv9_2_mbox_conf_flat
I0220 17:03:19.326719 17564 net.cpp:157] Top shape: 1 84 (84)
I0220 17:03:19.326721 17564 net.cpp:165] Memory required for data: 250008560
I0220 17:03:19.326725 17564 layer_factory.hpp:77] Creating layer conv9_2_mbox_priorbox
I0220 17:03:19.326735 17564 net.cpp:100] Creating Layer conv9_2_mbox_priorbox
I0220 17:03:19.326741 17564 net.cpp:434] conv9_2_mbox_priorbox <- conv9_2_conv9_2_relu_0_split_2
I0220 17:03:19.326747 17564 net.cpp:434] conv9_2_mbox_priorbox <- data_data_0_split_6
I0220 17:03:19.326757 17564 net.cpp:408] conv9_2_mbox_priorbox -> conv9_2_mbox_priorbox
I0220 17:03:19.326783 17564 net.cpp:150] Setting up conv9_2_mbox_priorbox
I0220 17:03:19.326791 17564 net.cpp:157] Top shape: 1 2 16 (32)
I0220 17:03:19.326793 17564 net.cpp:165] Memory required for data: 250008688
I0220 17:03:19.326797 17564 layer_factory.hpp:77] Creating layer mbox_loc
I0220 17:03:19.326807 17564 net.cpp:100] Creating Layer mbox_loc
I0220 17:03:19.326813 17564 net.cpp:434] mbox_loc <- conv4_3_norm_mbox_loc_flat
I0220 17:03:19.326828 17564 net.cpp:434] mbox_loc <- fc7_mbox_loc_flat
I0220 17:03:19.326835 17564 net.cpp:434] mbox_loc <- conv6_2_mbox_loc_flat
I0220 17:03:19.326841 17564 net.cpp:434] mbox_loc <- conv7_2_mbox_loc_flat
I0220 17:03:19.326846 17564 net.cpp:434] mbox_loc <- conv8_2_mbox_loc_flat
I0220 17:03:19.326853 17564 net.cpp:434] mbox_loc <- conv9_2_mbox_loc_flat
I0220 17:03:19.326861 17564 net.cpp:408] mbox_loc -> mbox_loc
I0220 17:03:19.326889 17564 net.cpp:150] Setting up mbox_loc
I0220 17:03:19.326895 17564 net.cpp:157] Top shape: 1 34928 (34928)
I0220 17:03:19.326900 17564 net.cpp:165] Memory required for data: 250148400
I0220 17:03:19.326903 17564 layer_factory.hpp:77] Creating layer mbox_conf
I0220 17:03:19.326911 17564 net.cpp:100] Creating Layer mbox_conf
I0220 17:03:19.326916 17564 net.cpp:434] mbox_conf <- conv4_3_norm_mbox_conf_flat
I0220 17:03:19.326922 17564 net.cpp:434] mbox_conf <- fc7_mbox_conf_flat
I0220 17:03:19.326928 17564 net.cpp:434] mbox_conf <- conv6_2_mbox_conf_flat
I0220 17:03:19.326936 17564 net.cpp:434] mbox_conf <- conv7_2_mbox_conf_flat
I0220 17:03:19.326941 17564 net.cpp:434] mbox_conf <- conv8_2_mbox_conf_flat
I0220 17:03:19.326947 17564 net.cpp:434] mbox_conf <- conv9_2_mbox_conf_flat
I0220 17:03:19.326956 17564 net.cpp:408] mbox_conf -> mbox_conf
I0220 17:03:19.326979 17564 net.cpp:150] Setting up mbox_conf
I0220 17:03:19.326985 17564 net.cpp:157] Top shape: 1 183372 (183372)
I0220 17:03:19.326989 17564 net.cpp:165] Memory required for data: 250881888
I0220 17:03:19.326994 17564 layer_factory.hpp:77] Creating layer mbox_priorbox
I0220 17:03:19.327002 17564 net.cpp:100] Creating Layer mbox_priorbox
I0220 17:03:19.327006 17564 net.cpp:434] mbox_priorbox <- conv4_3_norm_mbox_priorbox
I0220 17:03:19.327013 17564 net.cpp:434] mbox_priorbox <- fc7_mbox_priorbox
I0220 17:03:19.327018 17564 net.cpp:434] mbox_priorbox <- conv6_2_mbox_priorbox
I0220 17:03:19.327024 17564 net.cpp:434] mbox_priorbox <- conv7_2_mbox_priorbox
I0220 17:03:19.327030 17564 net.cpp:434] mbox_priorbox <- conv8_2_mbox_priorbox
I0220 17:03:19.327035 17564 net.cpp:434] mbox_priorbox <- conv9_2_mbox_priorbox
I0220 17:03:19.327044 17564 net.cpp:408] mbox_priorbox -> mbox_priorbox
I0220 17:03:19.327066 17564 net.cpp:150] Setting up mbox_priorbox
I0220 17:03:19.327075 17564 net.cpp:157] Top shape: 1 2 34928 (69856)
I0220 17:03:19.327080 17564 net.cpp:165] Memory required for data: 251161312
I0220 17:03:19.327083 17564 layer_factory.hpp:77] Creating layer mbox_loss
I0220 17:03:19.327093 17564 net.cpp:100] Creating Layer mbox_loss
I0220 17:03:19.327098 17564 net.cpp:434] mbox_loss <- mbox_loc
I0220 17:03:19.327103 17564 net.cpp:434] mbox_loss <- mbox_conf
I0220 17:03:19.327109 17564 net.cpp:434] mbox_loss <- mbox_priorbox
…
state {
  phase: TEST
}
layer {
  name: "data"
  type: "AnnotatedData"
  top: "data"
  top: "label"
  include {
    phase: TEST
  }
  transform_param {
    mean_value: 104
    mean_value: 117
    mean_value: 123
    resize_param {
      prob: 1
      resize_mode: WARP
      height: 300
      width: 300
      interp_mode: LINEAR
    }
  }
  data_param {
    source: "examples/VOC0712/VOC0712_test_lmdb"
    batch_size: 8
    backend: LMDB
  }
  annotated_data_param {
    batch_sampler {
    }
    label_map_file: "data/VOC0712/labelmap_voc.prototxt"
  }
}
layer {
  name: "conv1_1"
  type: "Convolution"
  bottom: "data"
  top: "conv1_1"
  param {
    lr_mult: 1
    decay_mult: 1
  }
  param {
    lr_mult: 2
    decay_mult: 0
  }
  convolution_param {
    num_output: 64
    pad: 1
    kernel_size: 3
    weight_filler {
      type: "xavier"
    }
    bias_filler {
      type: "constant"
      value: 0
    }
  }
}
layer {
  name: "relu1_1"
  type: "ReLU"
  bottom: "conv1_1"
  top: "conv1_1"
}
layer {
  name: "conv1_2"
  type: "Convolution"
  bottom: "conv1_1"
  top: "conv1_2"
  param {
    lr_mult: 1
    decay_mult: 1
  }
  param {
    lr_mult: 2
    decay_mult: 0
  }
  convolution_param {
    num_output: 64
    pad: 1
    kernel_size: 3
    weight_filler {
      type: "xavier"
    }
    bias_filler {
      type: "constant"
      value: 0
    }
  }
}
layer {
  name: "relu1_2"
  type: "ReLU"
  bottom: "conv1_2"
  top: "conv1_2"
}
layer {
  name: "pool1"
  type: "Pooling"
  bottom: "conv1_2"
  top: "pool1"
  pooling_param {
    pool: MAX
    kernel_size: 2
    stride: 2
  }
}
layer {
  name: "conv2_1"
  type: "Convolution"
  bottom: "pool1"
  top: "conv2_1"
  param {
    lr_mult: 1
    decay_mult: 1
  }
  param {
    lr_mult: 2
    decay_mult: 0
  }
  convolution_param {
    num_output: 128
    pad: 1
    kernel_size: 3
    weight_filler {
      type: "xavier"
    }
    bias_filler {
      type: "constant"
      value: 0
    }
  }
}
layer {
  name: "relu2_1"
  type: "ReLU"
  bottom: "conv2_1"
  top: "conv2_1"
}
layer {
  name: "conv2_2"
  type: "Convolution"
  bottom: "conv2_1"
  top: "conv2_2"
  param {
    lr_mult: 1
    decay_mult: 1
  }
  param {
    lr_mult: 2
    decay_mult: 0
  }
  convolution_param {
    num_output: 128
    pad: 1
    kernel_size: 3
    weight_filler {
      type: "xavier"
    }
    bias_filler {
      type: "constant"
      value: 0
    }
  }
}
layer {
  name: "relu2_2"
  type: "ReLU"
  bottom: "conv2_2"
  top: "conv2_2"
}
layer {
  name: "pool2"
  type: "Pooling"
  bottom: "conv2_2"
  top: "pool2"
  pooling_param {
    pool: MAX
    kernel_size: 2
    stride: 2
  }
}
layer {
  name: "conv3_1"
  type: "Convolution"
  bottom: "pool2"
  top: "conv3_1"
  param {
    lr_mult: 1
    decay_mult: 1
  }
  param {
    lr_mult: 2
    decay_mult: 0
  }
  convolution_param {
    num_output: 256
    pad: 1
    kernel_size: 3
    weight_filler {
      type: "xavier"
    }
    bias_filler {
      type: "constant"
      value: 0
    }
  }
}
layer {
  name: "relu3_1"
  type: "ReLU"
  bottom: "conv3_1"
  top: "conv3_1"
}
layer {
  name: "conv3_2"
  type: "Convolution"
  bottom: "conv3_1"
  top: "conv3_2"
  param {
    lr_mult: 1
    decay_mult: 1
  }
  param {
    lr_mult: 2
    decay_mult: 0
  }
  convolution_param {
    num_output: 256
    pad: 1
    kernel_size: 3
    weight_filler {
      type: "xavier"
    }
    bias_filler {
      type: "constant"
      value: 0
    }
  }
}
layer {
  name: "relu3_2"
  type: "ReLU"
  bottom: "conv3_2"
  top: "conv3_2"
}
layer {
  name: "conv3_3"
  type: "Convolution"
  bottom: "conv3_2"
  top: "conv3_3"
  param {
    lr_mult: 1
    decay_mult: 1
  }
  param {
    lr_mult: 2
    decay_mult: 0
  }
  convolution_param {
    num_output: 256
    pad: 1
    kernel_size: 3
    weight_filler {
      type: "xavier"
    }
    bias_filler {
      type: "constant"
      value: 0
    }
  }
}
layer {
  name: "relu3_3"
  type: "ReLU"
  bottom: "conv3_3"
  top: "conv3_3"
}
layer {
  name: "pool3"
  type: "Pooling"
  bottom: "conv3_3"
  top: "pool3"
  pooling_param {
    pool: MAX
    kernel_size: 2
    stride: 2
  }
}
layer {
  name: "conv4_1"
  type: "Convolution"
  bottom: "pool3"
  top: "conv4_1"
  param {
    lr_mult: 1
    decay_mult: 1
  }
  param {
    lr_mult: 2
    decay_mult: 0
  }
  convolution_param {
    num_output: 512
    pad: 1
    kernel_size: 3
    weight_filler {
      type: "xavier"
    }
    bias_filler {
      type: "constant"
      value: 0
    }
  }
}
layer {
  name: "relu4_1"
  type: "ReLU"
  bottom: "conv4_1"
  top: "conv4_1"
}
layer {
  name: "conv4_2"
  type: "Convolution"
  bottom: "conv4_1"
  top: "conv4_2"
  param {
    lr_mult: 1
    decay_mult: 1
  }
  param {
    lr_mult: 2
    decay_mult: 0
  }
  convolution_param {
    num_output: 512
    pad: 1
    kernel_size: 3
    weight_filler {
      type: "xavier"
    }
    bias_filler {
      type: "constant"
      value: 0
    }
  }
}
layer {
  name: "relu4_2"
  type: "ReLU"
  bottom: "conv4_2"
  top: "conv4_2"
}
layer {
  name: "conv4_3"
  type: "Convolution"
  bottom: "conv4_2"
  top: "conv4_3"
  param {
    lr_mult: 1
    decay_mult: 1
  }
  param {
    lr_mult: 2
    decay_mult: 0
  }
  convolution_param {
    num_output: 512
    pad: 1
    kernel_size: 3
    weight_filler {
      type: "xavier"
    }
    bias_filler {
      type: "constant"
      value: 0
    }
  }
}
layer {
  name: "relu4_3"
  type: "ReLU"
  bottom: "conv4_3"
  top: "conv4_3"
}
layer {
  name: "pool4"
  type: "Pooling"
  bottom: "conv4_3"
  top: "pool4"
  pooling_param {
    pool: MAX
    kernel_size: 2
    stride: 2
  }
}
layer {
  name: "conv5_1"
  type: "Convolution"
  bottom: "pool4"
  top: "conv5_1"
  param {
    lr_mult: 1
    decay_mult: 1
  }
  param {
    lr_mult: 2
    decay_mult: 0
  }
  convolution_param {
    num_output: 512
    pad: 1
    kernel_size: 3
    weight_filler {
      type: "xavier"
    }
    bias_filler {
      type: "constant"
      value: 0
    }
    dilation: 1
  }
}
layer {
  name: "relu5_1"
  type: "ReLU"
  bottom: "conv5_1"
  top: "conv5_1"
}
layer {
  name: "conv5_2"
  type: "Convolution"
  bottom: "conv5_1"
  top: "conv5_2"
  param {
    lr_mult: 1
    decay_mult: 1
  }
  param {
    lr_mult: 2
    decay_mult: 0
  }
  convolution_param {
    num_output: 512
    pad: 1
    kernel_size: 3
    weight_filler {
      type: "xavier"
    }
    bias_filler {
      type: "constant"
      value: 0
    }
    dilation: 1
  }
}
layer {
  name: "relu5_2"
  type: "ReLU"
  bottom: "conv5_2"
  top: "conv5_2"
}
layer {
  name: "conv5_3"
  type: "Convolution"
  bottom: "conv5_2"
  top: "conv5_3"
  param {
    lr_mult: 1
    decay_mult: 1
  }
  param {
    lr_mult: 2
    decay_mult: 0
  }
  convolution_param {
    num_output: 512
    pad: 1
    kernel_size: 3
    weight_filler {
      type: "xavier"
    }
    bias_filler {
      type: "constant"
      value: 0
    }
    dilation: 1
  }
}
layer {
  name: "relu5_3"
  type: "ReLU"
  bottom: "conv5_3"
  top: "conv5_3"
}
layer {
  name: "pool5"
  type: "Pooling"
  bottom: "conv5_3"
  top: "pool5"
  pooling_param {
    pool: MAX
    kernel_size: 3
    stride: 1
    pad: 1
  }
}
layer {
  name: "fc6"
  type: "Convolution"
  bottom: "pool5"
  top: "fc6"
  param {
    lr_mult: 1
    decay_mult: 1
  }
  param {
    lr_mult: 2
    decay_mult: 0
  }
  convolution_param {
    num_output: 1024
    pad: 6
    kernel_size: 3
    weight_filler {
      type: "xavier"
    }
    bias_filler {
      type: "constant"
      value: 0
    }
    dilation: 6
  }
}
layer {
  name: "relu6"
  type: "ReLU"
  bottom: "fc6"
  top: "fc6"
}
layer {
  name: "fc7"
  type: "Convolution"
  bottom: "fc6"
  top: "fc7"
  param {
    lr_mult: 1
    decay_mult: 1
  }
  param {
    lr_mult: 2
    decay_mult: 0
  }
  convolution_param {
    num_output: 1024
    kernel_size: 1
    weight_filler {
      type: "xavier"
    }
    bias_filler {
      type: "constant"
      value: 0
    }
  }
}
layer {
  name: "relu7"
  type: "ReLU"
  bottom: "fc7"
  top: "fc7"
}
layer {
  name: "conv6_1"
  type: "Convolution"
  bottom: "fc7"
  top: "conv6_1"
  param {
    lr_mult: 1
    decay_mult: 1
  }
  param {
    lr_mult: 2
    decay_mult: 0
  }
  convolution_param {
    num_output: 256
    pad: 0
    kernel_size: 1
    stride: 1
    weight_filler {
      type: "xavier"
    }
    bias_filler {
      type: "constant"
      value: 0
    }
  }
}
layer {
  name: "conv6_1_relu"
  type: "ReLU"
  bottom: "conv6_1"
  top: "conv6_1"
}
layer {
  name: "conv6_2"
  type: "Convolution"
  bottom: "conv6_1"
  top: "conv6_2"
  param {
    lr_mult: 1
    decay_mult: 1
  }
  param {
    lr_mult: 2
    decay_mult: 0
  }
  convolution_param {
    num_output: 512
    pad: 1
    kernel_size: 3
    stride: 2
    weight_filler {
      type: "xavier"
    }
    bias_filler {
      type: "constant"
      value: 0
    }
  }
}
layer {
  name: "conv6_2_relu"
  type: "ReLU"
  bottom: "conv6_2"
  top: "conv6_2"
}
layer {
  name: "conv7_1"
  type: "Convolution"
  bottom: "conv6_2"
  top: "conv7_1"
  param {
    lr_mult: 1
    decay_mult: 1
  }
  param {
    lr_mult: 2
    decay_mult: 0
  }
  convolution_param {
    num_output: 128
    pad: 0
    kernel_size: 1
    stride: 1
    weight_filler {
      type: "xavier"
    }
    bias_filler {
      type: "constant"
      value: 0
    }
  }
}
layer {
  name: "conv7_1_relu"
  type: "ReLU"
  bottom: "conv7_1"
  top: "conv7_1"
}
layer {
  name: "conv7_2"
  type: "Convolution"
  bottom: "conv7_1"
  top: "conv7_2"
  param {
    lr_mult: 1
    decay_mult: 1
  }
  param {
    lr_mult: 2
    decay_mult: 0
  }
  convolution_param {
    num_output: 256
    pad: 1
    kernel_size: 3
    stride: 2
    weight_filler {
      type: "xavier"
    }
    bias_filler {
      type: "constant"
      value: 0
    }
  }
}
layer {
  name: "conv7_2_relu"
  type: "ReLU"
  bottom: "conv7_2"
  top: "conv7_2"
}
layer {
  name: "conv8_1"
  type: "Convolution"
  bottom: "conv7_2"
  top: "conv8_1"
  param {
    lr_mult: 1
    decay_mult: 1
  }
  param {
    lr_mult: 2
    decay_mult: 0
  }
  convolution_param {
    num_output: 128
    pad: 0
    kernel_size: 1
    stride: 1
    weight_filler {
      type: "xavier"
    }
    bias_filler {
      type: "constant"
      value: 0
    }
  }
}
layer {
  name: "conv8_1_relu"
  type: "ReLU"
  bottom: "conv8_1"
  top: "conv8_1"
}
layer {
  name: "conv8_2"
  type: "Convolution"
  bottom: "conv8_1"
  top: "conv8_2"
  param {
    lr_mult: 1
    decay_mult: 1
  }
  param {
    lr_mult: 2
    decay_mult: 0
  }
  convolution_param {
    num_output: 256
    pad: 0
    kernel_size: 3
    stride: 1
    weight_filler {
      type: "xavier"
    }
    bias_filler {
      type: "constant"
      value: 0
    }
  }
}
layer {
  name: "conv8_2_relu"
  type: "ReLU"
  bottom: "conv8_2"
  top: "conv8_2"
}
layer {
  name: "conv9_1"
  type: "Convolution"
  bottom: "conv8_2"
  top: "conv9_1"
  param {
    lr_mult: 1
    decay_mult: 1
  }
  param {
    lr_mult: 2
    decay_mult: 0
  }
  convolution_param {
    num_output: 128
    pad: 0
    kernel_size: 1
    stride: 1
    weight_filler {
      type: "xavier"
    }
    bias_filler {
      type: "constant"
      value: 0
    }
  }
}
layer {
  name: "conv9_1_relu"
  type: "ReLU"
  bottom: "conv9_1"
  top: "conv9_1"
}
layer {
  name: "conv9_2"
  type: "Convolution"
  bottom: "conv9_1"
  top: "conv9_2"
  param {
    lr_mult: 1
    decay_mult: 1
  }
  param {
    lr_mult: 2
    decay_mult: 0
  }
  convolution_param {
    num_output: 256
    pad: 0
    kernel_size: 3
    stride: 1
    weight_filler {
      type: "xavier"
    }
    bias_filler {
      type: "constant"
      value: 0
    }
  }
}
layer {
  name: "conv9_2_relu"
  type: "ReLU"
  bottom: "conv9_2"
  top: "conv9_2"
}
layer {
  name: "conv4_3_norm"
  type: "Normalize"
  bottom: "conv4_3"
  top: "conv4_3_norm"
  norm_param {
    across_spatial: false
    scale_filler {
      type: "constant"
      value: 20
    }
    channel_shared: false
  }
}
layer {
  name: "conv4_3_norm_mbox_loc"
  type: "Convolution"
  bottom: "conv4_3_norm"
  top: "conv4_3_norm_mbox_loc"
  param {
    lr_mult: 1
    decay_mult: 1
  }
  param {
    lr_mult: 2
    decay_mult: 0
  }
  convolution_param {
    num_output: 16
    pad: 1
    kernel_size: 3
    stride: 1
    weight_filler {
      type: "xavier"
    }
    bias_filler {
      type: "constant"
      value: 0
    }
  }
}
layer {
  name: "conv4_3_norm_mbox_loc_perm"
  type: "Permute"
  bottom: "conv4_3_norm_mbox_loc"
  top: "conv4_3_norm_mbox_loc_perm"
  permute_param {
    order: 0
    order: 2
    order: 3
    order: 1
  }
}
layer {
  name: "conv4_3_norm_mbox_loc_flat"
  type: "Flatten"
  bottom: "conv4_3_norm_mbox_loc_perm"
  top: "conv4_3_norm_mbox_loc_flat"
  flatten_param {
    axis: 1
  }
}
layer {
  name: "conv4_3_norm_mbox_conf"
  type: "Convolution"
  bottom: "conv4_3_norm"
  top: "conv4_3_norm_mbox_conf"
  param {
    lr_mult: 1
    decay_mult: 1
  }
  param {
    lr_mult: 2
    decay_mult: 0
  }
  convolution_param {
    num_output: 84
    pad: 1
    kernel_size: 3
    stride: 1
    weight_filler {
      type: "xavier"
    }
    bias_filler {
      type: "constant"
      value: 0
    }
  }
}
layer {
  name: "conv4_3_norm_mbox_conf_perm"
  type: "Permute"
  bottom: "conv4_3_norm_mbox_conf"
  top: "conv4_3_norm_mbox_conf_perm"
  permute_param {
    order: 0
    order: 2
    order: 3
    order: 1
  }
}
layer {
  name: "conv4_3_norm_mbox_conf_flat"
  type: "Flatten"
  bottom: "conv4_3_norm_mbox_conf_perm"
  top: "conv4_3_norm_mbox_conf_flat"
  flatten_param {
    axis: 1
  }
}
layer {
  name: "conv4_3_norm_mbox_priorbox"
  type: "PriorBox"
  bottom: "conv4_3_norm"
  bottom: "data"
  top: "conv4_3_norm_mbox_priorbox"
  prior_box_param {
    min_size: 30
    max_size: 60
    aspect_ratio: 2
    flip: true
    clip: false
    variance: 0.1
    variance: 0.1
    variance: 0.2
    variance: 0.2
    step: 8
    offset: 0.5
  }
}
layer {
  name: "fc7_mbox_loc"
  type: "Convolution"
  bottom: "fc7"
  top: "fc7_mbox_loc"
  param {
    lr_mult: 1
    decay_mult: 1
  }
  param {
    lr_mult: 2
    decay_mult: 0
  }
  convolution_param {
    num_output: 24
    pad: 1
    kernel_size: 3
    stride: 1
    weight_filler {
      type: "xavier"
    }
    bias_filler {
      type: "constant"
      value: 0
    }
  }
}
layer {
  name: "fc7_mbox_loc_perm"
  type: "Permute"
  bottom: "fc7_mbox_loc"
  top: "fc7_mbox_loc_perm"
  permute_param {
    order: 0
    order: 2
    order: 3
    order: 1
  }
}
layer {
  name: "fc7_mbox_loc_flat"
  type: "Flatten"
  bottom: "fc7_mbox_loc_perm"
  top: "fc7_mbox_loc_flat"
  flatten_param {
    axis: 1
  }
}
layer {
  name: "fc7_mbox_conf"
  type: "Convolution"
  bottom: "fc7"
  top: "fc7_mbox_conf"
  param {
    lr_mult: 1
    decay_mult: 1
  }
  param {
    lr_mult: 2
    decay_mult: 0
  }
  convolution_param {
    num_output: 126
    pad: 1
    kernel_size: 3
    stride: 1
    weight_filler {
      type: "xavier"
    }
    bias_filler {
      type: "constant"
      value: 0
    }
  }
}
layer {
  name: "fc7_mbox_conf_perm"
  type: "Permute"
  bottom: "fc7_mbox_conf"
  top: "fc7_mbox_conf_perm"
  permute_param {
    order: 0
    order: 2
    order: 3
    order: 1
  }
}
layer {
  name: "fc7_mbox_conf_flat"
  type: "Flatten"
  bottom: "fc7_mbox_conf_perm"
  top: "fc7_mbox_conf_flat"
  flatten_param {
    axis: 1
  }
}
layer {
  name: "fc7_mbox_priorbox"
  type: "PriorBox"
  bottom: "fc7"
  bottom: "data"
  top: "fc7_mbox_priorbox"
  prior_box_param {
    min_size: 60
    max_size: 111
    aspect_ratio: 2
    aspect_ratio: 3
    flip: true
    clip: false
    variance: 0.1
    variance: 0.1
    variance: 0.2
    variance: 0.2
    step: 16
    offset: 0.5
  }
}
layer {
  name: "conv6_2_mbox_loc"
  type: "Convolution"
  bottom: "conv6_2"
  top: "conv6_2_mbox_loc"
  param {
    lr_mult: 1
    decay_mult: 1
  }
  param {
    lr_mult: 2
    decay_mult: 0
  }
  convolution_param {
    num_output: 24
    pad: 1
    kernel_size: 3
    stride: 1
    weight_filler {
      type: "xavier"
    }
    bias_filler {
      type: "constant"
      value: 0
    }
  }
}
layer {
  name: "conv6_2_mbox_loc_perm"
  type: "Permute"
  bottom: "conv6_2_mbox_loc"
  top: "conv6_2_mbox_loc_perm"
  permute_param {
    order: 0
    order: 2
    order: 3
    order: 1
  }
}
layer {
  name: "conv6_2_mbox_loc_flat"
  type: "Flatten"
  bottom: "conv6_2_mbox_loc_perm"
  top: "conv6_2_mbox_loc_flat"
  flatten_param {
    axis: 1
  }
}
layer {
  name: "conv6_2_mbox_conf"
  type: "Convolution"
  bottom: "conv6_2"
  top: "conv6_2_mbox_conf"
  param {
    lr_mult: 1
    decay_mult: 1
  }
  param {
    lr_mult: 2
    decay_mult: 0
  }
  convolution_param {
    num_output: 126
    pad: 1
    kernel_size: 3
    stride: 1
    weight_filler {
      type: "xavier"
    }
    bias_filler {
      type: "constant"
      value: 0
    }
  }
}
layer {
  name: "conv6_2_mbox_conf_perm"
  type: "Permute"
  bottom: "conv6_2_mbox_conf"
  top: "conv6_2_mbox_conf_perm"
  permute_param {
    order: 0
    order: 2
    order: 3
    order: 1
  }
}
layer {
  name: "conv6_2_mbox_conf_flat"
  type: "Flatten"
  bottom: "conv6_2_mbox_conf_perm"
  top: "conv6_2_mbox_conf_flat"
  flatten_param {
    axis: 1
  }
}
layer {
  name: "conv6_2_mbox_priorbox"
  type: "PriorBox"
  bottom: "conv6_2"
  bottom: "data"
  top: "conv6_2_mbox_priorbox"
  prior_box_param {
    min_size: 111
    max_size: 162
    aspect_ratio: 2
    aspect_ratio: 3
    flip: true
    clip: false
    variance: 0.1
    variance: 0.1
    variance: 0.2
    variance: 0.2
    step: 32
    offset: 0.5
  }
}
layer {
  name: "conv7_2_mbox_loc"
  type: "Convolution"
  bottom: "conv7_2"
  top: "conv7_2_mbox_loc"
  param {
    lr_mult: 1
    decay_mult: 1
  }
  param {
    lr_mult: 2
    decay_mult: 0
  }
  convolution_param {
    num_output: 24
    pad: 1
    kernel_size: 3
    stride: 1
    weight_filler {
      type: "xavier"
    }
    bias_filler {
      type: "constant"
      value: 0
    }
  }
}
layer {
  name: "conv7_2_mbox_loc_perm"
  type: "Permute"
  bottom: "conv7_2_mbox_loc"
  top: "conv7_2_mbox_loc_perm"
  permute_param {
    order: 0
    order: 2
    order: 3
    order: 1
  }
}
layer {
  name: "conv7_2_mbox_loc_flat"
  type: "Flatten"
  bottom: "conv7_2_mbox_loc_perm"
  top: "conv7_2_mbox_loc_flat"
  flatten_param {
    axis: 1
  }
}
layer {
  name: "conv7_2_mbox_conf"
  type: "Convolution"
  bottom: "conv7_2"
  top: "conv7_2_mbox_conf"
  param {
    lr_mult: 1
    decay_mult: 1
  }
  param {
    lr_mult: 2
    decay_mult: 0
  }
  convolution_param {
    num_output: 126
    pad: 1
    kernel_size: 3
    stride: 1
    weight_filler {
      type: "xavier"
    }
    bias_filler {
      type: "constant"
      value: 0
    }
  }
}
layer {
  name: "conv7_2_mbox_conf_perm"
  type: "Permute"
  bottom: "conv7_2_mbox_conf"
  top: "conv7_2_mbox_conf_perm"
  permute_param {
    order: 0
    order: 2
    order: 3
    order: 1
  }
}
layer {
  name: "conv7_2_mbox_conf_flat"
  type: "Flatten"
  bottom: "conv7_2_mbox_conf_perm"
  top: "conv7_2_mbox_conf_flat"
  flatten_param {
    axis: 1
  }
}
layer {
  name: "conv7_2_mbox_priorbox"
  type: "PriorBox"
  bottom: "conv7_2"
  bottom: "data"
  top: "conv7_2_mbox_priorbox"
  prior_box_param {
    min_size: 162
    max_size: 213
    aspect_ratio: 2
    aspect_ratio: 3
    flip: true
    clip: false
    variance: 0.1
    variance: 0.1
    variance: 0.2
    variance: 0.2
    step: 64
    offset: 0.5
  }
}
layer {
  name: "conv8_2_mbox_loc"
  type: "Convolution"
  bottom: "conv8_2"
  top: "conv8_2_mbox_loc"
  param {
    lr_mult: 1
    decay_mult: 1
  }
  param {
    lr_mult: 2
    decay_mult: 0
  }
  convolution_param {
    num_output: 16
    pad: 1
    kernel_size: 3
    stride: 1
    weight_filler {
      type: "xavier"
    }
    bias_filler {
      type: "constant"
      value: 0
    }
  }
}
layer {
  name: "conv8_2_mbox_loc_perm"
  type: "Permute"
  bottom: "conv8_2_mbox_loc"
  top: "conv8_2_mbox_loc_perm"
  permute_param {
    order: 0
    order: 2
    order: 3
    order: 1
  }
}
layer {
  name: "conv8_2_mbox_loc_flat"
  type: "Flatten"
  bottom: "conv8_2_mbox_loc_perm"
  top: "conv8_2_mbox_loc_flat"
  flatten_param {
    axis: 1
  }
}
layer {
  name: "conv8_2_mbox_conf"
  type: "Convolution"
  bottom: "conv8_2"
  top: "conv8_2_mbox_conf"
  param {
    lr_mult: 1
    decay_mult: 1
  }
  param {
    lr_mult: 2
    decay_mult: 0
  }
  convolution_param {
    num_output: 84
    pad: 1
    kernel_size: 3
    stride: 1
    weight_filler {
      type: "xavier"
    }
    bias_filler {
      type: "constant"
      value: 0
    }
  }
}
layer {
  name: "conv8_2_mbox_conf_perm"
  type: "Permute"
  bottom: "conv8_2_mbox_conf"
  top: "conv8_2_mbox_conf_perm"
  permute_param {
    order: 0
    order: 2
    order: 3
    order: 1
  }
}
layer {
  name: "conv8_2_mbox_conf_flat"
  type: "Flatten"
  bottom: "conv8_2_mbox_conf_perm"
  top: "conv8_2_mbox_conf_flat"
  flatten_param {
    axis: 1
  }
}
layer {
  name: "conv8_2_mbox_priorbox"
  type: "PriorBox"
  bottom: "conv8_2"
  bottom: "data"
  top: "conv8_2_mbox_priorbox"
  prior_box_param {
    min_size: 213
    max_size: 264
    aspect_ratio: 2
    flip: true
    clip: false
    variance: 0.1
    variance: 0.1
    variance: 0.2
    variance: 0.2
    step: 100
    offset: 0.5
  }
}
layer {
  name: "conv9_2_mbox_loc"
  type: "Convolution"
  bottom: "conv9_2"
  top: "conv9_2_mbox_loc"
  param {
    lr_mult: 1
    decay_mult: 1
  }
  param {
    lr_mult: 2
    decay_mult: 0
  }
  convolution_param {
    num_output: 16
    pad: 1
    kernel_size: 3
    stride: 1
    weight_filler {
      type: "xavier"
    }
    bias_filler {
      type: "constant"
      value: 0
    }
  }
}
layer {
  name: "conv9_2_mbox_loc_perm"
  type: "Permute"
  bottom: "conv9_2_mbox_loc"
  top: "conv9_2_mbox_loc_perm"
  permute_param {
    order: 0
    order: 2
    order: 3
    order: 1
  }
}
layer {
  name: "conv9_2_mbox_loc_flat"
  type: "Flatten"
  bottom: "conv9_2_mbox_loc_perm"
  top: "conv9_2_mbox_loc_flat"
  flatten_param {
    axis: 1
  }
}
layer {
  name: "conv9_2_mbox_conf"
  type: "Convolution"
  bottom: "conv9_2"
  top: "conv9_2_mbox_conf"
  param {
    lr_mult: 1
    decay_mult: 1
  }
  param {
    lr_mult: 2
    decay_mult: 0
  }
  convolution_param {
    num_output: 84
    pad: 1
    kernel_size: 3
    stride: 1
    weight_filler {
      type: "xavier"
    }
    bias_filler {
      type: "constant"
      value: 0
    }
  }
}
layer {
  name: "conv9_2_mbox_conf_perm"
  type: "Permute"
  bottom: "conv9_2_mbox_conf"
  top: "conv9_2_mbox_conf_perm"
  permute_param {
    order: 0
    order: 2
    order: 3
    order: 1
  }
}
layer {
  name: "conv9_2_mbox_conf_flat"
  type: "Flatten"
  bottom: "conv9_2_mbox_conf_perm"
  top: "conv9_2_mbox_conf_flat"
  flatten_param {
    axis: 1
  }
}
layer {
  name: "conv9_2_mbox_priorbox"
  type: "PriorBox"
  bottom: "conv9_2"
  bottom: "data"
  top: "conv9_2_mbox_priorbox"
  prior_box_param {
    min_size: 264
    max_size: 315
    aspect_ratio: 2
    flip: true
    clip: false
    variance: 0.1
    variance: 0.1
    variance: 0.2
    variance: 0.2
    step: 300
    offset: 0.5
  }
}
layer {
  name: "mbox_loc"
  type: "Concat"
  bottom: "conv4_3_norm_mbox_loc_flat"
  bottom: "fc7_mbox_loc_flat"
  bottom: "conv6_2_mbox_loc_flat"
  bottom: "conv7_2_mbox_loc_flat"
  bottom: "conv8_2_mbox_loc_flat"
  bottom: "conv9_2_mbox_loc_flat"
  top: "mbox_loc"
  concat_param {
    axis: 1
  }
}
layer {
  name: "mbox_conf"
  type: "Concat"
  bottom: "conv4_3_norm_mbox_conf_flat"
  bottom: "fc7_mbox_conf_flat"
  bottom: "conv6_2_mbox_conf_flat"
  bottom: "conv7_2_mbox_conf_flat"
  bottom: "conv8_2_mbox_conf_flat"
  bottom: "conv9_2_mbox_conf_flat"
  top: "mbox_conf"
  concat_param {
    axis: 1
  }
}
layer {
  name: "mbox_priorbox"
  type: "Concat"
  bottom: "conv4_3_norm_mbox_priorbox"
  bottom: "fc7_mbox_priorbox"
  bottom: "conv6_2_mbox_priorbox"
  bottom: "conv7_2_mbox_priorbox"
  bottom: "conv8_2_mbox_priorbox"
  bottom: "conv9_2_mbox_priorbox"
  top: "mbox_priorbox"
  concat_param {
    axis: 2
  }
}
layer {
  name: "mbox_conf_reshape"
  type: "Reshape"
  bottom: "mbox_conf"
  top: "mbox_conf_reshape"
  reshape_param {
    shape {
      dim: 0
      dim: -1
      dim: 21
    }
  }
}
layer {
  name: "mbox_conf_softmax"
  type: "Softmax"
  bottom: "mbox_conf_reshape"
  top: "mbox_conf_softmax"
  softmax_param {
    axis: 2
  }
}
layer {
  name: "mbox_conf_flatten"
  type: "Flatten"
  bottom: "mbox_conf_softmax"
  top: "mbox_conf_flatten"
  flatten_param {
    axis: 1
  }
}
layer {
  name: "detection_out"
  type: "DetectionOutput"
  bottom: "mbox_loc"
  bottom: "mbox_conf_flatten"
  bottom: "mbox_priorbox"
  top: "detection_out"
  include {
    phase: TEST
  }
  detection_output_param {
    num_classes: 21
    share_location: true
    background_label_id: 0
    nms_param {
      nms_threshold: 0.45
      top_k: 400
    }
    save_output_param {
      output_directory: "/home/zoson/data/VOCdevkit/results/VOC2007/SSD_300x300_score/Main"
      output_name_prefix: "comp4_det_test_"
      output_format: "VOC"
      label_map_file: "data/VOC0712/labelmap_voc.prototxt"
      name_size_file: "data/VOC0712/test_name_size.txt"
      num_test_image: 4952
    }
    code_type: CENTER_SIZE
    keep_top_k: 200
    confidence_threshold: 0.01
  }
}
layer {
  name: "detection_eval"
  type: "DetectionEvaluate"
  bottom: "detection_out"
  bottom: "label"
  top: "detection_eval"
  include {
    phase: TEST
  }
  detection_evaluate_param {
    num_classes: 21
    background_label_id: 0
    overlap_threshold: 0.5
    evaluate_difficult_gt: false
    name_size_file: "data/VOC0712/test_name_size.txt"
  }
}
I0220 17:03:19.329807 17564 layer_factory.hpp:77] Creating layer data
I0220 17:03:19.329874 17564 net.cpp:100] Creating Layer data
I0220 17:03:19.329883 17564 net.cpp:408] data -> data
I0220 17:03:19.329893 17564 net.cpp:408] data -> label
I0220 17:03:19.330288 17588 db_lmdb.cpp:35] Opened lmdb examples/VOC0712/VOC0712_test_lmdb
I0220 17:03:19.334249 17564 annotated_data_layer.cpp:62] output data size: 8,3,300,300
I0220 17:03:19.346304 17564 net.cpp:150] Setting up data
I0220 17:03:19.346328 17564 net.cpp:157] Top shape: 8 3 300 300 (2160000)
I0220 17:03:19.346333 17564 net.cpp:157] Top shape: 1 1 2 8 (16)
I0220 17:03:19.346336 17564 net.cpp:165] Memory required for data: 8640064
I0220 17:03:19.346343 17564 layer_factory.hpp:77] Creating layer data_data_0_split
I0220 17:03:19.346356 17564 net.cpp:100] Creating Layer data_data_0_split
I0220 17:03:19.346362 17564 net.cpp:434] data_data_0_split <- data
I0220 17:03:19.346371 17564 net.cpp:408] data_data_0_split -> data_data_0_split_0
I0220 17:03:19.346385 17564 net.cpp:408] data_data_0_split -> data_data_0_split_1
I0220 17:03:19.346395 17564 net.cpp:408] data_data_0_split -> data_data_0_split_2
I0220 17:03:19.346402 17564 net.cpp:408] data_data_0_split -> data_data_0_split_3
I0220 17:03:19.346412 17564 net.cpp:408] data_data_0_split -> data_data_0_split_4
I0220 17:03:19.346421 17564 net.cpp:408] data_data_0_split -> data_data_0_split_5
I0220 17:03:19.346428 17564 net.cpp:408] data_data_0_split -> data_data_0_split_6
I0220 17:03:19.346523 17564 net.cpp:150] Setting up data_data_0_split
I0220 17:03:19.346530 17564 net.cpp:157] Top shape: 8 3 300 300 (2160000)
I0220 17:03:19.346536 17564 net.cpp:157] Top shape: 8 3 300 300 (2160000)
I0220 17:03:19.346544 17564 net.cpp:157] Top shape: 8 3 300 300 (2160000)
I0220 17:03:19.346549 17564 net.cpp:157] Top shape: 8 3 300 300 (2160000)
I0220 17:03:19.346555 17564 net.cpp:157] Top shape: 8 3 300 300 (2160000)
I0220 17:03:19.346562 17564 net.cpp:157] Top shape: 8 3 300 300 (2160000)
I0220 17:03:19.346570 17564 net.cpp:157] Top shape: 8 3 300 300 (2160000)
I0220 17:03:19.346575 17564 net.cpp:165] Memory required for data: 69120064
I0220 17:03:19.346578 17564 layer_factory.hpp:77] Creating layer conv1_1
I0220 17:03:19.346590 17564 net.cpp:100] Creating Layer conv1_1
I0220 17:03:19.346596 17564 net.cpp:434] conv1_1 <- data_data_0_split_0
I0220 17:03:19.346602 17564 net.cpp:408] conv1_1 -> conv1_1
I0220 17:03:19.346920 17564 net.cpp:150] Setting up conv1_1
I0220 17:03:19.346927 17564 net.cpp:157] Top shape: 8 64 300 300 (46080000)
I0220 17:03:19.346932 17564 net.cpp:165] Memory required for data: 253440064
I0220 17:03:19.346945 17564 layer_factory.hpp:77] Creating layer relu1_1
I0220 17:03:19.346951 17564 net.cpp:100] Creating Layer relu1_1
I0220 17:03:19.346956 17564 net.cpp:434] relu1_1 <- conv1_1
I0220 17:03:19.346962 17564 net.cpp:395] relu1_1 -> conv1_1 (in-place)
I0220 17:03:19.346971 17564 net.cpp:150] Setting up relu1_1
I0220 17:03:19.346978 17564 net.cpp:157] Top shape: 8 64 300 300 (46080000)
I0220 17:03:19.346982 17564 net.cpp:165] Memory required for data: 437760064
I0220 17:03:19.346987 17564 layer_factory.hpp:77] Creating layer conv1_2
I0220 17:03:19.346997 17564 net.cpp:100] Creating Layer conv1_2
I0220 17:03:19.347000 17564 net.cpp:434] conv1_2 <- conv1_1
I0220 17:03:19.347007 17564 net.cpp:408] conv1_2 -> conv1_2
I0220 17:03:19.347455 17564 net.cpp:150] Setting up conv1_2
I0220 17:03:19.347463 17564 net.cpp:157] Top shape: 8 64 300 300 (46080000)
I0220 17:03:19.347467 17564 net.cpp:165] Memory required for data: 622080064
I0220 17:03:19.347476 17564 layer_factory.hpp:77] Creating layer relu1_2
I0220 17:03:19.347482 17564 net.cpp:100] Creating Layer relu1_2
I0220 17:03:19.347488 17564 net.cpp:434] relu1_2 <- conv1_2
I0220 17:03:19.347494 17564 net.cpp:395] relu1_2 -> conv1_2 (in-place)
I0220 17:03:19.347501 17564 net.cpp:150] Setting up relu1_2
I0220 17:03:19.347508 17564 net.cpp:157] Top shape: 8 64 300 300 (46080000)
I0220 17:03:19.347514 17564 net.cpp:165] Memory required for data: 806400064
I0220 17:03:19.347517 17564 layer_factory.hpp:77] Creating layer pool1
I0220 17:03:19.347524 17564 net.cpp:100] Creating Layer pool1
I0220 17:03:19.347528 17564 net.cpp:434] pool1 <- conv1_2
I0220 17:03:19.347535 17564 net.cpp:408] pool1 -> pool1
I0220 17:03:19.347569 17564 net.cpp:150] Setting up pool1
I0220 17:03:19.347576 17564 net.cpp:157] Top shape: 8 64 150 150 (11520000)
I0220 17:03:19.347580 17564 net.cpp:165] Memory required for data: 852480064
I0220 17:03:19.347586 17564 layer_factory.hpp:77] Creating layer conv2_1
I0220 17:03:19.347594 17564 net.cpp:100] Creating Layer conv2_1
I0220 17:03:19.347599 17564 net.cpp:434] conv2_1 <- pool1
I0220 17:03:19.347606 17564 net.cpp:408] conv2_1 -> conv2_1
I0220 17:03:19.348238 17564 net.cpp:150] Setting up conv2_1
I0220 17:03:19.348247 17564 net.cpp:157] Top shape: 8 128 150 150 (23040000)
I0220 17:03:19.348250 17564 net.cpp:165] Memory required for data: 944640064
I0220 17:03:19.348259 17564 layer_factory.hpp:77] Creating layer relu2_1
I0220 17:03:19.348268 17564 net.cpp:100] Creating Layer relu2_1
I0220 17:03:19.348273 17564 net.cpp:434] relu2_1 <- conv2_1
I0220 17:03:19.348279 17564 net.cpp:395] relu2_1 -> conv2_1 (in-place)
I0220 17:03:19.348287 17564 net.cpp:150] Setting up relu2_1
I0220 17:03:19.348295 17564 net.cpp:157] Top shape: 8 128 150 150 (23040000)
I0220 17:03:19.348299 17564 net.cpp:165] Memory required for data: 1036800064
I0220 17:03:19.348304 17564 layer_factory.hpp:77] Creating layer conv2_2
I0220 17:03:19.348312 17564 net.cpp:100] Creating Layer conv2_2
I0220 17:03:19.348317 17564 net.cpp:434] conv2_2 <- conv2_1
I0220 17:03:19.348325 17564 net.cpp:408] conv2_2 -> conv2_2
I0220 17:03:19.349558 17564 net.cpp:150] Setting up conv2_2
I0220 17:03:19.349567 17564 net.cpp:157] Top shape: 8 128 150 150 (23040000)
I0220 17:03:19.349572 17564 net.cpp:165] Memory required for data: 1128960064
I0220 17:03:19.349580 17564 layer_factory.hpp:77] Creating layer relu2_2
I0220 17:03:19.349586 17564 net.cpp:100] Creating Layer relu2_2
I0220 17:03:19.349591 17564 net.cpp:434] relu2_2 <- conv2_2
I0220 17:03:19.349597 17564 net.cpp:395] relu2_2 -> conv2_2 (in-place)
I0220 17:03:19.349604 17564 net.cpp:150] Setting up relu2_2
I0220 17:03:19.349611 17564 net.cpp:157] Top shape: 8 128 150 150 (23040000)
I0220 17:03:19.349617 17564 net.cpp:165] Memory required for data: 1221120064
I0220 17:03:19.349620 17564 layer_factory.hpp:77] Creating layer pool2
I0220 17:03:19.349627 17564 net.cpp:100] Creating Layer pool2
I0220 17:03:19.349640 17564 net.cpp:434] pool2 <- conv2_2
I0220 17:03:19.349647 17564 net.cpp:408] pool2 -> pool2
I0220 17:03:19.349701 17564 net.cpp:150] Setting up pool2
I0220 17:03:19.349709 17564 net.cpp:157] Top shape: 8 128 75 75 (5760000)
I0220 17:03:19.349714 17564 net.cpp:165] Memory required for data: 1244160064
I0220 17:03:19.349719 17564 layer_factory.hpp:77] Creating layer conv3_1
I0220 17:03:19.349726 17564 net.cpp:100] Creating Layer conv3_1
I0220 17:03:19.349732 17564 net.cpp:434] conv3_1 <- pool2
I0220 17:03:19.349738 17564 net.cpp:408] conv3_1 -> conv3_1
I0220 17:03:19.352493 17564 net.cpp:150] Setting up conv3_1
I0220 17:03:19.352506 17564 net.cpp:157] Top shape: 8 256 75 75 (11520000)
I0220 17:03:19.352511 17564 net.cpp:165] Memory required for data: 1290240064
I0220 17:03:19.352524 17564 layer_factory.hpp:77] Creating layer relu3_1
I0220 17:03:19.352533 17564 net.cpp:100] Creating Layer relu3_1
I0220 17:03:19.352537 17564 net.cpp:434] relu3_1 <- conv3_1
I0220 17:03:19.352546 17564 net.cpp:395] relu3_1 -> conv3_1 (in-place)
I0220 17:03:19.352555 17564 net.cpp:150] Setting up relu3_1
I0220 17:03:19.352562 17564 net.cpp:157] Top shape: 8 256 75 75 (11520000)
I0220 17:03:19.352567 17564 net.cpp:165] Memory required for data: 1336320064
I0220 17:03:19.352572 17564 layer_factory.hpp:77] Creating layer conv3_2
I0220 17:03:19.352582 17564 net.cpp:100] Creating Layer conv3_2
I0220 17:03:19.352587 17564 net.cpp:434] conv3_2 <- conv3_1
I0220 17:03:19.352594 17564 net.cpp:408] conv3_2 -> conv3_2
I0220 17:03:19.357092 17564 net.cpp:150] Setting up conv3_2
I0220 17:03:19.357107 17564 net.cpp:157] Top shape: 8 256 75 75 (11520000)
I0220 17:03:19.357111 17564 net.cpp:165] Memory required for data: 1382400064
I0220 17:03:19.357120 17564 layer_factory.hpp:77] Creating layer relu3_2
I0220 17:03:19.357144 17564 net.cpp:100] Creating Layer relu3_2
I0220 17:03:19.357151 17564 net.cpp:434] relu3_2 <- conv3_2
I0220 17:03:19.357157 17564 net.cpp:395] relu3_2 -> conv3_2 (in-place)
I0220 17:03:19.357168 17564 net.cpp:150] Setting up relu3_2
I0220 17:03:19.357177 17564 net.cpp:157] Top shape: 8 256 75 75 (11520000)
I0220 17:03:19.357180 17564 net.cpp:165] Memory required for data: 1428480064
I0220 17:03:19.357183 17564 layer_factory.hpp:77] Creating layer conv3_3
I0220 17:03:19.357197 17564 net.cpp:100] Creating Layer conv3_3
I0220 17:03:19.357201 17564 net.cpp:434] conv3_3 <- conv3_2
I0220 17:03:19.357208 17564 net.cpp:408] conv3_3 -> conv3_3
I0220 17:03:19.361759 17564 net.cpp:150] Setting up conv3_3
I0220 17:03:19.361773 17564 net.cpp:157] Top shape: 8 256 75 75 (11520000)
I0220 17:03:19.361778 17564 net.cpp:165] Memory required for data: 1474560064
I0220 17:03:19.361788 17564 layer_factory.hpp:77] Creating layer relu3_3
I0220 17:03:19.361809 17564 net.cpp:100] Creating Layer relu3_3
I0220 17:03:19.361816 17564 net.cpp:434] relu3_3 <- conv3_3
I0220 17:03:19.361824 17564 net.cpp:395] relu3_3 -> conv3_3 (in-place)
I0220 17:03:19.361835 17564 net.cpp:150] Setting up relu3_3
I0220 17:03:19.361841 17564 net.cpp:157] Top shape: 8 256 75 75 (11520000)
I0220 17:03:19.361846 17564 net.cpp:165] Memory required for data: 1520640064
I0220 17:03:19.361850 17564 layer_factory.hpp:77] Creating layer pool3
I0220 17:03:19.361858 17564 net.cpp:100] Creating Layer pool3
I0220 17:03:19.361863 17564 net.cpp:434] pool3 <- conv3_3
I0220 17:03:19.361871 17564 net.cpp:408] pool3 -> pool3
I0220 17:03:19.361907 17564 net.cpp:150] Setting up pool3
I0220 17:03:19.361914 17564 net.cpp:157] Top shape: 8 256 38 38 (2957312)
I0220 17:03:19.361918 17564 net.cpp:165] Memory required for data: 1532469312
I0220 17:03:19.361922 17564 layer_factory.hpp:77] Creating layer conv4_1
I0220 17:03:19.361932 17564 net.cpp:100] Creating Layer conv4_1
I0220 17:03:19.361938 17564 net.cpp:434] conv4_1 <- pool3
I0220 17:03:19.361945 17564 net.cpp:408] conv4_1 -> conv4_1
I0220 17:03:19.370918 17564 net.cpp:150] Setting up conv4_1
I0220 17:03:19.370939 17564 net.cpp:157] Top shape: 8 512 38 38 (5914624)
I0220 17:03:19.370944 17564 net.cpp:165] Memory required for data: 1556127808
I0220 17:03:19.370975 17564 layer_factory.hpp:77] Creating layer relu4_1
I0220 17:03:19.370985 17564 net.cpp:100] Creating Layer relu4_1
I0220 17:03:19.370992 17564 net.cpp:434] relu4_1 <- conv4_1
I0220 17:03:19.371001 17564 net.cpp:395] relu4_1 -> conv4_1 (in-place)
I0220 17:03:19.371011 17564 net.cpp:150] Setting up relu4_1
I0220 17:03:19.371017 17564 net.cpp:157] Top shape: 8 512 38 38 (5914624)
I0220 17:03:19.371021 17564 net.cpp:165] Memory required for data: 1579786304
I0220 17:03:19.371026 17564 layer_factory.hpp:77] Creating layer conv4_2
I0220 17:03:19.371037 17564 net.cpp:100] Creating Layer conv4_2
I0220 17:03:19.371048 17564 net.cpp:434] conv4_2 <- conv4_1
I0220 17:03:19.371057 17564 net.cpp:408] conv4_2 -> conv4_2
I0220 17:03:19.388392 17564 net.cpp:150] Setting up conv4_2
I0220 17:03:19.388416 17564 net.cpp:157] Top shape: 8 512 38 38 (5914624)
I0220 17:03:19.388419 17564 net.cpp:165] Memory required for data: 1603444800
I0220 17:03:19.388437 17564 layer_factory.hpp:77] Creating layer relu4_2
I0220 17:03:19.388448 17564 net.cpp:100] Creating Layer relu4_2
I0220 17:03:19.388471 17564 net.cpp:434] relu4_2 <- conv4_2
I0220 17:03:19.388484 17564 net.cpp:395] relu4_2 -> conv4_2 (in-place)
I0220 17:03:19.388494 17564 net.cpp:150] Setting up relu4_2
I0220 17:03:19.388500 17564 net.cpp:157] Top shape: 8 512 38 38 (5914624)
I0220 17:03:19.388509 17564 net.cpp:165] Memory required for data: 1627103296
I0220 17:03:19.388514 17564 layer_factory.hpp:77] Creating layer conv4_3
I0220 17:03:19.388525 17564 net.cpp:100] Creating Layer conv4_3
I0220 17:03:19.388530 17564 net.cpp:434] conv4_3 <- conv4_2
I0220 17:03:19.388538 17564 net.cpp:408] conv4_3 -> conv4_3
I0220 17:03:19.406730 17564 net.cpp:150] Setting up conv4_3
I0220 17:03:19.406754 17564 net.cpp:157] Top shape: 8 512 38 38 (5914624)
I0220 17:03:19.406759 17564 net.cpp:165] Memory required for data: 1650761792
I0220 17:03:19.406769 17564 layer_factory.hpp:77] Creating layer relu4_3
I0220 17:03:19.406780 17564 net.cpp:100] Creating Layer relu4_3
I0220 17:03:19.406795 17564 net.cpp:434] relu4_3 <- conv4_3
I0220 17:03:19.406805 17564 net.cpp:395] relu4_3 -> conv4_3 (in-place)
I0220 17:03:19.406821 17564 net.cpp:150] Setting up relu4_3
I0220 17:03:19.406828 17564 net.cpp:157] Top shape: 8 512 38 38 (5914624)
I0220 17:03:19.406832 17564 net.cpp:165] Memory required for data: 1674420288
I0220 17:03:19.406837 17564 layer_factory.hpp:77] Creating layer conv4_3_relu4_3_0_split
I0220 17:03:19.406844 17564 net.cpp:100] Creating Layer conv4_3_relu4_3_0_split
I0220 17:03:19.406849 17564 net.cpp:434] conv4_3_relu4_3_0_split <- conv4_3
I0220 17:03:19.406857 17564 net.cpp:408] conv4_3_relu4_3_0_split -> conv4_3_relu4_3_0_split_0
I0220 17:03:19.406867 17564 net.cpp:408] conv4_3_relu4_3_0_split -> conv4_3_relu4_3_0_split_1
I0220 17:03:19.406911 17564 net.cpp:150] Setting up conv4_3_relu4_3_0_split
I0220 17:03:19.406919 17564 net.cpp:157] Top shape: 8 512 38 38 (5914624)
I0220 17:03:19.406924 17564 net.cpp:157] Top shape: 8 512 38 38 (5914624)
I0220 17:03:19.406930 17564 net.cpp:165] Memory required for data: 1721737280
I0220 17:03:19.406934 17564 layer_factory.hpp:77] Creating layer pool4
I0220 17:03:19.406942 17564 net.cpp:100] Creating Layer pool4
I0220 17:03:19.406947 17564 net.cpp:434] pool4 <- conv4_3_relu4_3_0_split_0
I0220 17:03:19.406955 17564 net.cpp:408] pool4 -> pool4
I0220 17:03:19.406992 17564 net.cpp:150] Setting up pool4
I0220 17:03:19.407001 17564 net.cpp:157] Top shape: 8 512 19 19 (1478656)
I0220 17:03:19.407004 17564 net.cpp:165] Memory required for data: 1727651904
I0220 17:03:19.407008 17564 layer_factory.hpp:77] Creating layer conv5_1
I0220 17:03:19.407021 17564 net.cpp:100] Creating Layer conv5_1
I0220 17:03:19.407025 17564 net.cpp:434] conv5_1 <- pool4
I0220 17:03:19.407033 17564 net.cpp:408] conv5_1 -> conv5_1
I0220 17:03:19.424926 17564 net.cpp:150] Setting up conv5_1
I0220 17:03:19.424953 17564 net.cpp:157] Top shape: 8 512 19 19 (1478656)
I0220 17:03:19.424957 17564 net.cpp:165] Memory required for data: 1733566528
I0220 17:03:19.425006 17564 layer_factory.hpp:77] Creating layer relu5_1
I0220 17:03:19.425019 17564 net.cpp:100] Creating Layer relu5_1
I0220 17:03:19.425027 17564 net.cpp:434] relu5_1 <- conv5_1
I0220 17:03:19.425035 17564 net.cpp:395] relu5_1 -> conv5_1 (in-place)
I0220 17:03:19.425046 17564 net.cpp:150] Setting up relu5_1
I0220 17:03:19.425053 17564 net.cpp:157] Top shape: 8 512 19 19 (1478656)
I0220 17:03:19.425062 17564 net.cpp:165] Memory required for data: 1739481152
I0220 17:03:19.425067 17564 layer_factory.hpp:77] Creating layer conv5_2
I0220 17:03:19.425079 17564 net.cpp:100] Creating Layer conv5_2
I0220 17:03:19.425086 17564 net.cpp:434] conv5_2 <- conv5_1
I0220 17:03:19.425094 17564 net.cpp:408] conv5_2 -> conv5_2
I0220 17:03:19.443400 17564 net.cpp:150] Setting up conv5_2
I0220 17:03:19.443420 17564 net.cpp:157] Top shape: 8 512 19 19 (1478656)
I0220 17:03:19.443425 17564 net.cpp:165] Memory required for data: 1745395776
I0220 17:03:19.443435 17564 layer_factory.hpp:77] Creating layer relu5_2
I0220 17:03:19.443445 17564 net.cpp:100] Creating Layer relu5_2
I0220 17:03:19.443451 17564 net.cpp:434] relu5_2 <- conv5_2
I0220 17:03:19.443459 17564 net.cpp:395] relu5_2 -> conv5_2 (in-place)
I0220 17:03:19.443469 17564 net.cpp:150] Setting up relu5_2
I0220 17:03:19.443475 17564 net.cpp:157] Top shape: 8 512 19 19 (1478656)
I0220 17:03:19.443478 17564 net.cpp:165] Memory required for data: 1751310400
I0220 17:03:19.443482 17564 layer_factory.hpp:77] Creating layer conv5_3
I0220 17:03:19.443493 17564 net.cpp:100] Creating Layer conv5_3
I0220 17:03:19.443498 17564 net.cpp:434] conv5_3 <- conv5_2
I0220 17:03:19.443506 17564 net.cpp:408] conv5_3 -> conv5_3
I0220 17:03:19.461354 17564 net.cpp:150] Setting up conv5_3
I0220 17:03:19.461380 17564 net.cpp:157] Top shape: 8 512 19 19 (1478656)
I0220 17:03:19.461385 17564 net.cpp:165] Memory required for data: 1757225024
I0220 17:03:19.461395 17564 layer_factory.hpp:77] Creating layer relu5_3
I0220 17:03:19.461411 17564 net.cpp:100] Creating Layer relu5_3
I0220 17:03:19.461418 17564 net.cpp:434] relu5_3 <- conv5_3
I0220 17:03:19.461426 17564 net.cpp:395] relu5_3 -> conv5_3 (in-place)
I0220 17:03:19.461436 17564 net.cpp:150] Setting up relu5_3
I0220 17:03:19.461441 17564 net.cpp:157] Top shape: 8 512 19 19 (1478656)
I0220 17:03:19.461446 17564 net.cpp:165] Memory required for data: 1763139648
I0220 17:03:19.461450 17564 layer_factory.hpp:77] Creating layer pool5
I0220 17:03:19.461457 17564 net.cpp:100] Creating Layer pool5
I0220 17:03:19.461472 17564 net.cpp:434] pool5 <- conv5_3
I0220 17:03:19.461480 17564 net.cpp:408] pool5 -> pool5
I0220 17:03:19.461526 17564 net.cpp:150] Setting up pool5
I0220 17:03:19.461534 17564 net.cpp:157] Top shape: 8 512 19 19 (1478656)
I0220 17:03:19.461539 17564 net.cpp:165] Memory required for data: 1769054272
I0220 17:03:19.461542 17564 layer_factory.hpp:77] Creating layer fc6
I0220 17:03:19.461555 17564 net.cpp:100] Creating Layer fc6
I0220 17:03:19.461560 17564 net.cpp:434] fc6 <- pool5
I0220 17:03:19.461568 17564 net.cpp:408] fc6 -> fc6
I0220 17:03:19.497038 17564 net.cpp:150] Setting up fc6
I0220 17:03:19.497061 17564 net.cpp:157] Top shape: 8 1024 19 19 (2957312)
I0220 17:03:19.497066 17564 net.cpp:165] Memory required for data: 1780883520
I0220 17:03:19.497076 17564 layer_factory.hpp:77] Creating layer relu6
I0220 17:03:19.497087 17564 net.cpp:100] Creating Layer relu6
I0220 17:03:19.497100 17564 net.cpp:434] relu6 <- fc6
I0220 17:03:19.497108 17564 net.cpp:395] relu6 -> fc6 (in-place)
I0220 17:03:19.497120 17564 net.cpp:150] Setting up relu6
I0220 17:03:19.497125 17564 net.cpp:157] Top shape: 8 1024 19 19 (2957312)
I0220 17:03:19.497129 17564 net.cpp:165] Memory required for data: 1792712768
I0220 17:03:19.497133 17564 layer_factory.hpp:77] Creating layer fc7
I0220 17:03:19.497143 17564 net.cpp:100] Creating Layer fc7
I0220 17:03:19.497148 17564 net.cpp:434] fc7 <- fc6
I0220 17:03:19.497160 17564 net.cpp:408] fc7 -> fc7
I0220 17:03:19.505300 17564 net.cpp:150] Setting up fc7
I0220 17:03:19.505319 17564 net.cpp:157] Top shape: 8 1024 19 19 (2957312)
I0220 17:03:19.505364 17564 net.cpp:165] Memory required for data: 1804542016
I0220 17:03:19.505378 17564 layer_factory.hpp:77] Creating layer relu7
I0220 17:03:19.505388 17564 net.cpp:100] Creating Layer relu7
I0220 17:03:19.505398 17564 net.cpp:434] relu7 <- fc7
I0220 17:03:19.505412 17564 net.cpp:395] relu7 -> fc7 (in-place)
I0220 17:03:19.505424 17564 net.cpp:150] Setting up relu7
I0220 17:03:19.505434 17564 net.cpp:157] Top shape: 8 1024 19 19 (2957312)
I0220 17:03:19.505439 17564 net.cpp:165] Memory required for data: 1816371264
I0220 17:03:19.505444 17564 layer_factory.hpp:77] Creating layer fc7_relu7_0_split
I0220 17:03:19.505450 17564 net.cpp:100] Creating Layer fc7_relu7_0_split
I0220 17:03:19.505456 17564 net.cpp:434] fc7_relu7_0_split <- fc7
I0220 17:03:19.505465 17564 net.cpp:408] fc7_relu7_0_split -> fc7_relu7_0_split_0
I0220 17:03:19.505473 17564 net.cpp:408] fc7_relu7_0_split -> fc7_relu7_0_split_1
I0220 17:03:19.505489 17564 net.cpp:408] fc7_relu7_0_split -> fc7_relu7_0_split_2
I0220 17:03:19.505499 17564 net.cpp:408] fc7_relu7_0_split -> fc7_relu7_0_split_3
I0220 17:03:19.505566 17564 net.cpp:150] Setting up fc7_relu7_0_split
I0220 17:03:19.505574 17564 net.cpp:157] Top shape: 8 1024 19 19 (2957312)
I0220 17:03:19.505581 17564 net.cpp:157] Top shape: 8 1024 19 19 (2957312)
I0220 17:03:19.505589 17564 net.cpp:157] Top shape: 8 1024 19 19 (2957312)
I0220 17:03:19.505595 17564 net.cpp:157] Top shape: 8 1024 19 19 (2957312)
I0220 17:03:19.505600 17564 net.cpp:165] Memory required for data: 1863688256
I0220 17:03:19.505604 17564 layer_factory.hpp:77] Creating layer conv6_1
I0220 17:03:19.505619 17564 net.cpp:100] Creating Layer conv6_1
I0220 17:03:19.505623 17564 net.cpp:434] conv6_1 <- fc7_relu7_0_split_0
I0220 17:03:19.505632 17564 net.cpp:408] conv6_1 -> conv6_1
I0220 17:03:19.508271 17564 net.cpp:150] Setting up conv6_1
I0220 17:03:19.508285 17564 net.cpp:157] Top shape: 8 256 19 19 (739328)
I0220 17:03:19.508289 17564 net.cpp:165] Memory required for data: 1866645568
I0220 17:03:19.508297 17564 layer_factory.hpp:77] Creating layer conv6_1_relu
I0220 17:03:19.508306 17564 net.cpp:100] Creating Layer conv6_1_relu
I0220 17:03:19.508313 17564 net.cpp:434] conv6_1_relu <- conv6_1
I0220 17:03:19.508322 17564 net.cpp:395] conv6_1_relu -> conv6_1 (in-place)
I0220 17:03:19.508332 17564 net.cpp:150] Setting up conv6_1_relu
I0220 17:03:19.508338 17564 net.cpp:157] Top shape: 8 256 19 19 (739328)
I0220 17:03:19.508343 17564 net.cpp:165] Memory required for data: 1869602880
I0220 17:03:19.508348 17564 layer_factory.hpp:77] Creating layer conv6_2
I0220 17:03:19.508359 17564 net.cpp:100] Creating Layer conv6_2
I0220 17:03:19.508364 17564 net.cpp:434] conv6_2 <- conv6_1
I0220 17:03:19.508373 17564 net.cpp:408] conv6_2 -> conv6_2
I0220 17:03:19.517693 17564 net.cpp:150] Setting up conv6_2
I0220 17:03:19.517714 17564 net.cpp:157] Top shape: 8 512 10 10 (409600)
I0220 17:03:19.517719 17564 net.cpp:165] Memory required for data: 1871241280
I0220 17:03:19.517737 17564 layer_factory.hpp:77] Creating layer conv6_2_relu
I0220 17:03:19.517750 17564 net.cpp:100] Creating Layer conv6_2_relu
I0220 17:03:19.517758 17564 net.cpp:434] conv6_2_relu <- conv6_2
I0220 17:03:19.517771 17564 net.cpp:395] conv6_2_relu -> conv6_2 (in-place)
I0220 17:03:19.517783 17564 net.cpp:150] Setting up conv6_2_relu
I0220 17:03:19.517792 17564 net.cpp:157] Top shape: 8 512 10 10 (409600)
I0220 17:03:19.517798 17564 net.cpp:165] Memory required for data: 1872879680
I0220 17:03:19.517802 17564 layer_factory.hpp:77] Creating layer conv6_2_conv6_2_relu_0_split
I0220 17:03:19.517810 17564 net.cpp:100] Creating Layer conv6_2_conv6_2_relu_0_split
I0220 17:03:19.517815 17564 net.cpp:434] conv6_2_conv6_2_relu_0_split <- conv6_2
I0220 17:03:19.517825 17564 net.cpp:408] conv6_2_conv6_2_relu_0_split -> conv6_2_conv6_2_relu_0_split_0
I0220 17:03:19.517834 17564 net.cpp:408] conv6_2_conv6_2_relu_0_split -> conv6_2_conv6_2_relu_0_split_1
I0220 17:03:19.517845 17564 net.cpp:408] conv6_2_conv6_2_relu_0_split -> conv6_2_conv6_2_relu_0_split_2
I0220 17:03:19.517858 17564 net.cpp:408] conv6_2_conv6_2_relu_0_split -> conv6_2_conv6_2_relu_0_split_3
I0220 17:03:19.517936 17564 net.cpp:150] Setting up conv6_2_conv6_2_relu_0_split
I0220 17:03:19.517945 17564 net.cpp:157] Top shape: 8 512 10 10 (409600)
I0220 17:03:19.517951 17564 net.cpp:157] Top shape: 8 512 10 10 (409600)
I0220 17:03:19.517957 17564 net.cpp:157] Top shape: 8 512 10 10 (409600)
I0220 17:03:19.517964 17564 net.cpp:157] Top shape: 8 512 10 10 (409600)
I0220 17:03:19.517969 17564 net.cpp:165] Memory required for data: 1879433280
I0220 17:03:19.517974 17564 layer_factory.hpp:77] Creating layer conv7_1
I0220 17:03:19.517988 17564 net.cpp:100] Creating Layer conv7_1
I0220 17:03:19.517993 17564 net.cpp:434] conv7_1 <- conv6_2_conv6_2_relu_0_split_0
I0220 17:03:19.518003 17564 net.cpp:408] conv7_1 -> conv7_1
I0220 17:03:19.518635 17564 net.cpp:150] Setting up conv7_1
I0220 17:03:19.518643 17564 net.cpp:157] Top shape: 8 128 10 10 (102400)
I0220 17:03:19.518649 17564 net.cpp:165] Memory required for data: 1879842880
I0220 17:03:19.518657 17564 layer_factory.hpp:77] Creating layer conv7_1_relu
I0220 17:03:19.518666 17564 net.cpp:100] Creating Layer conv7_1_relu
I0220 17:03:19.518671 17564 net.cpp:434] conv7_1_relu <- conv7_1
I0220 17:03:19.518678 17564 net.cpp:395] conv7_1_relu -> conv7_1 (in-place)
I0220 17:03:19.518687 17564 net.cpp:150] Setting up conv7_1_relu
I0220 17:03:19.518693 17564 net.cpp:157] Top shape: 8 128 10 10 (102400)
I0220 17:03:19.518698 17564 net.cpp:165] Memory required for data: 1880252480
I0220 17:03:19.518702 17564 layer_factory.hpp:77] Creating layer conv7_2
I0220 17:03:19.518712 17564 net.cpp:100] Creating Layer conv7_2
I0220 17:03:19.518718 17564 net.cpp:434] conv7_2 <- conv7_1
I0220 17:03:19.518728 17564 net.cpp:408] conv7_2 -> conv7_2
I0220 17:03:19.521553 17564 net.cpp:150] Setting up conv7_2
I0220 17:03:19.521565 17564 net.cpp:157] Top shape: 8 256 5 5 (51200)
I0220 17:03:19.521570 17564 net.cpp:165] Memory required for data: 1880457280
I0220 17:03:19.521579 17564 layer_factory.hpp:77] Creating layer conv7_2_relu
I0220 17:03:19.521589 17564 net.cpp:100] Creating Layer conv7_2_relu
I0220 17:03:19.521594 17564 net.cpp:434] conv7_2_relu <- conv7_2
I0220 17:03:19.521602 17564 net.cpp:395] conv7_2_relu -> conv7_2 (in-place)
I0220 17:03:19.521611 17564 net.cpp:150] Setting up conv7_2_relu
I0220 17:03:19.521618 17564 net.cpp:157] Top shape: 8 256 5 5 (51200)
I0220 17:03:19.521623 17564 net.cpp:165] Memory required for data: 1880662080
I0220 17:03:19.521628 17564 layer_factory.hpp:77] Creating layer conv7_2_conv7_2_relu_0_split
I0220 17:03:19.521636 17564 net.cpp:100] Creating Layer conv7_2_conv7_2_relu_0_split
I0220 17:03:19.521641 17564 net.cpp:434] conv7_2_conv7_2_relu_0_split <- conv7_2
I0220 17:03:19.521647 17564 net.cpp:408] conv7_2_conv7_2_relu_0_split -> conv7_2_conv7_2_relu_0_split_0
I0220 17:03:19.521678 17564 net.cpp:408] conv7_2_conv7_2_relu_0_split -> conv7_2_conv7_2_relu_0_split_1
I0220 17:03:19.521688 17564 net.cpp:408] conv7_2_conv7_2_relu_0_split -> conv7_2_conv7_2_relu_0_split_2
I0220 17:03:19.521698 17564 net.cpp:408] conv7_2_conv7_2_relu_0_split -> conv7_2_conv7_2_relu_0_split_3
I0220 17:03:19.521762 17564 net.cpp:150] Setting up conv7_2_conv7_2_relu_0_split
I0220 17:03:19.521770 17564 net.cpp:157] Top shape: 8 256 5 5 (51200)
I0220 17:03:19.521776 17564 net.cpp:157] Top shape: 8 256 5 5 (51200)
I0220 17:03:19.521782 17564 net.cpp:157] Top shape: 8 256 5 5 (51200)
I0220 17:03:19.521788 17564 net.cpp:157] Top shape: 8 256 5 5 (51200)
I0220 17:03:19.521793 17564 net.cpp:165] Memory required for data: 1881481280
I0220 17:03:19.521798 17564 layer_factory.hpp:77] Creating layer conv8_1
I0220 17:03:19.521811 17564 net.cpp:100] Creating Layer conv8_1
I0220 17:03:19.521816 17564 net.cpp:434] conv8_1 <- conv7_2_conv7_2_relu_0_split_0
I0220 17:03:19.521826 17564 net.cpp:408] conv8_1 -> conv8_1
I0220 17:03:19.522241 17564 net.cpp:150] Setting up conv8_1
I0220 17:03:19.522249 17564 net.cpp:157] Top shape: 8 128 5 5 (25600)
I0220 17:03:19.522254 17564 net.cpp:165] Memory required for data: 1881583680
I0220 17:03:19.522274 17564 layer_factory.hpp:77] Creating layer conv8_1_relu
I0220 17:03:19.522281 17564 net.cpp:100] Creating Layer conv8_1_relu
I0220 17:03:19.522286 17564 net.cpp:434] conv8_1_relu <- conv8_1
I0220 17:03:19.522295 17564 net.cpp:395] conv8_1_relu -> conv8_1 (in-place)
I0220 17:03:19.522303 17564 net.cpp:150] Setting up conv8_1_relu
I0220 17:03:19.522310 17564 net.cpp:157] Top shape: 8 128 5 5 (25600)
I0220 17:03:19.522315 17564 net.cpp:165] Memory required for data: 1881686080
I0220 17:03:19.522320 17564 layer_factory.hpp:77] Creating layer conv8_2
I0220 17:03:19.522330 17564 net.cpp:100] Creating Layer conv8_2
I0220 17:03:19.522334 17564 net.cpp:434] conv8_2 <- conv8_1
I0220 17:03:19.522346 17564 net.cpp:408] conv8_2 -> conv8_2
I0220 17:03:19.525205 17564 net.cpp:150] Setting up conv8_2
I0220 17:03:19.525239 17564 net.cpp:157] Top shape: 8 256 3 3 (18432)
I0220 17:03:19.525254 17564 net.cpp:165] Memory required for data: 1881759808
I0220 17:03:19.525272 17564 layer_factory.hpp:77] Creating layer conv8_2_relu
I0220 17:03:19.525288 17564 net.cpp:100] Creating Layer conv8_2_relu
I0220 17:03:19.525303 17564 net.cpp:434] conv8_2_relu <- conv8_2
I0220 17:03:19.525321 17564 net.cpp:395] conv8_2_relu -> conv8_2 (in-place)
I0220 17:03:19.525341 17564 net.cpp:150] Setting up conv8_2_relu
I0220 17:03:19.525357 17564 net.cpp:157] Top shape: 8 256 3 3 (18432)
I0220 17:03:19.525368 17564 net.cpp:165] Memory required for data: 1881833536
I0220 17:03:19.525380 17564 layer_factory.hpp:77] Creating layer conv8_2_conv8_2_relu_0_split
I0220 17:03:19.525398 17564 net.cpp:100] Creating Layer conv8_2_conv8_2_relu_0_split
I0220 17:03:19.525410 17564 net.cpp:434] conv8_2_conv8_2_relu_0_split <- conv8_2
I0220 17:03:19.525429 17564 net.cpp:408] conv8_2_conv8_2_relu_0_split -> conv8_2_conv8_2_relu_0_split_0
I0220 17:03:19.525447 17564 net.cpp:408] conv8_2_conv8_2_relu_0_split -> conv8_2_conv8_2_relu_0_split_1
I0220 17:03:19.525467 17564 net.cpp:408] conv8_2_conv8_2_relu_0_split -> conv8_2_conv8_2_relu_0_split_2
I0220 17:03:19.525486 17564 net.cpp:408] conv8_2_conv8_2_relu_0_split -> conv8_2_conv8_2_relu_0_split_3
I0220 17:03:19.525585 17564 net.cpp:150] Setting up conv8_2_conv8_2_relu_0_split
I0220 17:03:19.525609 17564 net.cpp:157] Top shape: 8 256 3 3 (18432)
I0220 17:03:19.525626 17564 net.cpp:157] Top shape: 8 256 3 3 (18432)
I0220 17:03:19.525641 17564 net.cpp:157] Top shape: 8 256 3 3 (18432)
I0220 17:03:19.525665 17564 net.cpp:157] Top shape: 8 256 3 3 (18432)
I0220 17:03:19.525679 17564 net.cpp:165] Memory required for data: 1882128448
I0220 17:03:19.525696 17564 layer_factory.hpp:77] Creating layer conv9_1
I0220 17:03:19.525719 17564 net.cpp:100] Creating Layer conv9_1
I0220 17:03:19.525737 17564 net.cpp:434] conv9_1 <- conv8_2_conv8_2_relu_0_split_0
I0220 17:03:19.525759 17564 net.cpp:408] conv9_1 -> conv9_1
I0220 17:03:19.527081 17564 net.cpp:150] Setting up conv9_1
I0220 17:03:19.527112 17564 net.cpp:157] Top shape: 8 128 3 3 (9216)
I0220 17:03:19.527124 17564 net.cpp:165] Memory required for data: 1882165312
I0220 17:03:19.527140 17564 layer_factory.hpp:77] Creating layer conv9_1_relu
I0220 17:03:19.527158 17564 net.cpp:100] Creating Layer conv9_1_relu
I0220 17:03:19.527171 17564 net.cpp:434] conv9_1_relu <- conv9_1
I0220 17:03:19.527185 17564 net.cpp:395] conv9_1_relu -> conv9_1 (in-place)
I0220 17:03:19.527205 17564 net.cpp:150] Setting up conv9_1_relu
I0220 17:03:19.527225 17564 net.cpp:157] Top shape: 8 128 3 3 (9216)
I0220 17:03:19.527237 17564 net.cpp:165] Memory required for data: 1882202176
I0220 17:03:19.527251 17564 layer_factory.hpp:77] Creating layer conv9_2
I0220 17:03:19.527272 17564 net.cpp:100] Creating Layer conv9_2
I0220 17:03:19.527287 17564 net.cpp:434] conv9_2 <- conv9_1
I0220 17:03:19.527307 17564 net.cpp:408] conv9_2 -> conv9_2
I0220 17:03:19.530473 17564 net.cpp:150] Setting up conv9_2
I0220 17:03:19.530508 17564 net.cpp:157] Top shape: 8 256 1 1 (2048)
I0220 17:03:19.530521 17564 net.cpp:165] Memory required for data: 1882210368
I0220 17:03:19.530546 17564 layer_factory.hpp:77] Creating layer conv9_2_relu
I0220 17:03:19.530577 17564 net.cpp:100] Creating Layer conv9_2_relu
I0220 17:03:19.530592 17564 net.cpp:434] conv9_2_relu <- conv9_2
I0220 17:03:19.530611 17564 net.cpp:395] conv9_2_relu -> conv9_2 (in-place)
I0220 17:03:19.530632 17564 net.cpp:150] Setting up conv9_2_relu
I0220 17:03:19.530649 17564 net.cpp:157] Top shape: 8 256 1 1 (2048)
I0220 17:03:19.530663 17564 net.cpp:165] Memory required for data: 1882218560
I0220 17:03:19.530678 17564 layer_factory.hpp:77] Creating layer conv9_2_conv9_2_relu_0_split
I0220 17:03:19.530699 17564 net.cpp:100] Creating Layer conv9_2_conv9_2_relu_0_split
I0220 17:03:19.530707 17564 net.cpp:434] conv9_2_conv9_2_relu_0_split <- conv9_2
I0220 17:03:19.530715 17564 net.cpp:408] conv9_2_conv9_2_relu_0_split -> conv9_2_conv9_2_relu_0_split_0
I0220 17:03:19.530725 17564 net.cpp:408] conv9_2_conv9_2_relu_0_split -> conv9_2_conv9_2_relu_0_split_1
I0220 17:03:19.530737 17564 net.cpp:408] conv9_2_conv9_2_relu_0_split -> conv9_2_conv9_2_relu_0_split_2
I0220 17:03:19.530797 17564 net.cpp:150] Setting up conv9_2_conv9_2_relu_0_split
I0220 17:03:19.530807 17564 net.cpp:157] Top shape: 8 256 1 1 (2048)
I0220 17:03:19.530812 17564 net.cpp:157] Top shape: 8 256 1 1 (2048)
I0220 17:03:19.530818 17564 net.cpp:157] Top shape: 8 256 1 1 (2048)
I0220 17:03:19.530822 17564 net.cpp:165] Memory required for data: 1882243136
I0220 17:03:19.530827 17564 layer_factory.hpp:77] Creating layer conv4_3_norm
I0220 17:03:19.530836 17564 net.cpp:100] Creating Layer conv4_3_norm
I0220 17:03:19.530843 17564 net.cpp:434] conv4_3_norm <- conv4_3_relu4_3_0_split_1
I0220 17:03:19.530849 17564 net.cpp:408] conv4_3_norm -> conv4_3_norm
I0220 17:03:19.531004 17564 net.cpp:150] Setting up conv4_3_norm
I0220 17:03:19.531014 17564 net.cpp:157] Top shape: 8 512 38 38 (5914624)
I0220 17:03:19.531019 17564 net.cpp:165] Memory required for data: 1905901632
I0220 17:03:19.531025 17564 layer_factory.hpp:77] Creating layer conv4_3_norm_conv4_3_norm_0_split
I0220 17:03:19.531033 17564 net.cpp:100] Creating Layer conv4_3_norm_conv4_3_norm_0_split
I0220 17:03:19.531038 17564 net.cpp:434] conv4_3_norm_conv4_3_norm_0_split <- conv4_3_norm
I0220 17:03:19.531044 17564 net.cpp:408] conv4_3_norm_conv4_3_norm_0_split -> conv4_3_norm_conv4_3_norm_0_split_0
I0220 17:03:19.531056 17564 net.cpp:408] conv4_3_norm_conv4_3_norm_0_split -> conv4_3_norm_conv4_3_norm_0_split_1
I0220 17:03:19.531065 17564 net.cpp:408] conv4_3_norm_conv4_3_norm_0_split -> conv4_3_norm_conv4_3_norm_0_split_2
I0220 17:03:19.531119 17564 net.cpp:150] Setting up conv4_3_norm_conv4_3_norm_0_split
I0220 17:03:19.531128 17564 net.cpp:157] Top shape: 8 512 38 38 (5914624)
I0220 17:03:19.531134 17564 net.cpp:157] Top shape: 8 512 38 38 (5914624)
I0220 17:03:19.531139 17564 net.cpp:157] Top shape: 8 512 38 38 (5914624)
I0220 17:03:19.531143 17564 net.cpp:165] Memory required for data: 1976877120
I0220 17:03:19.531148 17564 layer_factory.hpp:77] Creating layer conv4_3_norm_mbox_loc
I0220 17:03:19.531162 17564 net.cpp:100] Creating Layer conv4_3_norm_mbox_loc
I0220 17:03:19.531167 17564 net.cpp:434] conv4_3_norm_mbox_loc <- conv4_3_norm_conv4_3_norm_0_split_0
I0220 17:03:19.531175 17564 net.cpp:408] conv4_3_norm_mbox_loc -> conv4_3_norm_mbox_loc
I0220 17:03:19.531874 17564 net.cpp:150] Setting up conv4_3_norm_mbox_loc
I0220 17:03:19.531884 17564 net.cpp:157] Top shape: 8 16 38 38 (184832)
I0220 17:03:19.531888 17564 net.cpp:165] Memory required for data: 1977616448
I0220 17:03:19.531896 17564 layer_factory.hpp:77] Creating layer conv4_3_norm_mbox_loc_perm
I0220 17:03:19.531908 17564 net.cpp:100] Creating Layer conv4_3_norm_mbox_loc_perm
I0220 17:03:19.531913 17564 net.cpp:434] conv4_3_norm_mbox_loc_perm <- conv4_3_norm_mbox_loc
I0220 17:03:19.531920 17564 net.cpp:408] conv4_3_norm_mbox_loc_perm -> conv4_3_norm_mbox_loc_perm
I0220 17:03:19.532022 17564 net.cpp:150] Setting up conv4_3_norm_mbox_loc_perm
I0220 17:03:19.532032 17564 net.cpp:157] Top shape: 8 38 38 16 (184832)
I0220 17:03:19.532035 17564 net.cpp:165] Memory required for data: 1978355776
I0220 17:03:19.532039 17564 layer_factory.hpp:77] Creating layer conv4_3_norm_mbox_loc_flat
I0220 17:03:19.532057 17564 net.cpp:100] Creating Layer conv4_3_norm_mbox_loc_flat
I0220 17:03:19.532063 17564 net.cpp:434] conv4_3_norm_mbox_loc_flat <- conv4_3_norm_mbox_loc_perm
I0220 17:03:19.532073 17564 net.cpp:408] conv4_3_norm_mbox_loc_flat -> conv4_3_norm_mbox_loc_flat
I0220 17:03:19.532114 17564 net.cpp:150] Setting up conv4_3_norm_mbox_loc_flat
I0220 17:03:19.532124 17564 net.cpp:157] Top shape: 8 23104 (184832)
I0220 17:03:19.532129 17564 net.cpp:165] Memory required for data: 1979095104
I0220 17:03:19.532132 17564 layer_factory.hpp:77] Creating layer conv4_3_norm_mbox_conf
I0220 17:03:19.532155 17564 net.cpp:100] Creating Layer conv4_3_norm_mbox_conf
I0220 17:03:19.532162 17564 net.cpp:434] conv4_3_norm_mbox_conf <- conv4_3_norm_conv4_3_norm_0_split_1
I0220 17:03:19.532172 17564 net.cpp:408] conv4_3_norm_mbox_conf -> conv4_3_norm_mbox_conf
I0220 17:03:19.535668 17564 net.cpp:150] Setting up conv4_3_norm_mbox_conf
I0220 17:03:19.535681 17564 net.cpp:157] Top shape: 8 84 38 38 (970368)
I0220 17:03:19.535686 17564 net.cpp:165] Memory required for data: 1982976576
I0220 17:03:19.535696 17564 layer_factory.hpp:77] Creating layer conv4_3_norm_mbox_conf_perm
I0220 17:03:19.535704 17564 net.cpp:100] Creating Layer conv4_3_norm_mbox_conf_perm
I0220 17:03:19.535711 17564 net.cpp:434] conv4_3_norm_mbox_conf_perm <- conv4_3_norm_mbox_conf
I0220 17:03:19.535720 17564 net.cpp:408] conv4_3_norm_mbox_conf_perm -> conv4_3_norm_mbox_conf_perm
I0220 17:03:19.535846 17564 net.cpp:150] Setting up conv4_3_norm_mbox_conf_perm
I0220 17:03:19.535856 17564 net.cpp:157] Top shape: 8 38 38 84 (970368)
I0220 17:03:19.535861 17564 net.cpp:165] Memory required for data: 1986858048
I0220 17:03:19.535864 17564 layer_factory.hpp:77] Creating layer conv4_3_norm_mbox_conf_flat
I0220 17:03:19.535873 17564 net.cpp:100] Creating Layer conv4_3_norm_mbox_conf_flat
I0220 17:03:19.535879 17564 net.cpp:434] conv4_3_norm_mbox_conf_flat <- conv4_3_norm_mbox_conf_perm
I0220 17:03:19.535888 17564 net.cpp:408] conv4_3_norm_mbox_conf_flat -> conv4_3_norm_mbox_conf_flat
I0220 17:03:19.535919 17564 net.cpp:150] Setting up conv4_3_norm_mbox_conf_flat
I0220 17:03:19.535928 17564 net.cpp:157] Top shape: 8 121296 (970368)
I0220 17:03:19.535933 17564 net.cpp:165] Memory required for data: 1990739520
I0220 17:03:19.535938 17564 layer_factory.hpp:77] Creating layer conv4_3_norm_mbox_priorbox
I0220 17:03:19.535948 17564 net.cpp:100] Creating Layer conv4_3_norm_mbox_priorbox
I0220 17:03:19.535953 17564 net.cpp:434] conv4_3_norm_mbox_priorbox <- conv4_3_norm_conv4_3_norm_0_split_2
I0220 17:03:19.535960 17564 net.cpp:434] conv4_3_norm_mbox_priorbox <- data_data_0_split_1
I0220 17:03:19.535971 17564 net.cpp:408] conv4_3_norm_mbox_priorbox -> conv4_3_norm_mbox_priorbox
I0220 17:03:19.536007 17564 net.cpp:150] Setting up conv4_3_norm_mbox_priorbox
I0220 17:03:19.536015 17564 net.cpp:157] Top shape: 1 2 23104 (46208)
I0220 17:03:19.536020 17564 net.cpp:165] Memory required for data: 1990924352
I0220 17:03:19.536025 17564 layer_factory.hpp:77] Creating layer fc7_mbox_loc
I0220 17:03:19.536038 17564 net.cpp:100] Creating Layer fc7_mbox_loc
I0220 17:03:19.536044 17564 net.cpp:434] fc7_mbox_loc <- fc7_relu7_0_split_1
I0220 17:03:19.536053 17564 net.cpp:408] fc7_mbox_loc -> fc7_mbox_loc
I0220 17:03:19.537781 17564 net.cpp:150] Setting up fc7_mbox_loc
I0220 17:03:19.537792 17564 net.cpp:157] Top shape: 8 24 19 19 (69312)
I0220 17:03:19.537796 17564 net.cpp:165] Memory required for data: 1991201600
I0220 17:03:19.537804 17564 layer_factory.hpp:77] Creating layer fc7_mbox_loc_perm
I0220 17:03:19.537812 17564 net.cpp:100] Creating Layer fc7_mbox_loc_perm
I0220 17:03:19.537818 17564 net.cpp:434] fc7_mbox_loc_perm <- fc7_mbox_loc
I0220 17:03:19.537828 17564 net.cpp:408] fc7_mbox_loc_perm -> fc7_mbox_loc_perm
I0220 17:03:19.537966 17564 net.cpp:150] Setting up fc7_mbox_loc_perm
I0220 17:03:19.537976 17564 net.cpp:157] Top shape: 8 19 19 24 (69312)
I0220 17:03:19.537981 17564 net.cpp:165] Memory required for data: 1991478848
I0220 17:03:19.537998 17564 layer_factory.hpp:77] Creating layer fc7_mbox_loc_flat
I0220 17:03:19.538007 17564 net.cpp:100] Creating Layer fc7_mbox_loc_flat
I0220 17:03:19.538012 17564 net.cpp:434] fc7_mbox_loc_flat <- fc7_mbox_loc_perm
I0220 17:03:19.538022 17564 net.cpp:408] fc7_mbox_loc_flat -> fc7_mbox_loc_flat
I0220 17:03:19.538053 17564 net.cpp:150] Setting up fc7_mbox_loc_flat
I0220 17:03:19.538063 17564 net.cpp:157] Top shape: 8 8664 (69312)
I0220 17:03:19.538067 17564 net.cpp:165] Memory required for data: 1991756096
I0220 17:03:19.538071 17564 layer_factory.hpp:77] Creating layer fc7_mbox_conf
I0220 17:03:19.538084 17564 net.cpp:100] Creating Layer fc7_mbox_conf
I0220 17:03:19.538089 17564 net.cpp:434] fc7_mbox_conf <- fc7_relu7_0_split_2
I0220 17:03:19.538099 17564 net.cpp:408] fc7_mbox_conf -> fc7_mbox_conf
I0220 17:03:19.547127 17564 net.cpp:150] Setting up fc7_mbox_conf
I0220 17:03:19.547147 17564 net.cpp:157] Top shape: 8 126 19 19 (363888)
I0220 17:03:19.547152 17564 net.cpp:165] Memory required for data: 1993211648
I0220 17:03:19.547161 17564 layer_factory.hpp:77] Creating layer fc7_mbox_conf_perm
I0220 17:03:19.547173 17564 net.cpp:100] Creating Layer fc7_mbox_conf_perm
I0220 17:03:19.547181 17564 net.cpp:434] fc7_mbox_conf_perm <- fc7_mbox_conf
I0220 17:03:19.547189 17564 net.cpp:408] fc7_mbox_conf_perm -> fc7_mbox_conf_perm
I0220 17:03:19.547333 17564 net.cpp:150] Setting up fc7_mbox_conf_perm
I0220 17:03:19.547343 17564 net.cpp:157] Top shape: 8 19 19 126 (363888)
I0220 17:03:19.547348 17564 net.cpp:165] Memory required for data: 1994667200
I0220 17:03:19.547353 17564 layer_factory.hpp:77] Creating layer fc7_mbox_conf_flat
I0220 17:03:19.547361 17564 net.cpp:100] Creating Layer fc7_mbox_conf_flat
I0220 17:03:19.547366 17564 net.cpp:434] fc7_mbox_conf_flat <- fc7_mbox_conf_perm
I0220 17:03:19.547377 17564 net.cpp:408] fc7_mbox_conf_flat -> fc7_mbox_conf_flat
I0220 17:03:19.547412 17564 net.cpp:150] Setting up fc7_mbox_conf_flat
I0220 17:03:19.547420 17564 net.cpp:157] Top shape: 8 45486 (363888)
I0220 17:03:19.547425 17564 net.cpp:165] Memory required for data: 1996122752
I0220 17:03:19.547430 17564 layer_factory.hpp:77] Creating layer fc7_mbox_priorbox
I0220 17:03:19.547439 17564 net.cpp:100] Creating Layer fc7_mbox_priorbox
I0220 17:03:19.547444 17564 net.cpp:434] fc7_mbox_priorbox <- fc7_relu7_0_split_3
I0220 17:03:19.547451 17564 net.cpp:434] fc7_mbox_priorbox <- data_data_0_split_2
I0220 17:03:19.547461 17564 net.cpp:408] fc7_mbox_priorbox -> fc7_mbox_priorbox
I0220 17:03:19.547497 17564 net.cpp:150] Setting up fc7_mbox_priorbox
I0220 17:03:19.547505 17564 net.cpp:157] Top shape: 1 2 8664 (17328)
I0220 17:03:19.547509 17564 net.cpp:165] Memory required for data: 1996192064
I0220 17:03:19.547514 17564 layer_factory.hpp:77] Creating layer conv6_2_mbox_loc
I0220 17:03:19.547528 17564 net.cpp:100] Creating Layer conv6_2_mbox_loc
I0220 17:03:19.547535 17564 net.cpp:434] conv6_2_mbox_loc <- conv6_2_conv6_2_relu_0_split_1
I0220 17:03:19.547545 17564 net.cpp:408] conv6_2_mbox_loc -> conv6_2_mbox_loc
I0220 17:03:19.548574 17564 net.cpp:150] Setting up conv6_2_mbox_loc
I0220 17:03:19.548584 17564 net.cpp:157] Top shape: 8 24 10 10 (19200)
I0220 17:03:19.548588 17564 net.cpp:165] Memory required for data: 1996268864
I0220 17:03:19.548596 17564 layer_factory.hpp:77] Creating layer conv6_2_mbox_loc_perm
I0220 17:03:19.548606 17564 net.cpp:100] Creating Layer conv6_2_mbox_loc_perm
I0220 17:03:19.548611 17564 net.cpp:434] conv6_2_mbox_loc_perm <- conv6_2_mbox_loc
I0220 17:03:19.548620 17564 net.cpp:408] conv6_2_mbox_loc_perm -> conv6_2_mbox_loc_perm
I0220 17:03:19.548759 17564 net.cpp:150] Setting up conv6_2_mbox_loc_perm
I0220 17:03:19.548770 17564 net.cpp:157] Top shape: 8 10 10 24 (19200)
I0220 17:03:19.548775 17564 net.cpp:165] Memory required for data: 1996345664
I0220 17:03:19.548779 17564 layer_factory.hpp:77] Creating layer conv6_2_mbox_loc_flat
I0220 17:03:19.548786 17564 net.cpp:100] Creating Layer conv6_2_mbox_loc_flat
I0220 17:03:19.548792 17564 net.cpp:434] conv6_2_mbox_loc_flat <- conv6_2_mbox_loc_perm
I0220 17:03:19.548815 17564 net.cpp:408] conv6_2_mbox_loc_flat -> conv6_2_mbox_loc_flat
I0220 17:03:19.548848 17564 net.cpp:150] Setting up conv6_2_mbox_loc_flat
I0220 17:03:19.548856 17564 net.cpp:157] Top shape: 8 2400 (19200)
I0220 17:03:19.548861 17564 net.cpp:165] Memory required for data: 1996422464
I0220 17:03:19.548866 17564 layer_factory.hpp:77] Creating layer conv6_2_mbox_conf
I0220 17:03:19.548877 17564 net.cpp:100] Creating Layer conv6_2_mbox_conf
I0220 17:03:19.548882 17564 net.cpp:434] conv6_2_mbox_conf <- conv6_2_conv6_2_relu_0_split_2
I0220 17:03:19.548894 17564 net.cpp:408] conv6_2_mbox_conf -> conv6_2_mbox_conf
I0220 17:03:19.553711 17564 net.cpp:150] Setting up conv6_2_mbox_conf
I0220 17:03:19.553726 17564 net.cpp:157] Top shape: 8 126 10 10 (100800)
I0220 17:03:19.553730 17564 net.cpp:165] Memory required for data: 1996825664
I0220 17:03:19.553740 17564 layer_factory.hpp:77] Creating layer conv6_2_mbox_conf_perm
I0220 17:03:19.553750 17564 net.cpp:100] Creating Layer conv6_2_mbox_conf_perm
I0220 17:03:19.553755 17564 net.cpp:434] conv6_2_mbox_conf_perm <- conv6_2_mbox_conf
I0220 17:03:19.553763 17564 net.cpp:408] conv6_2_mbox_conf_perm -> conv6_2_mbox_conf_perm
I0220 17:03:19.553907 17564 net.cpp:150] Setting up conv6_2_mbox_conf_perm
I0220 17:03:19.553916 17564 net.cpp:157] Top shape: 8 10 10 126 (100800)
I0220 17:03:19.553921 17564 net.cpp:165] Memory required for data: 1997228864
I0220 17:03:19.553925 17564 layer_factory.hpp:77] Creating layer conv6_2_mbox_conf_flat
I0220 17:03:19.553932 17564 net.cpp:100] Creating Layer conv6_2_mbox_conf_flat
I0220 17:03:19.553939 17564 net.cpp:434] conv6_2_mbox_conf_flat <- conv6_2_mbox_conf_perm
I0220 17:03:19.553949 17564 net.cpp:408] conv6_2_mbox_conf_flat -> conv6_2_mbox_conf_flat
I0220 17:03:19.553983 17564 net.cpp:150] Setting up conv6_2_mbox_conf_flat
I0220 17:03:19.553992 17564 net.cpp:157] Top shape: 8 12600 (100800)
I0220 17:03:19.553997 17564 net.cpp:165] Memory required for data: 1997632064
I0220 17:03:19.554002 17564 layer_factory.hpp:77] Creating layer conv6_2_mbox_priorbox
I0220 17:03:19.554009 17564 net.cpp:100] Creating Layer conv6_2_mbox_priorbox
I0220 17:03:19.554015 17564 net.cpp:434] conv6_2_mbox_priorbox <- conv6_2_conv6_2_relu_0_split_3
I0220 17:03:19.554023 17564 net.cpp:434] conv6_2_mbox_priorbox <- data_data_0_split_3
I0220 17:03:19.554033 17564 net.cpp:408] conv6_2_mbox_priorbox -> conv6_2_mbox_priorbox
I0220 17:03:19.554067 17564 net.cpp:150] Setting up conv6_2_mbox_priorbox
I0220 17:03:19.554075 17564 net.cpp:157] Top shape: 1 2 2400 (4800)
I0220 17:03:19.554080 17564 net.cpp:165] Memory required for data: 1997651264
I0220 17:03:19.554085 17564 layer_factory.hpp:77] Creating layer conv7_2_mbox_loc
I0220 17:03:19.554096 17564 net.cpp:100] Creating Layer conv7_2_mbox_loc
I0220 17:03:19.554102 17564 net.cpp:434] conv7_2_mbox_loc <- conv7_2_conv7_2_relu_0_split_1
I0220 17:03:19.554113 17564 net.cpp:408] conv7_2_mbox_loc -> conv7_2_mbox_loc
I0220 17:03:19.554797 17564 net.cpp:150] Setting up conv7_2_mbox_loc
I0220 17:03:19.554807 17564 net.cpp:157] Top shape: 8 24 5 5 (4800)
I0220 17:03:19.554811 17564 net.cpp:165] Memory required for data: 1997670464
I0220 17:03:19.554819 17564 layer_factory.hpp:77] Creating layer conv7_2_mbox_loc_perm
I0220 17:03:19.554829 17564 net.cpp:100] Creating Layer conv7_2_mbox_loc_perm
I0220 17:03:19.554834 17564 net.cpp:434] conv7_2_mbox_loc_perm <- conv7_2_mbox_loc
I0220 17:03:19.554843 17564 net.cpp:408] conv7_2_mbox_loc_perm -> conv7_2_mbox_loc_perm
I0220 17:03:19.554985 17564 net.cpp:150] Setting up conv7_2_mbox_loc_perm
I0220 17:03:19.554992 17564 net.cpp:157] Top shape: 8 5 5 24 (4800)
I0220 17:03:19.554996 17564 net.cpp:165] Memory required for data: 1997689664
I0220 17:03:19.555001 17564 layer_factory.hpp:77] Creating layer conv7_2_mbox_loc_flat
I0220 17:03:19.555011 17564 net.cpp:100] Creating Layer conv7_2_mbox_loc_flat
I0220 17:03:19.555016 17564 net.cpp:434] conv7_2_mbox_loc_flat <- conv7_2_mbox_loc_perm
I0220 17:03:19.555024 17564 net.cpp:408] conv7_2_mbox_loc_flat -> conv7_2_mbox_loc_flat
I0220 17:03:19.555073 17564 net.cpp:150] Setting up conv7_2_mbox_loc_flat
I0220 17:03:19.555080 17564 net.cpp:157] Top shape: 8 600 (4800)
I0220 17:03:19.555084 17564 net.cpp:165] Memory required for data: 1997708864
I0220 17:03:19.555089 17564 layer_factory.hpp:77] Creating layer conv7_2_mbox_conf
I0220 17:03:19.555101 17564 net.cpp:100] Creating Layer conv7_2_mbox_conf
I0220 17:03:19.555107 17564 net.cpp:434] conv7_2_mbox_conf <- conv7_2_conv7_2_relu_0_split_2
I0220 17:03:19.555117 17564 net.cpp:408] conv7_2_mbox_conf -> conv7_2_mbox_conf
I0220 17:03:19.558854 17564 net.cpp:150] Setting up conv7_2_mbox_conf
I0220 17:03:19.558872 17564 net.cpp:157] Top shape: 8 126 5 5 (25200)
I0220 17:03:19.558877 17564 net.cpp:165] Memory required for data: 1997809664
I0220 17:03:19.558886 17564 layer_factory.hpp:77] Creating layer conv7_2_mbox_conf_perm
I0220 17:03:19.558894 17564 net.cpp:100] Creating Layer conv7_2_mbox_conf_perm
I0220 17:03:19.558900 17564 net.cpp:434] conv7_2_mbox_conf_perm <- conv7_2_mbox_conf
I0220 17:03:19.558907 17564 net.cpp:408] conv7_2_mbox_conf_perm -> conv7_2_mbox_conf_perm
I0220 17:03:19.559042 17564 net.cpp:150] Setting up conv7_2_mbox_conf_perm
I0220 17:03:19.559051 17564 net.cpp:157] Top shape: 8 5 5 126 (25200)
I0220 17:03:19.559056 17564 net.cpp:165] Memory required for data: 1997910464
I0220 17:03:19.559061 17564 layer_factory.hpp:77] Creating layer conv7_2_mbox_conf_flat
I0220 17:03:19.559067 17564 net.cpp:100] Creating Layer conv7_2_mbox_conf_flat
I0220 17:03:19.559072 17564 net.cpp:434] conv7_2_mbox_conf_flat <- conv7_2_mbox_conf_perm
I0220 17:03:19.559082 17564 net.cpp:408] conv7_2_mbox_conf_flat -> conv7_2_mbox_conf_flat
I0220 17:03:19.559113 17564 net.cpp:150] Setting up conv7_2_mbox_conf_flat
I0220 17:03:19.559118 17564 net.cpp:157] Top shape: 8 3150 (25200)
I0220 17:03:19.559121 17564 net.cpp:165] Memory required for data: 1998011264
I0220 17:03:19.559126 17564 layer_factory.hpp:77] Creating layer conv7_2_mbox_priorbox
I0220 17:03:19.559134 17564 net.cpp:100] Creating Layer conv7_2_mbox_priorbox
I0220 17:03:19.559139 17564 net.cpp:434] conv7_2_mbox_priorbox <- conv7_2_conv7_2_relu_0_split_3
I0220 17:03:19.559144 17564 net.cpp:434] conv7_2_mbox_priorbox <- data_data_0_split_4
I0220 17:03:19.559154 17564 net.cpp:408] conv7_2_mbox_priorbox -> conv7_2_mbox_priorbox
I0220 17:03:19.559187 17564 net.cpp:150] Setting up conv7_2_mbox_priorbox
I0220 17:03:19.559193 17564 net.cpp:157] Top shape: 1 2 600 (1200)
I0220 17:03:19.559197 17564 net.cpp:165] Memory required for data: 1998016064
I0220 17:03:19.559201 17564 layer_factory.hpp:77] Creating layer conv8_2_mbox_loc
I0220 17:03:19.559217 17564 net.cpp:100] Creating Layer conv8_2_mbox_loc
I0220 17:03:19.559222 17564 net.cpp:434] conv8_2_mbox_loc <- conv8_2_conv8_2_relu_0_split_1
I0220 17:03:19.559232 17564 net.cpp:408] conv8_2_mbox_loc -> conv8_2_mbox_loc
I0220 17:03:19.559900 17564 net.cpp:150] Setting up conv8_2_mbox_loc
I0220 17:03:19.559911 17564 net.cpp:157] Top shape: 8 16 3 3 (1152)
I0220 17:03:19.559913 17564 net.cpp:165] Memory required for data: 1998020672
I0220 17:03:19.559931 17564 layer_factory.hpp:77] Creating layer conv8_2_mbox_loc_perm
I0220 17:03:19.559942 17564 net.cpp:100] Creating Layer conv8_2_mbox_loc_perm
I0220 17:03:19.559947 17564 net.cpp:434] conv8_2_mbox_loc_perm <- conv8_2_mbox_loc
I0220 17:03:19.559953 17564 net.cpp:408] conv8_2_mbox_loc_perm -> conv8_2_mbox_loc_perm
I0220 17:03:19.560089 17564 net.cpp:150] Setting up conv8_2_mbox_loc_perm
I0220 17:03:19.560099 17564 net.cpp:157] Top shape: 8 3 3 16 (1152)
I0220 17:03:19.560103 17564 net.cpp:165] Memory required for data: 1998025280
I0220 17:03:19.560107 17564 layer_factory.hpp:77] Creating layer conv8_2_mbox_loc_flat
I0220 17:03:19.560114 17564 net.cpp:100] Creating Layer conv8_2_mbox_loc_flat
I0220 17:03:19.560120 17564 net.cpp:434] conv8_2_mbox_loc_flat <- conv8_2_mbox_loc_perm
I0220 17:03:19.560128 17564 net.cpp:408] conv8_2_mbox_loc_flat -> conv8_2_mbox_loc_flat
I0220 17:03:19.560161 17564 net.cpp:150] Setting up conv8_2_mbox_loc_flat
I0220 17:03:19.560169 17564 net.cpp:157] Top shape: 8 144 (1152)
I0220 17:03:19.560192 17564 net.cpp:165] Memory required for data: 1998029888
I0220 17:03:19.560197 17564 layer_factory.hpp:77] Creating layer conv8_2_mbox_conf
I0220 17:03:19.560209 17564 net.cpp:100] Creating Layer conv8_2_mbox_conf
I0220 17:03:19.560216 17564 net.cpp:434] conv8_2_mbox_conf <- conv8_2_conv8_2_relu_0_split_2
I0220 17:03:19.560226 17564 net.cpp:408] conv8_2_mbox_conf -> conv8_2_mbox_conf
I0220 17:03:19.562083 17564 net.cpp:150] Setting up conv8_2_mbox_conf
I0220 17:03:19.562098 17564 net.cpp:157] Top shape: 8 84 3 3 (6048)
I0220 17:03:19.562100 17564 net.cpp:165] Memory required for data: 1998054080
I0220 17:03:19.562106 17564 layer_factory.hpp:77] Creating layer conv8_2_mbox_conf_perm
I0220 17:03:19.562116 17564 net.cpp:100] Creating Layer conv8_2_mbox_conf_perm
I0220 17:03:19.562121 17564 net.cpp:434] conv8_2_mbox_conf_perm <- conv8_2_mbox_conf
I0220 17:03:19.562127 17564 net.cpp:408] conv8_2_mbox_conf_perm -> conv8_2_mbox_conf_perm
I0220 17:03:19.562223 17564 net.cpp:150] Setting up conv8_2_mbox_conf_perm
I0220 17:03:19.562230 17564 net.cpp:157] Top shape: 8 3 3 84 (6048)
I0220 17:03:19.562232 17564 net.cpp:165] Memory required for data: 1998078272
I0220 17:03:19.562235 17564 layer_factory.hpp:77] Creating layer conv8_2_mbox_conf_flat
I0220 17:03:19.562242 17564 net.cpp:100] Creating Layer conv8_2_mbox_conf_flat
I0220 17:03:19.562247 17564 net.cpp:434] conv8_2_mbox_conf_flat <- conv8_2_mbox_conf_perm
I0220 17:03:19.562250 17564 net.cpp:408] conv8_2_mbox_conf_flat -> conv8_2_mbox_conf_flat
I0220 17:03:19.562273 17564 net.cpp:150] Setting up conv8_2_mbox_conf_flat
I0220 17:03:19.562278 17564 net.cpp:157] Top shape: 8 756 (6048)
I0220 17:03:19.562280 17564 net.cpp:165] Memory required for data: 1998102464
I0220 17:03:19.562283 17564 layer_factory.hpp:77] Creating layer conv8_2_mbox_priorbox
I0220 17:03:19.562289 17564 net.cpp:100] Creating Layer conv8_2_mbox_priorbox
I0220 17:03:19.562295 17564 net.cpp:434] conv8_2_mbox_priorbox <- conv8_2_conv8_2_relu_0_split_3
I0220 17:03:19.562299 17564 net.cpp:434] conv8_2_mbox_priorbox <- data_data_0_split_5
I0220 17:03:19.562304 17564 net.cpp:408] conv8_2_mbox_priorbox -> conv8_2_mbox_priorbox
I0220 17:03:19.562328 17564 net.cpp:150] Setting up conv8_2_mbox_priorbox
I0220 17:03:19.562335 17564 net.cpp:157] Top shape: 1 2 144 (288)
I0220 17:03:19.562336 17564 net.cpp:165] Memory required for data: 1998103616
I0220 17:03:19.562338 17564 layer_factory.hpp:77] Creating layer conv9_2_mbox_loc
I0220 17:03:19.562346 17564 net.cpp:100] Creating Layer conv9_2_mbox_loc
I0220 17:03:19.562351 17564 net.cpp:434] conv9_2_mbox_loc <- conv9_2_conv9_2_relu_0_split_0
I0220 17:03:19.562363 17564 net.cpp:408] conv9_2_mbox_loc -> conv9_2_mbox_loc
I0220 17:03:19.562824 17564 net.cpp:150] Setting up conv9_2_mbox_loc
I0220 17:03:19.562831 17564 net.cpp:157] Top shape: 8 16 1 1 (128)
I0220 17:03:19.562834 17564 net.cpp:165] Memory required for data: 1998104128
I0220 17:03:19.562839 17564 layer_factory.hpp:77] Creating layer conv9_2_mbox_loc_perm
I0220 17:03:19.562844 17564 net.cpp:100] Creating Layer conv9_2_mbox_loc_perm
I0220 17:03:19.562846 17564 net.cpp:434] conv9_2_mbox_loc_perm <- conv9_2_mbox_loc
I0220 17:03:19.562855 17564 net.cpp:408] conv9_2_mbox_loc_perm -> conv9_2_mbox_loc_perm
I0220 17:03:19.562945 17564 net.cpp:150] Setting up conv9_2_mbox_loc_perm
I0220 17:03:19.562952 17564 net.cpp:157] Top shape: 8 1 1 16 (128)
I0220 17:03:19.562953 17564 net.cpp:165] Memory required for data: 1998104640
I0220 17:03:19.562958 17564 layer_factory.hpp:77] Creating layer conv9_2_mbox_loc_flat
I0220 17:03:19.562963 17564 net.cpp:100] Creating Layer conv9_2_mbox_loc_flat
I0220 17:03:19.562965 17564 net.cpp:434] conv9_2_mbox_loc_flat <- conv9_2_mbox_loc_perm
I0220 17:03:19.562970 17564 net.cpp:408] conv9_2_mbox_loc_flat -> conv9_2_mbox_loc_flat
I0220 17:03:19.562991 17564 net.cpp:150] Setting up conv9_2_mbox_loc_flat
I0220 17:03:19.562996 17564 net.cpp:157] Top shape: 8 16 (128)
I0220 17:03:19.562999 17564 net.cpp:165] Memory required for data: 1998105152
I0220 17:03:19.563014 17564 layer_factory.hpp:77] Creating layer conv9_2_mbox_conf
I0220 17:03:19.563024 17564 net.cpp:100] Creating Layer conv9_2_mbox_conf
I0220 17:03:19.563029 17564 net.cpp:434] conv9_2_mbox_conf <- conv9_2_conv9_2_relu_0_split_1
I0220 17:03:19.563033 17564 net.cpp:408] conv9_2_mbox_conf -> conv9_2_mbox_conf
I0220 17:03:19.564461 17564 net.cpp:150] Setting up conv9_2_mbox_conf
I0220 17:03:19.564468 17564 net.cpp:157] Top shape: 8 84 1 1 (672)
I0220 17:03:19.564471 17564 net.cpp:165] Memory required for data: 1998107840
I0220 17:03:19.564476 17564 layer_factory.hpp:77] Creating layer conv9_2_mbox_conf_perm
I0220 17:03:19.564481 17564 net.cpp:100] Creating Layer conv9_2_mbox_conf_perm
I0220 17:03:19.564487 17564 net.cpp:434] conv9_2_mbox_conf_perm <- conv9_2_mbox_conf
I0220 17:03:19.564491 17564 net.cpp:408] conv9_2_mbox_conf_perm -> conv9_2_mbox_conf_perm
I0220 17:03:19.564582 17564 net.cpp:150] Setting up conv9_2_mbox_conf_perm
I0220 17:03:19.564589 17564 net.cpp:157] Top shape: 8 1 1 84 (672)
I0220 17:03:19.564591 17564 net.cpp:165] Memory required for data: 1998110528
I0220 17:03:19.564594 17564 layer_factory.hpp:77] Creating layer conv9_2_mbox_conf_flat
I0220 17:03:19.564597 17564 net.cpp:100] Creating Layer conv9_2_mbox_conf_flat
I0220 17:03:19.564600 17564 net.cpp:434] conv9_2_mbox_conf_flat <- conv9_2_mbox_conf_perm
I0220 17:03:19.564606 17564 net.cpp:408] conv9_2_mbox_conf_flat -> conv9_2_mbox_conf_flat
I0220 17:03:19.564630 17564 net.cpp:150] Setting up conv9_2_mbox_conf_flat
I0220 17:03:19.564635 17564 net.cpp:157] Top shape: 8 84 (672)
I0220 17:03:19.564637 17564 net.cpp:165] Memory required for data: 1998113216
I0220 17:03:19.564640 17564 layer_factory.hpp:77] Creating layer conv9_2_mbox_priorbox
I0220 17:03:19.564644 17564 net.cpp:100] Creating Layer conv9_2_mbox_priorbox
I0220 17:03:19.564647 17564 net.cpp:434] conv9_2_mbox_priorbox <- conv9_2_conv9_2_relu_0_split_2
I0220 17:03:19.564651 17564 net.cpp:434] conv9_2_mbox_priorbox <- data_data_0_split_6
I0220 17:03:19.564659 17564 net.cpp:408] conv9_2_mbox_priorbox -> conv9_2_mbox_priorbox
I0220 17:03:19.564682 17564 net.cpp:150] Setting up conv9_2_mbox_priorbox
I0220 17:03:19.564687 17564 net.cpp:157] Top shape: 1 2 16 (32)
I0220 17:03:19.564688 17564 net.cpp:165] Memory required for data: 1998113344
I0220 17:03:19.564692 17564 layer_factory.hpp:77] Creating layer mbox_loc
I0220 17:03:19.564697 17564 net.cpp:100] Creating Layer mbox_loc
I0220 17:03:19.564700 17564 net.cpp:434] mbox_loc <- conv4_3_norm_mbox_loc_flat
I0220 17:03:19.564704 17564 net.cpp:434] mbox_loc <- fc7_mbox_loc_flat
I0220 17:03:19.564709 17564 net.cpp:434] mbox_loc <- conv6_2_mbox_loc_flat
I0220 17:03:19.564713 17564 net.cpp:434] mbox_loc <- conv7_2_mbox_loc_flat
I0220 17:03:19.564715 17564 net.cpp:434] mbox_loc <- conv8_2_mbox_loc_flat
I0220 17:03:19.564718 17564 net.cpp:434] mbox_loc <- conv9_2_mbox_loc_flat
I0220 17:03:19.564726 17564 net.cpp:408] mbox_loc -> mbox_loc
I0220 17:03:19.564750 17564 net.cpp:150] Setting up mbox_loc
I0220 17:03:19.564759 17564 net.cpp:157] Top shape: 8 34928 (279424)
I0220 17:03:19.564761 17564 net.cpp:165] Memory required for data: 1999231040
I0220 17:03:19.564764 17564 layer_factory.hpp:77] Creating layer mbox_conf
I0220 17:03:19.564769 17564 net.cpp:100] Creating Layer mbox_conf
I0220 17:03:19.564772 17564 net.cpp:434] mbox_conf <- conv4_3_norm_mbox_conf_flat
I0220 17:03:19.564775 17564 net.cpp:434] mbox_conf <- fc7_mbox_conf_flat
I0220 17:03:19.564781 17564 net.cpp:434] mbox_conf <- conv6_2_mbox_conf_flat
I0220 17:03:19.564785 17564 net.cpp:434] mbox_conf <- conv7_2_mbox_conf_flat
I0220 17:03:19.564787 17564 net.cpp:434] mbox_conf <- conv8_2_mbox_conf_flat
I0220 17:03:19.564790 17564 net.cpp:434] mbox_conf <- conv9_2_mbox_conf_flat
I0220 17:03:19.564797 17564 net.cpp:408] mbox_conf -> mbox_conf
I0220 17:03:19.564818 17564 net.cpp:150] Setting up mbox_conf
I0220 17:03:19.564823 17564 net.cpp:157] Top shape: 8 183372 (1466976)
I0220 17:03:19.564826 17564 net.cpp:165] Memory required for data: 2005098944
I0220 17:03:19.564829 17564 layer_factory.hpp:77] Creating layer mbox_priorbox
I0220 17:03:19.564842 17564 net.cpp:100] Creating Layer mbox_priorbox
I0220 17:03:19.564846 17564 net.cpp:434] mbox_priorbox <- conv4_3_norm_mbox_priorbox
I0220 17:03:19.564851 17564 net.cpp:434] mbox_priorbox <- fc7_mbox_priorbox
I0220 17:03:19.564857 17564 net.cpp:434] mbox_priorbox <- conv6_2_mbox_priorbox
I0220 17:03:19.564860 17564 net.cpp:434] mbox_priorbox <- conv7_2_mbox_priorbox
I0220 17:03:19.564862 17564 net.cpp:434] mbox_priorbox <- conv8_2_mbox_priorbox
I0220 17:03:19.564865 17564 net.cpp:434] mbox_priorbox <- conv9_2_mbox_priorbox
I0220 17:03:19.564870 17564 net.cpp:408] mbox_priorbox -> mbox_priorbox
I0220 17:03:19.564893 17564 net.cpp:150] Setting up mbox_priorbox
I0220 17:03:19.564898 17564 net.cpp:157] Top shape: 1 2 34928 (69856)
I0220 17:03:19.564900 17564 net.cpp:165] Memory required for data: 2005378368
I0220 17:03:19.564904 17564 layer_factory.hpp:77] Creating layer mbox_conf_reshape
I0220 17:03:19.564910 17564 net.cpp:100] Creating Layer mbox_conf_reshape
I0220 17:03:19.564914 17564 net.cpp:434] mbox_conf_reshape <- mbox_conf
I0220 17:03:19.564921 17564 net.cpp:408] mbox_conf_reshape -> mbox_conf_reshape
I0220 17:03:19.564950 17564 net.cpp:150] Setting up mbox_conf_reshape
I0220 17:03:19.564956 17564 net.cpp:157] Top shape: 8 8732 21 (1466976)
I0220 17:03:19.564959 17564 net.cpp:165] Memory required for data: 2011246272
I0220 17:03:19.564961 17564 layer_factory.hpp:77] Creating layer mbox_conf_softmax
I0220 17:03:19.564966 17564 net.cpp:100] Creating Layer mbox_conf_softmax
I0220 17:03:19.564970 17564 net.cpp:434] mbox_conf_softmax <- mbox_conf_reshape
I0220 17:03:19.564976 17564 net.cpp:408] mbox_conf_softmax -> mbox_conf_softmax
I0220 17:03:19.565035 17564 net.cpp:150] Setting up mbox_conf_softmax
I0220 17:03:19.565042 17564 net.cpp:157] Top shape: 8 8732 21 (1466976)
I0220 17:03:19.565044 17564 net.cpp:165] Memory required for data: 2017114176
I0220 17:03:19.565047 17564 layer_factory.hpp:77] Creating layer mbox_conf_flatten
I0220 17:03:19.565050 17564 net.cpp:100] Creating Layer mbox_conf_flatten
I0220 17:03:19.565054 17564 net.cpp:434] mbox_conf_flatten <- mbox_conf_softmax
I0220 17:03:19.565058 17564 net.cpp:408] mbox_conf_flatten -> mbox_conf_flatten
I0220 17:03:19.565081 17564 net.cpp:150] Setting up mbox_conf_flatten
I0220 17:03:19.565086 17564 net.cpp:157] Top shape: 8 183372 (1466976)
I0220 17:03:19.565089 17564 net.cpp:165] Memory required for data: 2022982080
I0220 17:03:19.565093 17564 layer_factory.hpp:77] Creating layer detection_out
I0220 17:03:19.565100 17564 net.cpp:100] Creating Layer detection_out
I0220 17:03:19.565104 17564 net.cpp:434] detection_out <- mbox_loc
I0220 17:03:19.565109 17564 net.cpp:434] detection_out <- mbox_conf_flatten
I0220 17:03:19.565111 17564 net.cpp:434] detection_out <- mbox_priorbox
I0220 17:03:19.565117 17564 net.cpp:408] detection_out -> detection_out
I0220 17:03:19.566622 17564 net.cpp:150] Setting up detection_out
I0220 17:03:19.566632 17564 net.cpp:157] Top shape: 1 1 1 7 (7)
I0220 17:03:19.566635 17564 net.cpp:165] Memory required for data: 2022982108
I0220 17:03:19.566638 17564 layer_factory.hpp:77] Creating layer detection_eval
I0220 17:03:19.566644 17564 net.cpp:100] Creating Layer detection_eval
I0220 17:03:19.566650 17564 net.cpp:434] detection_eval <- detection_out
I0220 17:03:19.566653 17564 net.cpp:434] detection_eval <- label
I0220 17:03:19.566658 17564 net.cpp:408] detection_eval -> detection_eval
I0220 17:03:19.567667 17564 net.cpp:150] Setting up detection_eval
I0220 17:03:19.567677 17564 net.cpp:157] Top shape: 1 1 21 5 (105)
I0220 17:03:19.567679 17564 net.cpp:165] Memory required for data: 2022982528
I0220 17:03:19.567682 17564 net.cpp:228] detection_eval does not need backward computation.
I0220 17:03:19.567687 17564 net.cpp:228] detection_out does not need backward computation.
I0220 17:03:19.567690 17564 net.cpp:228] mbox_conf_flatten does not need backward computation.
I0220 17:03:19.567693 17564 net.cpp:228] mbox_conf_softmax does not need backward computation.
…
