…
      sampler {
        min_scale: 0.3
        max_scale: 1
        min_aspect_ratio: 0.5
        max_aspect_ratio: 2
      }
      sample_constraint {
        min_jaccard_overlap: 0.9
      }
      max_sample: 1
      max_trials: 50
    }
    batch_sampler {
      sampler {
        min_scale: 0.3
        max_scale: 1
        min_aspect_ratio: 0.5
        max_aspect_ratio: 2
      }
      sample_constraint {
        max_jaccard_overlap: 1
      }
      max_sample: 1
      max_trials: 50
    }
    label_map_file: "data/VOC0712/labelmap_voc.prototxt"
  }
}
layer {
  name: "conv1_1"
  type: "Convolution"
  bottom: "data"
  top: "conv1_1"
  param {
    lr_mult: 1
    decay_mult: 1
  }
  param {
    lr_mult: 2
    decay_mult: 0
  }
  convolution_param {
    num_output: 64
    pad: 1
    kernel_size: 3
    weight_filler {
      type: "xavier"
    }
    bias_filler {
      type: "constant"
      value: 0
    }
  }
}
layer {
  name: "relu1_1"
  type: "ReLU"
  bottom: "conv1_1"
  top: "conv1_1"
}
layer {
  name: "conv1_2"
  type: "Convolution"
  bottom: "conv1_1"
  top: "conv1_2"
  param {
    lr_mult: 1
    decay_mult: 1
  }
  param {
    lr_mult: 2
    decay_mult: 0
  }
  convolution_param {
    num_output: 64
    pad: 1
    kernel_size: 3
    weight_filler {
      type: "xavier"
    }
    bias_filler {
      type: "constant"
      value: 0
    }
  }
}
layer {
  name: "relu1_2"
  type: "ReLU"
  bottom: "conv1_2"
  top: "conv1_2"
}
layer {
  name: "pool1"
  type: "Pooling"
  bottom: "conv1_2"
  top: "pool1"
  pooling_param {
    pool: MAX
    kernel_size: 2
    stride: 2
  }
}
layer {
  name: "conv2_1"
  type: "Convolution"
  bottom: "pool1"
  top: "conv2_1"
  param {
    lr_mult: 1
    decay_mult: 1
  }
  param {
    lr_mult: 2
    decay_mult: 0
  }
  convolution_param {
    num_output: 128
    pad: 1
    kernel_size: 3
    weight_filler {
      type: "xavier"
    }
    bias_filler {
      type: "constant"
      value: 0
    }
  }
}
layer {
  name: "relu2_1"
  type: "ReLU"
  bottom: "conv2_1"
  top: "conv2_1"
}
layer {
  name: "conv2_2"
  type: "Convolution"
  bottom: "conv2_1"
  top: "conv2_2"
  param {
    lr_mult: 1
    decay_mult: 1
  }
  param {
    lr_mult: 2
    decay_mult: 0
  }
  convolution_param {
    num_output: 128
    pad: 1
    kernel_size: 3
    weight_filler {
      type: "xavier"
    }
    bias_filler {
      type: "constant"
      value: 0
    }
  }
}
layer {
  name: "relu2_2"
  type: "ReLU"
  bottom: "conv2_2"
  top: "conv2_2"
}
layer {
  name: "pool2"
  type: "Pooling"
  bottom: "conv2_2"
  top: "pool2"
  pooling_param {
    pool: MAX
    kernel_size: 2
    stride: 2
  }
}
layer {
  name: "conv3_1"
  type: "Convolution"
  bottom: "pool2"
  top: "conv3_1"
  param {
    lr_mult: 1
    decay_mult: 1
  }
  param {
    lr_mult: 2
    decay_mult: 0
  }
  convolution_param {
    num_output: 256
    pad: 1
    kernel_size: 3
    weight_filler {
      type: "xavier"
    }
    bias_filler {
      type: "constant"
      value: 0
    }
  }
}
layer {
  name: "relu3_1"
  type: "ReLU"
  bottom: "conv3_1"
  top: "conv3_1"
}
layer {
  name: "conv3_2"
  type: "Convolution"
  bottom: "conv3_1"
  top: "conv3_2"
  param {
    lr_mult: 1
    decay_mult: 1
  }
  param {
    lr_mult: 2
    decay_mult: 0
  }
  convolution_param {
    num_output: 256
    pad: 1
    kernel_size: 3
    weight_filler {
      type: "xavier"
    }
    bias_filler {
      type: "constant"
      value: 0
    }
  }
}
layer {
  name: "relu3_2"
  type: "ReLU"
  bottom: "conv3_2"
  top: "conv3_2"
}
layer {
  name: "conv3_3"
  type: "Convolution"
  bottom: "conv3_2"
  top: "conv3_3"
  param {
    lr_mult: 1
    decay_mult: 1
  }
  param {
    lr_mult: 2
    decay_mult: 0
  }
  convolution_param {
    num_output: 256
    pad: 1
    kernel_size: 3
    weight_filler {
      type: "xavier"
    }
    bias_filler {
      type: "constant"
      value: 0
    }
  }
}
layer {
  name: "relu3_3"
  type: "ReLU"
  bottom: "conv3_3"
  top: "conv3_3"
}
layer {
  name: "pool3"
  type: "Pooling"
  bottom: "conv3_3"
  top: "pool3"
  pooling_param {
    pool: MAX
    kernel_size: 2
    stride: 2
  }
}
layer {
  name: "conv4_1"
  type: "Convolution"
  bottom: "pool3"
  top: "conv4_1"
  param {
    lr_mult: 1
    decay_mult: 1
  }
  param {
    lr_mult: 2
    decay_mult: 0
  }
  convolution_param {
    num_output: 512
    pad: 1
    kernel_size: 3
    weight_filler {
      type: "xavier"
    }
    bias_filler {
      type: "constant"
      value: 0
    }
  }
}
layer {
  name: "relu4_1"
  type: "ReLU"
  bottom: "conv4_1"
  top: "conv4_1"
}
layer {
  name: "conv4_2"
  type: "Convolution"
  bottom: "conv4_1"
  top: "conv4_2"
  param {
    lr_mult: 1
    decay_mult: 1
  }
  param {
    lr_mult: 2
    decay_mult: 0
  }
  convolution_param {
    num_output: 512
    pad: 1
    kernel_size: 3
    weight_filler {
      type: "xavier"
    }
    bias_filler {
      type: "constant"
      value: 0
    }
  }
}
layer {
  name: "relu4_2"
  type: "ReLU"
  bottom: "conv4_2"
  top: "conv4_2"
}
layer {
  name: "conv4_3"
  type: "Convolution"
  bottom: "conv4_2"
  top: "conv4_3"
  param {
    lr_mult: 1
    decay_mult: 1
  }
  param {
    lr_mult: 2
    decay_mult: 0
  }
  convolution_param {
    num_output: 512
    pad: 1
    kernel_size: 3
    weight_filler {
      type: "xavier"
    }
    bias_filler {
      type: "constant"
      value: 0
    }
  }
}
layer {
  name: "relu4_3"
  type: "ReLU"
  bottom: "conv4_3"
  top: "conv4_3"
}
layer {
  name: "pool4"
  type: "Pooling"
  bottom: "conv4_3"
  top: "pool4"
  pooling_param {
    pool: MAX
    kernel_size: 2
    stride: 2
  }
}
layer {
  name: "conv5_1"
  type: "Convolution"
  bottom: "pool4"
  top: "conv5_1"
  param {
    lr_mult: 1
    decay_mult: 1
  }
  param {
    lr_mult: 2
    decay_mult: 0
  }
  convolution_param {
    num_output: 512
    pad: 1
    kernel_size: 3
    weight_filler {
      type: "xavier"
    }
    bias_filler {
      type: "constant"
      value: 0
    }
    dilation: 1
  }
}
layer {
  name: "relu5_1"
  type: "ReLU"
  bottom: "conv5_1"
  top: "conv5_1"
}
layer {
  name: "conv5_2"
  type: "Convolution"
  bottom: "conv5_1"
  top: "conv5_2"
  param {
    lr_mult: 1
    decay_mult: 1
  }
  param {
    lr_mult: 2
    decay_mult: 0
  }
  convolution_param {
    num_output: 512
    pad: 1
    kernel_size: 3
    weight_filler {
      type: "xavier"
    }
    bias_filler {
      type: "constant"
      value: 0
    }
    dilation: 1
  }
}
layer {
  name: "relu5_2"
  type: "ReLU"
  bottom: "conv5_2"
  top: "conv5_2"
}
layer {
  name: "conv5_3"
  type: "Convolution"
  bottom: "conv5_2"
  top: "conv5_3"
  param {
    lr_mult: 1
    decay_mult: 1
  }
  param {
    lr_mult: 2
    decay_mult: 0
  }
  convolution_param {
    num_output: 512
    pad: 1
    kernel_size: 3
    weight_filler {
      type: "xavier"
    }
    bias_filler {
      type: "constant"
      value: 0
    }
    dilation: 1
  }
}
layer {
  name: "relu5_3"
  type: "ReLU"
  bottom: "conv5_3"
  top: "conv5_3"
}
layer {
  name: "pool5"
  type: "Pooling"
  bottom: "conv5_3"
  top: "pool5"
  pooling_param {
    pool: MAX
    kernel_size: 3
    stride: 1
    pad: 1
  }
}
layer {
  name: "fc6"
  type: "Convolution"
  bottom: "pool5"
  top: "fc6"
  param {
    lr_mult: 1
    decay_mult: 1
  }
  param {
    lr_mult: 2
    decay_mult: 0
  }
  convolution_param {
    num_output: 1024
    pad: 6
    kernel_size: 3
    weight_filler {
      type: "xavier"
    }
    bias_filler {
      type: "constant"
      value: 0
    }
    dilation: 6
  }
}
layer {
  name: "relu6"
  type: "ReLU"
  bottom: "fc6"
  top: "fc6"
}
layer {
  name: "fc7"
  type: "Convolution"
  bottom: "fc6"
  top: "fc7"
  param {
    lr_mult: 1
    decay_mult: 1
  }
  param {
    lr_mult: 2
    decay_mult: 0
  }
  convolution_param {
    num_output: 1024
    kernel_size: 1
    weight_filler {
      type: "xavier"
    }
    bias_filler {
      type: "constant"
      value: 0
    }
  }
}
layer {
  name: "relu7"
  type: "ReLU"
  bottom: "fc7"
  top: "fc7"
}
layer {
  name: "conv6_1"
  type: "Convolution"
  bottom: "fc7"
  top: "conv6_1"
  param {
    lr_mult: 1
    decay_mult: 1
  }
  param {
    lr_mult: 2
    decay_mult: 0
  }
  convolution_param {
    num_output: 256
    pad: 0
    kernel_size: 1
    stride: 1
    weight_filler {
      type: "xavier"
    }
    bias_filler {
      type: "constant"
      value: 0
    }
  }
}
layer {
  name: "conv6_1_relu"
  type: "ReLU"
  bottom: "conv6_1"
  top: "conv6_1"
}
layer {
  name: "conv6_2"
  type: "Convolution"
  bottom: "conv6_1"
  top: "conv6_2"
  param {
    lr_mult: 1
    decay_mult: 1
  }
  param {
    lr_mult: 2
    decay_mult: 0
  }
  convolution_param {
    num_output: 512
    pad: 1
    kernel_size: 3
    stride: 2
    weight_filler {
      type: "xavier"
    }
    bias_filler {
      type: "constant"
      value: 0
    }
  }
}
layer {
  name: "conv6_2_relu"
  type: "ReLU"
  bottom: "conv6_2"
  top: "conv6_2"
}
layer {
  name: "conv7_1"
  type: "Convolution"
  bottom: "conv6_2"
  top: "conv7_1"
  param {
    lr_mult: 1
    decay_mult: 1
  }
  param {
    lr_mult: 2
    decay_mult: 0
  }
  convolution_param {
    num_output: 128
    pad: 0
    kernel_size: 1
    stride: 1
    weight_filler {
      type: "xavier"
    }
    bias_filler {
      type: "constant"
      value: 0
    }
  }
}
layer {
  name: "conv7_1_relu"
  type: "ReLU"
  bottom: "conv7_1"
  top: "conv7_1"
}
layer {
  name: "conv7_2"
  type: "Convolution"
  bottom: "conv7_1"
  top: "conv7_2"
  param {
    lr_mult: 1
    decay_mult: 1
  }
  param {
    lr_mult: 2
    decay_mult: 0
  }
  convolution_param {
    num_output: 256
    pad: 1
    kernel_size: 3
    stride: 2
    weight_filler {
      type: "xavier"
    }
    bias_filler {
      type: "constant"
      value: 0
    }
  }
}
layer {
  name: "conv7_2_relu"
  type: "ReLU"
  bottom: "conv7_2"
  top: "conv7_2"
}
layer {
  name: "conv8_1"
  type: "Convolution"
  bottom: "conv7_2"
  top: "conv8_1"
  param {
    lr_mult: 1
    decay_mult: 1
  }
  param {
    lr_mult: 2
    decay_mult: 0
  }
  convolution_param {
    num_output: 128
    pad: 0
    kernel_size: 1
    stride: 1
    weight_filler {
      type: "xavier"
    }
    bias_filler {
      type: "constant"
      value: 0
    }
  }
}
layer {
  name: "conv8_1_relu"
  type: "ReLU"
  bottom: "conv8_1"
  top: "conv8_1"
}
layer {
  name: "conv8_2"
  type: "Convolution"
  bottom: "conv8_1"
  top: "conv8_2"
  param {
    lr_mult: 1
    decay_mult: 1
  }
  param {
    lr_mult: 2
    decay_mult: 0
  }
  convolution_param {
    num_output: 256
    pad: 0
    kernel_size: 3
    stride: 1
    weight_filler {
      type: "xavier"
    }
    bias_filler {
      type: "constant"
      value: 0
    }
  }
}
layer {
  name: "conv8_2_relu"
  type: "ReLU"
  bottom: "conv8_2"
  top: "conv8_2"
}
layer {
  name: "conv9_1"
  type: "Convolution"
  bottom: "conv8_2"
  top: "conv9_1"
  param {
    lr_mult: 1
    decay_mult: 1
  }
  param {
    lr_mult: 2
    decay_mult: 0
  }
  convolution_param {
    num_output: 128
    pad: 0
    kernel_size: 1
    stride: 1
    weight_filler {
      type: "xavier"
    }
    bias_filler {
      type: "constant"
      value: 0
    }
  }
}
layer {
  name: "conv9_1_relu"
  type: "ReLU"
  bottom: "conv9_1"
  top: "conv9_1"
}
layer {
  name: "conv9_2"
  type: "Convolution"
  bottom: "conv9_1"
  top: "conv9_2"
  param {
    lr_mult: 1
    decay_mult: 1
  }
  param {
    lr_mult: 2
    decay_mult: 0
  }
  convolution_param {
    num_output: 256
    pad: 0
    kernel_size: 3
    stride: 1
    weight_filler {
      type: "xavier"
    }
    bias_filler {
      type: "constant"
      value: 0
    }
  }
}
layer {
  name: "conv9_2_relu"
  type: "ReLU"
  bottom: "conv9_2"
  top: "conv9_2"
}
layer {
  name: "conv4_3_norm"
  type: "Normalize"
  bottom: "conv4_3"
  top: "conv4_3_norm"
  norm_param {
    across_spatial: false
    scale_filler {
      type: "constant"
      value: 20
    }
    channel_shared: false
  }
}
layer {
  name: "conv4_3_norm_mbox_loc"
  type: "Convolution"
  bottom: "conv4_3_norm"
  top: "conv4_3_norm_mbox_loc"
  param {
    lr_mult: 1
    decay_mult: 1
  }
  param {
    lr_mult: 2
    decay_mult: 0
  }
  convolution_param {
    num_output: 16
    pad: 1
    kernel_size: 3
    stride: 1
    weight_filler {
      type: "xavier"
    }
    bias_filler {
      type: "constant"
      value: 0
    }
  }
}
layer {
  name: "conv4_3_norm_mbox_loc_perm"
  type: "Permute"
  bottom: "conv4_3_norm_mbox_loc"
  top: "conv4_3_norm_mbox_loc_perm"
  permute_param {
    order: 0
    order: 2
    order: 3
    order: 1
  }
}
layer {
  name: "conv4_3_norm_mbox_loc_flat"
  type: "Flatten"
  bottom: "conv4_3_norm_mbox_loc_perm"
  top: "conv4_3_norm_mbox_loc_flat"
  flatten_param {
    axis: 1
  }
}
layer {
  name: "conv4_3_norm_mbox_conf"
  type: "Convolution"
  bottom: "conv4_3_norm"
  top: "conv4_3_norm_mbox_conf"
  param {
    lr_mult: 1
    decay_mult: 1
  }
  param {
    lr_mult: 2
    decay_mult: 0
  }
  convolution_param {
    num_output: 84
    pad: 1
    kernel_size: 3
    stride: 1
    weight_filler {
      type: "xavier"
    }
    bias_filler {
      type: "constant"
      value: 0
    }
  }
}
layer {
  name: "conv4_3_norm_mbox_conf_perm"
  type: "Permute"
  bottom: "conv4_3_norm_mbox_conf"
  top: "conv4_3_norm_mbox_conf_perm"
  permute_param {
    order: 0
    order: 2
    order: 3
    order: 1
  }
}
layer {
  name: "conv4_3_norm_mbox_conf_flat"
  type: "Flatten"
  bottom: "conv4_3_norm_mbox_conf_perm"
  top: "conv4_3_norm_mbox_conf_flat"
  flatten_param {
    axis: 1
  }
}
layer {
  name: "conv4_3_norm_mbox_priorbox"
  type: "PriorBox"
  bottom: "conv4_3_norm"
  bottom: "data"
  top: "conv4_3_norm_mbox_priorbox"
  prior_box_param {
    min_size: 30
    max_size: 60
    aspect_ratio: 2
    flip: true
    clip: false
    variance: 0.1
    variance: 0.1
    variance: 0.2
    variance: 0.2
    step: 8
    offset: 0.5
  }
}
layer {
  name: "fc7_mbox_loc"
  type: "Convolution"
  bottom: "fc7"
  top: "fc7_mbox_loc"
  param {
    lr_mult: 1
    decay_mult: 1
  }
  param {
    lr_mult: 2
    decay_mult: 0
  }
  convolution_param {
    num_output: 24
    pad: 1
    kernel_size: 3
    stride: 1
    weight_filler {
      type: "xavier"
    }
    bias_filler {
      type: "constant"
      value: 0
    }
  }
}
layer {
  name: "fc7_mbox_loc_perm"
  type: "Permute"
  bottom: "fc7_mbox_loc"
  top: "fc7_mbox_loc_perm"
  permute_param {
    order: 0
    order: 2
    order: 3
    order: 1
  }
}
layer {
  name: "fc7_mbox_loc_flat"
  type: "Flatten"
  bottom: "fc7_mbox_loc_perm"
  top: "fc7_mbox_loc_flat"
  flatten_param {
    axis: 1
  }
}
layer {
  name: "fc7_mbox_conf"
  type: "Convolution"
  bottom: "fc7"
  top: "fc7_mbox_conf"
  param {
    lr_mult: 1
    decay_mult: 1
  }
  param {
    lr_mult: 2
    decay_mult: 0
  }
  convolution_param {
    num_output: 126
    pad: 1
    kernel_size: 3
    stride: 1
    weight_filler {
      type: "xavier"
    }
    bias_filler {
      type: "constant"
      value: 0
    }
  }
}
layer {
  name: "fc7_mbox_conf_perm"
  type: "Permute"
  bottom: "fc7_mbox_conf"
  top: "fc7_mbox_conf_perm"
  permute_param {
    order: 0
    order: 2
    order: 3
    order: 1
  }
}
layer {
  name: "fc7_mbox_conf_flat"
  type: "Flatten"
  bottom: "fc7_mbox_conf_perm"
  top: "fc7_mbox_conf_flat"
  flatten_param {
    axis: 1
  }
}
layer {
  name: "fc7_mbox_priorbox"
  type: "PriorBox"
  bottom: "fc7"
  bottom: "data"
  top: "fc7_mbox_priorbox"
  prior_box_param {
    min_size: 60
    max_size: 111
    aspect_ratio: 2
    aspect_ratio: 3
    flip: true
    clip: false
    variance: 0.1
    variance: 0.1
    variance: 0.2
    variance: 0.2
    step: 16
    offset: 0.5
  }
}
layer {
  name: "conv6_2_mbox_loc"
  type: "Convolution"
  bottom: "conv6_2"
  top: "conv6_2_mbox_loc"
  param {
    lr_mult: 1
    decay_mult: 1
  }
  param {
    lr_mult: 2
    decay_mult: 0
  }
  convolution_param {
    num_output: 24
    pad: 1
    kernel_size: 3
    stride: 1
    weight_filler {
      type: "xavier"
    }
    bias_filler {
      type: "constant"
      value: 0
    }
  }
}
layer {
  name: "conv6_2_mbox_loc_perm"
  type: "Permute"
  bottom: "conv6_2_mbox_loc"
  top: "conv6_2_mbox_loc_perm"
  permute_param {
    order: 0
    order: 2
    order: 3
    order: 1
  }
}
layer {
  name: "conv6_2_mbox_loc_flat"
  type: "Flatten"
  bottom: "conv6_2_mbox_loc_perm"
  top: "conv6_2_mbox_loc_flat"
  flatten_param {
    axis: 1
  }
}
layer {
  name: "conv6_2_mbox_conf"
  type: "Convolution"
  bottom: "conv6_2"
  top: "conv6_2_mbox_conf"
  param {
    lr_mult: 1
    decay_mult: 1
  }
  param {
    lr_mult: 2
    decay_mult: 0
  }
  convolution_param {
    num_output: 126
    pad: 1
    kernel_size: 3
    stride: 1
    weight_filler {
      type: "xavier"
    }
    bias_filler {
      type: "constant"
      value: 0
    }
  }
}
layer {
  name: "conv6_2_mbox_conf_perm"
  type: "Permute"
  bottom: "conv6_2_mbox_conf"
  top: "conv6_2_mbox_conf_perm"
  permute_param {
    order: 0
    order: 2
    order: 3
    order: 1
  }
}
layer {
  name: "conv6_2_mbox_conf_flat"
  type: "Flatten"
  bottom: "conv6_2_mbox_conf_perm"
  top: "conv6_2_mbox_conf_flat"
  flatten_param {
    axis: 1
  }
}
layer {
  name: "conv6_2_mbox_priorbox"
  type: "PriorBox"
  bottom: "conv6_2"
  bottom: "data"
  top: "conv6_2_mbox_priorbox"
  prior_box_param {
    min_size: 111
    max_size: 162
    aspect_ratio: 2
    aspect_ratio: 3
    flip: true
    clip: false
    variance: 0.1
    variance: 0.1
    variance: 0.2
    variance: 0.2
    step: 32
    offset: 0.5
  }
}
layer {
  name: "conv7_2_mbox_loc"
  type: "Convolution"
  bottom: "conv7_2"
  top: "conv7_2_mbox_loc"
  param {
    lr_mult: 1
    decay_mult: 1
  }
  param {
    lr_mult: 2
    decay_mult: 0
  }
  convolution_param {
    num_output: 24
    pad: 1
    kernel_size: 3
    stride: 1
    weight_filler {
      type: "xavier"
    }
    bias_filler {
      type: "constant"
      value: 0
    }
  }
}
layer {
  name: "conv7_2_mbox_loc_perm"
  type: "Permute"
  bottom: "conv7_2_mbox_loc"
  top: "conv7_2_mbox_loc_perm"
  permute_param {
    order: 0
    order: 2
    order: 3
    order: 1
  }
}
layer {
  name: "conv7_2_mbox_loc_flat"
  type: "Flatten"
  bottom: "conv7_2_mbox_loc_perm"
  top: "conv7_2_mbox_loc_flat"
  flatten_param {
    axis: 1
  }
}
layer {
  name: "conv7_2_mbox_conf"
  type: "Convolution"
  bottom: "conv7_2"
  top: "conv7_2_mbox_conf"
  param {
    lr_mult: 1
    decay_mult: 1
  }
  param {
    lr_mult: 2
    decay_mult: 0
  }
  convolution_param {
    num_output: 126
    pad: 1
    kernel_size: 3
    stride: 1
    weight_filler {
      type: "xavier"
    }
    bias_filler {
      type: "constant"
      value: 0
    }
  }
}
layer {
  name: "conv7_2_mbox_conf_perm"
  type: "Permute"
  bottom: "conv7_2_mbox_conf"
  top: "conv7_2_mbox_conf_perm"
  permute_param {
    order: 0
    order: 2
    order: 3
    order: 1
  }
}
layer {
  name: "conv7_2_mbox_conf_flat"
  type: "Flatten"
  bottom: "conv7_2_mbox_conf_perm"
  top: "conv7_2_mbox_conf_flat"
  flatten_param {
    axis: 1
  }
}
layer {
  name: "conv7_2_mbox_priorbox"
  type: "PriorBox"
  bottom: "conv7_2"
  bottom: "data"
  top: "conv7_2_mbox_priorbox"
  prior_box_param {
    min_size: 162
    max_size: 213
    aspect_ratio: 2
    aspect_ratio: 3
    flip: true
    clip: false
    variance: 0.1
    variance: 0.1
    variance: 0.2
    variance: 0.2
    step: 64
    offset: 0.5
  }
}
layer {
  name: "conv8_2_mbox_loc"
  type: "Convolution"
  bottom: "conv8_2"
  top: "conv8_2_mbox_loc"
  param {
    lr_mult: 1
    decay_mult: 1
  }
  param {
    lr_mult: 2
    decay_mult: 0
  }
  convolution_param {
    num_output: 16
    pad: 1
    kernel_size: 3
    stride: 1
    weight_filler {
      type: "xavier"
    }
    bias_filler {
      type: "constant"
      value: 0
    }
  }
}
layer {
  name: "conv8_2_mbox_loc_perm"
  type: "Permute"
  bottom: "conv8_2_mbox_loc"
  top: "conv8_2_mbox_loc_perm"
  permute_param {
    order: 0
    order: 2
    order: 3
    order: 1
  }
}
layer {
  name: "conv8_2_mbox_loc_flat"
  type: "Flatten"
  bottom: "conv8_2_mbox_loc_perm"
  top: "conv8_2_mbox_loc_flat"
  flatten_param {
    axis: 1
  }
}
layer {
  name: "conv8_2_mbox_conf"
  type: "Convolution"
  bottom: "conv8_2"
  top: "conv8_2_mbox_conf"
  param {
    lr_mult: 1
    decay_mult: 1
  }
  param {
    lr_mult: 2
    decay_mult: 0
  }
  convolution_param {
    num_output: 84
    pad: 1
    kernel_size: 3
    stride: 1
    weight_filler {
      type: "xavier"
    }
    bias_filler {
      type: "constant"
      value: 0
    }
  }
}
layer {
  name: "conv8_2_mbox_conf_perm"
  type: "Permute"
  bottom: "conv8_2_mbox_conf"
  top: "conv8_2_mbox_conf_perm"
  permute_param {
    order: 0
    order: 2
    order: 3
    order: 1
  }
}
layer {
  name: "conv8_2_mbox_conf_flat"
  type: "Flatten"
  bottom: "conv8_2_mbox_conf_perm"
  top: "conv8_2_mbox_conf_flat"
  flatten_param {
    axis: 1
  }
}
layer {
  name: "conv8_2_mbox_priorbox"
  type: "PriorBox"
  bottom: "conv8_2"
  bottom: "data"
  top: "conv8_2_mbox_priorbox"
  prior_box_param {
    min_size: 213
    max_size: 264
    aspect_ratio: 2
    flip: true
    clip: false
    variance: 0.1
    variance: 0.1
    variance: 0.2
    variance: 0.2
    step: 100
    offset: 0.5
  }
}
layer {
  name: "conv9_2_mbox_loc"
  type: "Convolution"
  bottom: "conv9_2"
  top: "conv9_2_mbox_loc"
  param {
    lr_mult: 1
    decay_mult: 1
  }
  param {
    lr_mult: 2
    decay_mult: 0
  }
  convolution_param {
    num_output: 16
    pad: 1
    kernel_size: 3
    stride: 1
    weight_filler {
      type: "xavier"
    }
    bias_filler {
      type: "constant"
      value: 0
    }
  }
}
layer {
  name: "conv9_2_mbox_loc_perm"
  type: "Permute"
  bottom: "conv9_2_mbox_loc"
  top: "conv9_2_mbox_loc_perm"
  permute_param {
    order: 0
    order: 2
    order: 3
    order: 1
  }
}
layer {
  name: "conv9_2_mbox_loc_flat"
  type: "Flatten"
  bottom: "conv9_2_mbox_loc_perm"
  top: "conv9_2_mbox_loc_flat"
  flatten_param {
    axis: 1
  }
}
layer {
  name: "conv9_2_mbox_conf"
  type: "Convolution"
  bottom: "conv9_2"
  top: "conv9_2_mbox_conf"
  param {
    lr_mult: 1
    decay_mult: 1
  }
  param {
    lr_mult: 2
    decay_mult: 0
  }
  convolution_param {
    num_output: 84
    pad: 1
    kernel_size: 3
    stride: 1
    weight_filler {
      type: "xavier"
    }
    bias_filler {
      type: "constant"
      value: 0
    }
  }
}
layer {
  name: "conv9_2_mbox_conf_perm"
  type: "Permute"
  bottom: "conv9_2_mbox_conf"
  top: "conv9_2_mbox_conf_perm"
  permute_param {
    order: 0
    order: 2
    order: 3
    order: 1
  }
}
layer {
  name: "conv9_2_mbox_conf_flat"
  type: "Flatten"
  bottom: "conv9_2_mbox_conf_perm"
  top: "conv9_2_mbox_conf_flat"
  flatten_param {
    axis: 1
  }
}
layer {
  name: "conv9_2_mbox_priorbox"
  type: "PriorBox"
  bottom: "conv9_2"
  bottom: "data"
  top: "conv9_2_mbox_priorbox"
  prior_box_param {
    min_size: 264
    max_size: 315
    aspect_ratio: 2
    flip: true
    clip: false
    variance: 0.1
    variance: 0.1
    variance: 0.2
    variance: 0.2
    step: 300
    offset: 0.5
  }
}
layer {
  name: "mbox_loc"
  type: "Concat"
  bottom: "conv4_3_norm_mbox_loc_flat"
  bottom: "fc7_mbox_loc_flat"
  bottom: "conv6_2_mbox_loc_flat"
  bottom: "conv7_2_mbox_loc_flat"
  bottom: "conv8_2_mbox_loc_flat"
  bottom: "conv9_2_mbox_loc_flat"
  top: "mbox_loc"
  concat_param {
    axis: 1
  }
}
layer {
  name: "mbox_conf"
  type: "Concat"
  bottom: "conv4_3_norm_mbox_conf_flat"
  bottom: "fc7_mbox_conf_flat"
  bottom: "conv6_2_mbox_conf_flat"
  bottom: "conv7_2_mbox_conf_flat"
  bottom: "conv8_2_mbox_conf_flat"
  bottom: "conv9_2_mbox_conf_flat"
  top: "mbox_conf"
  concat_param {
    axis: 1
  }
}
layer {
  name: "mbox_priorbox"
  type: "Concat"
  bottom: "conv4_3_norm_mbox_priorbox"
  bottom: "fc7_mbox_priorbox"
  bottom: "conv6_2_mbox_priorbox"
  bottom: "conv7_2_mbox_priorbox"
  bottom: "conv8_2_mbox_priorbox"
  bottom: "conv9_2_mbox_priorbox"
  top: "mbox_priorbox"
  concat_param {
    axis: 2
  }
}
layer {
  name: "mbox_loss"
  type: "MultiBoxLoss"
  bottom: "mbox_loc"
  bottom: "mbox_conf"
  bottom: "mbox_priorbox"
  bottom: "label"
  top: "mbox_loss"
  include {
    phase: TRAIN
  }
  propagate_down: true
  propagate_down: true
  propagate_down: false
  propagate_down: false
  loss_param {
    normalization: VALID
  }
  multibox_loss_param {
    loc_loss_type: SMOOTH_L1
    conf_loss_type: SOFTMAX
    loc_weight: 1
    num_classes: 21
    share_location: true
    match_type: PER_PREDICTION
    overlap_threshold: 0.5
    use_prior_for_matching: true
    background_label_id: 0
    use_difficult_gt: true
    neg_pos_ratio: 3
    neg_overlap: 0.5
    code_type: CENTER_SIZE
    ignore_cross_boundary_bbox: false
    mining_type: MAX_NEGATIVE
  }
}
I0226 10:49:30.014987  3630 layer_factory.hpp:77] Creating layer data
I0226 10:49:30.015100  3630 net.cpp:100] Creating Layer data
I0226 10:49:30.015111  3630 net.cpp:408] data -> data
I0226 10:49:30.015136  3630 net.cpp:408] data -> label
I0226 10:49:30.015455  3646 db_lmdb.cpp:35] Opened lmdb examples/VOC0712/VOC0712_trainval_lmdb
I0226 10:49:30.029242  3630 annotated_data_layer.cpp:62] output data size: 1,3,300,300
I0226 10:49:30.031942  3630 net.cpp:150] Setting up data
I0226 10:49:30.031967  3630 net.cpp:157] Top shape: 1 3 300 300 (270000)
I0226 10:49:30.031972  3630 net.cpp:157] Top shape: 1 1 1 8 (8)
I0226 10:49:30.031973  3630 net.cpp:165] Memory required for data: 1080032
I0226 10:49:30.032001  3630 layer_factory.hpp:77] Creating layer data_data_0_split
I0226 10:49:30.032017  3630 net.cpp:100] Creating Layer data_data_0_split
I0226 10:49:30.032023  3630 net.cpp:434] data_data_0_split <- data
I0226 10:49:30.032037  3630 net.cpp:408] data_data_0_split -> data_data_0_split_0
I0226 10:49:30.032047  3630 net.cpp:408] data_data_0_split -> data_data_0_split_1
I0226 10:49:30.032052  3630 net.cpp:408] data_data_0_split -> data_data_0_split_2
I0226 10:49:30.032058  3630 net.cpp:408] data_data_0_split -> data_data_0_split_3
I0226 10:49:30.032061  3630 net.cpp:408] data_data_0_split -> data_data_0_split_4
I0226 10:49:30.032065  3630 net.cpp:408] data_data_0_split -> data_data_0_split_5
I0226 10:49:30.032071  3630 net.cpp:408] data_data_0_split -> data_data_0_split_6
I0226 10:49:30.032131  3630 net.cpp:150] Setting up data_data_0_split
I0226 10:49:30.032136  3630 net.cpp:157] Top shape: 1 3 300 300 (270000)
I0226 10:49:30.032138  3630 net.cpp:157] Top shape: 1 3 300 300 (270000)
I0226 10:49:30.032141  3630 net.cpp:157] Top shape: 1 3 300 300 (270000)
I0226 10:49:30.032143  3630 net.cpp:157] Top shape: 1 3 300 300 (270000)
I0226 10:49:30.032146  3630 net.cpp:157] Top shape: 1 3 300 300 (270000)
I0226 10:49:30.032148  3630 net.cpp:157] Top shape: 1 3 300 300 (270000)
I0226 10:49:30.032151  3630 net.cpp:157] Top shape: 1 3 300 300 (270000)
I0226 10:49:30.032153  3630 net.cpp:165] Memory required for data: 8640032
I0226 10:49:30.032155  3630 layer_factory.hpp:77] Creating layer conv1_1
I0226 10:49:30.032166  3630 net.cpp:100] Creating Layer conv1_1
I0226 10:49:30.032169  3630 net.cpp:434] conv1_1 <- data_data_0_split_0
I0226 10:49:30.032174  3630 net.cpp:408] conv1_1 -> conv1_1
I0226 10:49:30.032896  3630 net.cpp:150] Setting up conv1_1
I0226 10:49:30.032904  3630 net.cpp:157] Top shape: 1 64 300 300 (5760000)
I0226 10:49:30.032907  3630 net.cpp:165] Memory required for data: 31680032
I0226 10:49:30.032924  3630 layer_factory.hpp:77] Creating layer relu1_1
I0226 10:49:30.032930  3630 net.cpp:100] Creating Layer relu1_1
I0226 10:49:30.032933  3630 net.cpp:434] relu1_1 <- conv1_1
I0226 10:49:30.032937  3630 net.cpp:395] relu1_1 -> conv1_1 (in-place)
I0226 10:49:30.032941  3630 net.cpp:150] Setting up relu1_1
I0226 10:49:30.032945  3630 net.cpp:157] Top shape: 1 64 300 300 (5760000)
I0226 10:49:30.032948  3630 net.cpp:165] Memory required for data: 54720032
I0226 10:49:30.032949  3630 layer_factory.hpp:77] Creating layer conv1_2
I0226 10:49:30.032954  3630 net.cpp:100] Creating Layer conv1_2
I0226 10:49:30.032956  3630 net.cpp:434] conv1_2 <- conv1_1
I0226 10:49:30.032960  3630 net.cpp:408] conv1_2 -> conv1_2
I0226 10:49:30.033816  3630 net.cpp:150] Setting up conv1_2
I0226 10:49:30.033825  3630 net.cpp:157] Top shape: 1 64 300 300 (5760000)
I0226 10:49:30.033828  3630 net.cpp:165] Memory required for data: 77760032
I0226 10:49:30.033833  3630 layer_factory.hpp:77] Creating layer relu1_2
I0226 10:49:30.033838  3630 net.cpp:100] Creating Layer relu1_2
I0226 10:49:30.033840  3630 net.cpp:434] relu1_2 <- conv1_2
I0226 10:49:30.033844  3630 net.cpp:395] relu1_2 -> conv1_2 (in-place)
I0226 10:49:30.033849  3630 net.cpp:150] Setting up relu1_2
I0226 10:49:30.033850  3630 net.cpp:157] Top shape: 1 64 300 300 (5760000)
I0226 10:49:30.033854  3630 net.cpp:165] Memory required for data: 100800032
I0226 10:49:30.033855  3630 layer_factory.hpp:77] Creating layer pool1
I0226 10:49:30.033859  3630 net.cpp:100] Creating Layer pool1
I0226 10:49:30.033861  3630 net.cpp:434] pool1 <- conv1_2
I0226 10:49:30.033864  3630 net.cpp:408] pool1 -> pool1
I0226 10:49:30.033895  3630 net.cpp:150] Setting up pool1
I0226 10:49:30.033898  3630 net.cpp:157] Top shape: 1 64 150 150 (1440000)
I0226 10:49:30.033900  3630 net.cpp:165] Memory required for data: 106560032
I0226 10:49:30.033903  3630 layer_factory.hpp:77] Creating layer conv2_1
I0226 10:49:30.033907  3630 net.cpp:100] Creating Layer conv2_1
I0226 10:49:30.033910  3630 net.cpp:434] conv2_1 <- pool1
I0226 10:49:30.033915  3630 net.cpp:408] conv2_1 -> conv2_1
I0226 10:49:30.034440  3630 net.cpp:150] Setting up conv2_1
I0226 10:49:30.034445  3630 net.cpp:157] Top shape: 1 128 150 150 (2880000)
I0226 10:49:30.034446  3630 net.cpp:165] Memory required for data: 118080032
I0226 10:49:30.034451  3630 layer_factory.hpp:77] Creating layer relu2_1
I0226 10:49:30.034457  3630 net.cpp:100] Creating Layer relu2_1
I0226 10:49:30.034459  3630 net.cpp:434] relu2_1 <- conv2_1
I0226 10:49:30.034462  3630 net.cpp:395] relu2_1 -> conv2_1 (in-place)
I0226 10:49:30.034466  3630 net.cpp:150] Setting up relu2_1
I0226 10:49:30.034468  3630 net.cpp:157] Top shape: 1 128 150 150 (2880000)
I0226 10:49:30.034471  3630 net.cpp:165] Memory required for data: 129600032
I0226 10:49:30.034472  3630 layer_factory.hpp:77] Creating layer conv2_2
I0226 10:49:30.034476  3630 net.cpp:100] Creating Layer conv2_2
I0226 10:49:30.034481  3630 net.cpp:434] conv2_2 <- conv2_1
I0226 10:49:30.034483  3630 net.cpp:408] conv2_2 -> conv2_2
I0226 10:49:30.035380  3630 net.cpp:150] Setting up conv2_2
I0226 10:49:30.035385  3630 net.cpp:157] Top shape: 1 128 150 150 (2880000)
I0226 10:49:30.035387  3630 net.cpp:165] Memory required for data: 141120032
I0226 10:49:30.035392  3630 layer_factory.hpp:77] Creating layer relu2_2
I0226 10:49:30.035395  3630 net.cpp:100] Creating Layer relu2_2
I0226 10:49:30.035398  3630 net.cpp:434] relu2_2 <- conv2_2
I0226 10:49:30.035400  3630 net.cpp:395] relu2_2 -> conv2_2 (in-place)
I0226 10:49:30.035403  3630 net.cpp:150] Setting up relu2_2
I0226 10:49:30.035406  3630 net.cpp:157] Top shape: 1 128 150 150 (2880000)
I0226 10:49:30.035408  3630 net.cpp:165] Memory required for data: 152640032
I0226 10:49:30.035411  3630 layer_factory.hpp:77] Creating layer pool2
I0226 10:49:30.035414  3630 net.cpp:100] Creating Layer pool2
I0226 10:49:30.035416  3630 net.cpp:434] pool2 <- conv2_2
I0226 10:49:30.035419  3630 net.cpp:408] pool2 -> pool2
I0226 10:49:30.035439  3630 net.cpp:150] Setting up pool2
I0226 10:49:30.035444  3630 net.cpp:157] Top shape: 1 128 75 75 (720000)
I0226 10:49:30.035445  3630 net.cpp:165] Memory required for data: 155520032
I0226 10:49:30.035447  3630 layer_factory.hpp:77] Creating layer conv3_1
I0226 10:49:30.035452  3630 net.cpp:100] Creating Layer conv3_1
I0226 10:49:30.035455  3630 net.cpp:434] conv3_1 <- pool2
I0226 10:49:30.035460  3630 net.cpp:408] conv3_1 -> conv3_1
I0226 10:49:30.038251  3630 net.cpp:150] Setting up conv3_1
I0226 10:49:30.038269  3630 net.cpp:157] Top shape: 1 256 75 75 (1440000)
I0226 10:49:30.038271  3630 net.cpp:165] Memory required for data: 161280032
I0226 10:49:30.038286  3630 layer_factory.hpp:77] Creating layer relu3_1
I0226 10:49:30.038295  3630 net.cpp:100] Creating Layer relu3_1
I0226 10:49:30.038301  3630 net.cpp:434] relu3_1 <- conv3_1
I0226 10:49:30.038307  3630 net.cpp:395] relu3_1 -> conv3_1 (in-place)
I0226 10:49:30.038316  3630 net.cpp:150] Setting up relu3_1
I0226 10:49:30.038321  3630 net.cpp:157] Top shape: 1 256 75 75 (1440000)
I0226 10:49:30.038326  3630 net.cpp:165] Memory required for data: 167040032
I0226 10:49:30.038329  3630 layer_factory.hpp:77] Creating layer conv3_2
I0226 10:49:30.038339  3630 net.cpp:100] Creating Layer conv3_2
I0226 10:49:30.038342  3630 net.cpp:434] conv3_2 <- conv3_1
I0226 10:49:30.038349  3630 net.cpp:408] conv3_2 -> conv3_2
I0226 10:49:30.043076  3630 net.cpp:150] Setting up conv3_2
I0226 10:49:30.043450  3630 net.cpp:157] Top shape: 1 256 75 75 (1440000)
I0226 10:49:30.043481  3630 net.cpp:165] Memory required for data: 172800032
I0226 10:49:30.043514  3630 layer_factory.hpp:77] Creating layer relu3_2
I0226 10:49:30.043543  3630 net.cpp:100] Creating Layer relu3_2
I0226 10:49:30.043570  3630 net.cpp:434] relu3_2 <- conv3_2
I0226 10:49:30.043598  3630 net.cpp:395] relu3_2 -> conv3_2 (in-place)
I0226 10:49:30.043628  3630 net.cpp:150] Setting up relu3_2
I0226 10:49:30.043656  3630 net.cpp:157] Top shape: 1 256 75 75 (1440000)
I0226 10:49:30.043681  3630 net.cpp:165] Memory required for data: 178560032
I0226 10:49:30.043707  3630 layer_factory.hpp:77] Creating layer conv3_3
I0226 10:49:30.043748  3630 net.cpp:100] Creating Layer conv3_3
I0226 10:49:30.043787  3630 net.cpp:434] conv3_3 <- conv3_2
I0226 10:49:30.043817  3630 net.cpp:408] conv3_3 -> conv3_3
I0226 10:49:30.048528  3630 net.cpp:150] Setting up conv3_3
I0226 10:49:30.048544  3630 net.cpp:157] Top shape: 1 256 75 75 (1440000)
I0226 10:49:30.048547  3630 net.cpp:165] Memory required for data: 184320032
I0226 10:49:30.048552  3630 layer_factory.hpp:77] Creating layer relu3_3
I0226 10:49:30.048557  3630 net.cpp:100] Creating Layer relu3_3
I0226 10:49:30.048560  3630 net.cpp:434] relu3_3 <- conv3_3
I0226 10:49:30.048565  3630 net.cpp:395] relu3_3 -> conv3_3 (in-place)
I0226 10:49:30.048570  3630 net.cpp:150] Setting up relu3_3
I0226 10:49:30.048573  3630 net.cpp:157] Top shape: 1 256 75 75 (1440000)
I0226 10:49:30.048575  3630 net.cpp:165] Memory required for data: 190080032
I0226 10:49:30.048578  3630 layer_factory.hpp:77] Creating layer pool3
I0226 10:49:30.048581  3630 net.cpp:100] Creating Layer pool3
I0226 10:49:30.048583  3630 net.cpp:434] pool3 <- conv3_3
I0226 10:49:30.048588  3630 net.cpp:408] pool3 -> pool3
I0226 10:49:30.048612  3630 net.cpp:150] Setting up pool3
I0226 10:49:30.048616  3630 net.cpp:157] Top shape: 1 256 38 38 (369664)
I0226 10:49:30.048619  3630 net.cpp:165] Memory required for data: 191558688
I0226 10:49:30.048620  3630 layer_factory.hpp:77] Creating layer conv4_1
I0226 10:49:30.048626  3630 net.cpp:100] Creating Layer conv4_1
I0226 10:49:30.048629  3630 net.cpp:434] conv4_1 <- pool3
I0226 10:49:30.048631  3630 net.cpp:408] conv4_1 -> conv4_1
I0226 10:49:30.056607  3630 net.cpp:150] Setting up conv4_1
I0226 10:49:30.056627  3630 net.cpp:157] Top shape: 1 512 38 38 (739328)
I0226 10:49:30.056628  3630 net.cpp:165] Memory required for data: 194516000
I0226 10:49:30.056635  3630 layer_factory.hpp:77] Creating layer relu4_1
I0226 10:49:30.056643  3630 net.cpp:100] Creating Layer relu4_1
I0226 10:49:30.056646  3630 net.cpp:434] relu4_1 <- conv4_1
I0226 10:49:30.056651  3630 net.cpp:395] relu4_1 -> conv4_1 (in-place)
I0226 10:49:30.056659  3630 net.cpp:150] Setting up relu4_1
I0226 10:49:30.056663  3630 net.cpp:157] Top shape: 1 512 38 38 (739328)
I0226 10:49:30.056664  3630 net.cpp:165] Memory required for data: 197473312
I0226 10:49:30.056666  3630 layer_factory.hpp:77] Creating layer conv4_2
I0226 10:49:30.056679  3630 net.cpp:100] Creating Layer conv4_2
I0226 10:49:30.056681  3630 net.cpp:434] conv4_2 <- conv4_1
I0226 10:49:30.056684  3630 net.cpp:408] conv4_2 -> conv4_2
I0226 10:49:30.071204  3630 net.cpp:150] Setting up conv4_2
I0226 10:49:30.071228  3630 net.cpp:157] Top shape: 1 512 38 38 (739328)
I0226 10:49:30.071231  3630 net.cpp:165] Memory required for data: 200430624
I0226 10:49:30.071241  3630 layer_factory.hpp:77] Creating layer relu4_2
I0226 10:49:30.071247  3630 net.cpp:100] Creating Layer relu4_2
I0226 10:49:30.071251  3630 net.cpp:434] relu4_2 <- conv4_2
I0226 10:49:30.071256  3630 net.cpp:395] relu4_2 -> conv4_2 (in-place)
I0226 10:49:30.071264  3630 net.cpp:150] Setting up relu4_2
I0226 10:49:30.071266  3630 net.cpp:157] Top shape: 1 512 38 38 (739328)
I0226 10:49:30.071269  3630 net.cpp:165] Memory required for data: 203387936
I0226 10:49:30.071270  3630 layer_factory.hpp:77] Creating layer conv4_3
I0226 10:49:30.071280  3630 net.cpp:100] Creating Layer conv4_3
I0226 10:49:30.071282  3630 net.cpp:434] conv4_3 <- conv4_2
I0226 10:49:30.071286  3630 net.cpp:408] conv4_3 -> conv4_3
I0226 10:49:30.086982  3630 net.cpp:150] Setting up conv4_3
I0226 10:49:30.087000  3630 net.cpp:157] Top shape: 1 512 38 38 (739328)
I0226 10:49:30.087002  3630 net.cpp:165] Memory required for data: 206345248
I0226 10:49:30.087009  3630 layer_factory.hpp:77] Creating layer relu4_3
I0226 10:49:30.087015  3630 net.cpp:100] Creating Layer relu4_3
I0226 10:49:30.087018  3630 net.cpp:434] relu4_3 <- conv4_3
I0226 10:49:30.087023  3630 net.cpp:395] relu4_3 -> conv4_3 (in-place)
I0226 10:49:30.087029  3630 net.cpp:150] Setting up relu4_3
I0226 10:49:30.087033  3630 net.cpp:157] Top shape: 1 512 38 38 (739328)
I0226 10:49:30.087034  3630 net.cpp:165] Memory required for data: 209302560
I0226 10:49:30.087054  3630 layer_factory.hpp:77] Creating layer conv4_3_relu4_3_0_split
I0226 10:49:30.087060  3630 net.cpp:100] Creating Layer conv4_3_relu4_3_0_split
I0226 10:49:30.087064  3630 net.cpp:434] conv4_3_relu4_3_0_split <- conv4_3
I0226 10:49:30.087067  3630 net.cpp:408] conv4_3_relu4_3_0_split -> conv4_3_relu4_3_0_split_0
I0226 10:49:30.087071  3630 net.cpp:408] conv4_3_relu4_3_0_split -> conv4_3_relu4_3_0_split_1
I0226 10:49:30.087097  3630 net.cpp:150] Setting up conv4_3_relu4_3_0_split
I0226 10:49:30.087101  3630 net.cpp:157] Top shape: 1 512 38 38 (739328)
I0226 10:49:30.087105  3630 net.cpp:157] Top shape: 1 512 38 38 (739328)
I0226 10:49:30.087106  3630 net.cpp:165] Memory required for data: 215217184
I0226 10:49:30.087108  3630 layer_factory.hpp:77] Creating layer pool4
I0226 10:49:30.087113  3630 net.cpp:100] Creating Layer pool4
I0226 10:49:30.087116  3630 net.cpp:434] pool4 <- conv4_3_relu4_3_0_split_0
I0226 10:49:30.087118  3630 net.cpp:408] pool4 -> pool4
I0226 10:49:30.087138  3630 net.cpp:150] Setting up pool4
I0226 10:49:30.087142  3630 net.cpp:157] Top shape: 1 512 19 19 (184832)
I0226 10:49:30.087144  3630 net.cpp:165] Memory required for data: 215956512
I0226 10:49:30.087146  3630 layer_factory.hpp:77] Creating layer conv5_1
I0226 10:49:30.087152  3630 net.cpp:100] Creating Layer conv5_1
I0226 10:49:30.087155  3630 net.cpp:434] conv5_1 <- pool4
I0226 10:49:30.087159  3630 net.cpp:408] conv5_1 -> conv5_1
I0226 10:49:30.101650  3630 net.cpp:150] Setting up conv5_1
I0226 10:49:30.101673  3630 net.cpp:157] Top shape: 1 512 19 19 (184832)
I0226 10:49:30.101676  3630 net.cpp:165] Memory required for data: 216695840
I0226 10:49:30.101683  3630 layer_factory.hpp:77] Creating layer relu5_1
I0226 10:49:30.101691  3630 net.cpp:100] Creating Layer relu5_1
I0226 10:49:30.101693  3630 net.cpp:434] relu5_1 <- conv5_1
I0226 10:49:30.101699  3630 net.cpp:395] relu5_1 -> conv5_1 (in-place)
I0226 10:49:30.101706  3630 net.cpp:150] Setting up relu5_1
I0226 10:49:30.101708  3630 net.cpp:157] Top shape: 1 512 19 19 (184832)
I0226 10:49:30.101711  3630 net.cpp:165] Memory required for data: 217435168
I0226 10:49:30.101712  3630 layer_factory.hpp:77] Creating layer conv5_2
I0226 10:49:30.101721  3630 net.cpp:100] Creating Layer conv5_2
I0226 10:49:30.101722  3630 net.cpp:434] conv5_2 <- conv5_1
I0226 10:49:30.101725  3630 net.cpp:408] conv5_2 -> conv5_2
I0226 10:49:30.116546  3630 net.cpp:150] Setting up conv5_2
I0226 10:49:30.116564  3630 net.cpp:157] Top shape: 1 512 19 19 (184832)
I0226 10:49:30.116566  3630 net.cpp:165] Memory required for data: 218174496
I0226 10:49:30.116572  3630 layer_factory.hpp:77] Creating layer relu5_2
I0226 10:49:30.116578  3630 net.cpp:100] Creating Layer relu5_2
I0226 10:49:30.116581  3630 net.cpp:434] relu5_2 <- conv5_2
I0226 10:49:30.116585  3630 net.cpp:395] relu5_2 -> conv5_2 (in-place)
I0226 10:49:30.116591  3630 net.cpp:150] Setting up relu5_2
I0226 10:49:30.116595  3630 net.cpp:157] Top shape: 1 512 19 19 (184832)
I0226 10:49:30.116596  3630 net.cpp:165] Memory required for data: 218913824
I0226 10:49:30.116598  3630 layer_factory.hpp:77] Creating layer conv5_3
I0226 10:49:30.116605  3630 net.cpp:100] Creating Layer conv5_3
I0226 10:49:30.116607  3630 net.cpp:434] conv5_3 <- conv5_2
I0226 10:49:30.116611  3630 net.cpp:408] conv5_3 -> conv5_3
I0226 10:49:30.131223  3630 net.cpp:150] Setting up conv5_3
I0226 10:49:30.131242  3630 net.cpp:157] Top shape: 1 512 19 19 (184832)
I0226 10:49:30.131244  3630 net.cpp:165] Memory required for data: 219653152
I0226 10:49:30.131252  3630 layer_factory.hpp:77] Creating layer relu5_3
I0226 10:49:30.131260  3630 net.cpp:100] Creating Layer relu5_3
I0226 10:49:30.131263  3630 net.cpp:434] relu5_3 <- conv5_3
I0226 10:49:30.131268  3630 net.cpp:395] relu5_3 -> conv5_3 (in-place)
I0226 10:49:30.131276  3630 net.cpp:150] Setting up relu5_3
I0226 10:49:30.131278  3630 net.cpp:157] Top shape: 1 512 19 19 (184832)
I0226 10:49:30.131280  3630 net.cpp:165] Memory required for data: 220392480
I0226 10:49:30.131301  3630 layer_factory.hpp:77] Creating layer pool5
I0226 10:49:30.131306  3630 net.cpp:100] Creating Layer pool5
I0226 10:49:30.131309  3630 net.cpp:434] pool5 <- conv5_3
I0226 10:49:30.131312  3630 net.cpp:408] pool5 -> pool5
I0226 10:49:30.131341  3630 net.cpp:150] Setting up pool5
I0226 10:49:30.131345  3630 net.cpp:157] Top shape: 1 512 19 19 (184832)
I0226 10:49:30.131347  3630 net.cpp:165] Memory required for data: 221131808
I0226 10:49:30.131350  3630 layer_factory.hpp:77] Creating layer fc6
I0226 10:49:30.131356  3630 net.cpp:100] Creating Layer fc6
I0226 10:49:30.131359  3630 net.cpp:434] fc6 <- pool5
I0226 10:49:30.131362  3630 net.cpp:408] fc6 -> fc6
I0226 10:49:30.160197  3630 net.cpp:150] Setting up fc6
I0226 10:49:30.160218  3630 net.cpp:157] Top shape: 1 1024 19 19 (369664)
I0226 10:49:30.160219  3630 net.cpp:165] Memory required for data: 222610464
I0226 10:49:30.160228  3630 layer_factory.hpp:77] Creating layer relu6
I0226 10:49:30.160233  3630 net.cpp:100] Creating Layer relu6
I0226 10:49:30.160236  3630 net.cpp:434] relu6 <- fc6
I0226 10:49:30.160241  3630 net.cpp:395] relu6 -> fc6 (in-place)
I0226 10:49:30.160248  3630 net.cpp:150] Setting up relu6
I0226 10:49:30.160251  3630 net.cpp:157] Top shape: 1 1024 19 19 (369664)
I0226 10:49:30.160254  3630 net.cpp:165] Memory required for data: 224089120
I0226 10:49:30.160255  3630 layer_factory.hpp:77] Creating layer fc7
I0226 10:49:30.160264  3630 net.cpp:100] Creating Layer fc7
I0226 10:49:30.160266  3630 net.cpp:434] fc7 <- fc6
I0226 10:49:30.160271  3630 net.cpp:408] fc7 -> fc7
I0226 10:49:30.166704  3630 net.cpp:150] Setting up fc7
I0226 10:49:30.166714  3630 net.cpp:157] Top shape: 1 1024 19 19 (369664)
I0226 10:49:30.166718  3630 net.cpp:165] Memory required for data: 225567776
I0226 10:49:30.166723  3630 layer_factory.hpp:77] Creating layer relu7
I0226 10:49:30.166728  3630 net.cpp:100] Creating Layer relu7
I0226 10:49:30.166730  3630 net.cpp:434] relu7 <- fc7
I0226 10:49:30.166733  3630 net.cpp:395] relu7 -> fc7 (in-place)
I0226 10:49:30.166738  3630 net.cpp:150] Setting up relu7
I0226 10:49:30.166741  3630 net.cpp:157] Top shape: 1 1024 19 19 (369664)
I0226 10:49:30.166743  3630 net.cpp:165] Memory required for data: 227046432
I0226 10:49:30.166744  3630 layer_factory.hpp:77] Creating layer fc7_relu7_0_split
I0226 10:49:30.166749  3630 net.cpp:100] Creating Layer fc7_relu7_0_split
I0226 10:49:30.166750  3630 net.cpp:434] fc7_relu7_0_split <- fc7
I0226 10:49:30.166754  3630 net.cpp:408] fc7_relu7_0_split -> fc7_relu7_0_split_0
I0226 10:49:30.166759  3630 net.cpp:408] fc7_relu7_0_split -> fc7_relu7_0_split_1
I0226 10:49:30.166767  3630 net.cpp:408] fc7_relu7_0_split -> fc7_relu7_0_split_2
I0226 10:49:30.166772  3630 net.cpp:408] fc7_relu7_0_split -> fc7_relu7_0_split_3
I0226 10:49:30.166806  3630 net.cpp:150] Setting up fc7_relu7_0_split
I0226 10:49:30.166810  3630 net.cpp:157] Top shape: 1 1024 19 19 (369664)
I0226 10:49:30.166813  3630 net.cpp:157] Top shape: 1 1024 19 19 (369664)
I0226 10:49:30.166817  3630 net.cpp:157] Top shape: 1 1024 19 19 (369664)
I0226 10:49:30.166821  3630 net.cpp:157] Top shape: 1 1024 19 19 (369664)
I0226 10:49:30.166822  3630 net.cpp:165] Memory required for data: 232961056
I0226 10:49:30.166826  3630 layer_factory.hpp:77] Creating layer conv6_1
I0226 10:49:30.166831  3630 net.cpp:100] Creating Layer conv6_1
I0226 10:49:30.166833  3630 net.cpp:434] conv6_1 <- fc7_relu7_0_split_0
I0226 10:49:30.166837  3630 net.cpp:408] conv6_1 -> conv6_1
I0226 10:49:30.168905  3630 net.cpp:150] Setting up conv6_1
I0226 10:49:30.168922  3630 net.cpp:157] Top shape: 1 256 19 19 (92416)
I0226 10:49:30.168925  3630 net.cpp:165] Memory required for data: 233330720
I0226 10:49:30.168931  3630 layer_factory.hpp:77] Creating layer conv6_1_relu
I0226 10:49:30.168936  3630 net.cpp:100] Creating Layer conv6_1_relu
I0226 10:49:30.168939  3630 net.cpp:434] conv6_1_relu <- conv6_1
I0226 10:49:30.168943  3630 net.cpp:395] conv6_1_relu -> conv6_1 (in-place)
I0226 10:49:30.168951  3630 net.cpp:150] Setting up conv6_1_relu
I0226 10:49:30.168953  3630 net.cpp:157] Top shape: 1 256 19 19 (92416)
I0226 10:49:30.168977  3630 net.cpp:165] Memory required for data: 233700384
I0226 10:49:30.168979  3630 layer_factory.hpp:77] Creating layer conv6_2
I0226 10:49:30.168987  3630 net.cpp:100] Creating Layer conv6_2
I0226 10:49:30.168990  3630 net.cpp:434] conv6_2 <- conv6_1
I0226 10:49:30.168994  3630 net.cpp:408] conv6_2 -> conv6_2
I0226 10:49:30.176424  3630 net.cpp:150] Setting up conv6_2
I0226 10:49:30.176441  3630 net.cpp:157] Top shape: 1 512 10 10 (51200)
I0226 10:49:30.176445  3630 net.cpp:165] Memory required for data: 233905184
I0226 10:49:30.176455  3630 layer_factory.hpp:77] Creating layer conv6_2_relu
I0226 10:49:30.176461  3630 net.cpp:100] Creating Layer conv6_2_relu
I0226 10:49:30.176465  3630 net.cpp:434] conv6_2_relu <- conv6_2
I0226 10:49:30.176470  3630 net.cpp:395] conv6_2_relu -> conv6_2 (in-place)
I0226 10:49:30.176476  3630 net.cpp:150] Setting up conv6_2_relu
I0226 10:49:30.176478  3630 net.cpp:157] Top shape: 1 512 10 10 (51200)
I0226 10:49:30.176481  3630 net.cpp:165] Memory required for data: 234109984
I0226 10:49:30.176482  3630 layer_factory.hpp:77] Creating layer conv6_2_conv6_2_relu_0_split
I0226 10:49:30.176486  3630 net.cpp:100] Creating Layer conv6_2_conv6_2_relu_0_split
I0226 10:49:30.176488  3630 net.cpp:434] conv6_2_conv6_2_relu_0_split <- conv6_2
I0226 10:49:30.176491  3630 net.cpp:408] conv6_2_conv6_2_relu_0_split -> conv6_2_conv6_2_relu_0_split_0
I0226 10:49:30.176496  3630 net.cpp:408] conv6_2_conv6_2_relu_0_split -> conv6_2_conv6_2_relu_0_split_1
I0226 10:49:30.176501  3630 net.cpp:408] conv6_2_conv6_2_relu_0_split -> conv6_2_conv6_2_relu_0_split_2
I0226 10:49:30.176506  3630 net.cpp:408] conv6_2_conv6_2_relu_0_split -> conv6_2_conv6_2_relu_0_split_3
I0226 10:49:30.176544  3630 net.cpp:150] Setting up conv6_2_conv6_2_relu_0_split
I0226 10:49:30.176548  3630 net.cpp:157] Top shape: 1 512 10 10 (51200)
I0226 10:49:30.176551  3630 net.cpp:157] Top shape: 1 512 10 10 (51200)
I0226 10:49:30.176553  3630 net.cpp:157] Top shape: 1 512 10 10 (51200)
I0226 10:49:30.176555  3630 net.cpp:157] Top shape: 1 512 10 10 (51200)
I0226 10:49:30.176558  3630 net.cpp:165] Memory required for data: 234929184
I0226 10:49:30.176559  3630 layer_factory.hpp:77] Creating layer conv7_1
I0226 10:49:30.176566  3630 net.cpp:100] Creating Layer conv7_1
I0226 10:49:30.176568  3630 net.cpp:434] conv7_1 <- conv6_2_conv6_2_relu_0_split_0
I0226 10:49:30.176573  3630 net.cpp:408] conv7_1 -> conv7_1
I0226 10:49:30.177047  3630 net.cpp:150] Setting up conv7_1
I0226 10:49:30.177052  3630 net.cpp:157] Top shape: 1 128 10 10 (12800)
I0226 10:49:30.177053  3630 net.cpp:165] Memory required for data: 234980384
I0226 10:49:30.177058  3630 layer_factory.hpp:77] Creating layer conv7_1_relu
I0226 10:49:30.177062  3630 net.cpp:100] Creating Layer conv7_1_relu
I0226 10:49:30.177063  3630 net.cpp:434] conv7_1_relu <- conv7_1
I0226 10:49:30.177067  3630 net.cpp:395] conv7_1_relu -> conv7_1 (in-place)
I0226 10:49:30.177072  3630 net.cpp:150] Setting up conv7_1_relu
I0226 10:49:30.177074  3630 net.cpp:157] Top shape: 1 128 10 10 (12800)
I0226 10:49:30.177076  3630 net.cpp:165] Memory required for data: 235031584
I0226 10:49:30.177079  3630 layer_factory.hpp:77] Creating layer conv7_2
I0226 10:49:30.177084  3630 net.cpp:100] Creating Layer conv7_2
I0226 10:49:30.177086  3630 net.cpp:434] conv7_2 <- conv7_1
I0226 10:49:30.177090  3630 net.cpp:408] conv7_2 -> conv7_2
I0226 10:49:30.179333  3630 net.cpp:150] Setting up conv7_2
I0226 10:49:30.179342  3630 net.cpp:157] Top shape: 1 256 5 5 (6400)
I0226 10:49:30.179345  3630 net.cpp:165] Memory required for data: 235057184
I0226 10:49:30.179349  3630 layer_factory.hpp:77] Creating layer conv7_2_relu
I0226 10:49:30.179353  3630 net.cpp:100] Creating Layer conv7_2_relu
I0226 10:49:30.179358  3630 net.cpp:434] conv7_2_relu <- conv7_2
I0226 10:49:30.179360  3630 net.cpp:395] conv7_2_relu -> conv7_2 (in-place)
I0226 10:49:30.179365  3630 net.cpp:150] Setting up conv7_2_relu
I0226 10:49:30.179368  3630 net.cpp:157] Top shape: 1 256 5 5 (6400)
I0226 10:49:30.179383  3630 net.cpp:165] Memory required for data: 235082784
I0226 10:49:30.179385  3630 layer_factory.hpp:77] Creating layer conv7_2_conv7_2_relu_0_split
I0226 10:49:30.179389  3630 net.cpp:100] Creating Layer conv7_2_conv7_2_relu_0_split
I0226 10:49:30.179391  3630 net.cpp:434] conv7_2_conv7_2_relu_0_split <- conv7_2
I0226 10:49:30.179395  3630 net.cpp:408] conv7_2_conv7_2_relu_0_split -> conv7_2_conv7_2_relu_0_split_0
I0226 10:49:30.179400  3630 net.cpp:408] conv7_2_conv7_2_relu_0_split -> conv7_2_conv7_2_relu_0_split_1
I0226 10:49:30.179404  3630 net.cpp:408] conv7_2_conv7_2_relu_0_split -> conv7_2_conv7_2_relu_0_split_2
I0226 10:49:30.179409  3630 net.cpp:408] conv7_2_conv7_2_relu_0_split -> conv7_2_conv7_2_relu_0_split_3
I0226 10:49:30.179445  3630 net.cpp:150] Setting up conv7_2_conv7_2_relu_0_split
I0226 10:49:30.179450  3630 net.cpp:157] Top shape: 1 256 5 5 (6400)
I0226 10:49:30.179452  3630 net.cpp:157] Top shape: 1 256 5 5 (6400)
I0226 10:49:30.179455  3630 net.cpp:157] Top shape: 1 256 5 5 (6400)
I0226 10:49:30.179460  3630 net.cpp:157] Top shape: 1 256 5 5 (6400)
I0226 10:49:30.179461  3630 net.cpp:165] Memory required for data: 235185184
I0226 10:49:30.179463  3630 layer_factory.hpp:77] Creating layer conv8_1
I0226 10:49:30.179468  3630 net.cpp:100] Creating Layer conv8_1
I0226 10:49:30.179472  3630 net.cpp:434] conv8_1 <- conv7_2_conv7_2_relu_0_split_0
I0226 10:49:30.179476  3630 net.cpp:408] conv8_1 -> conv8_1
I0226 10:49:30.179790  3630 net.cpp:150] Setting up conv8_1
I0226 10:49:30.179795  3630 net.cpp:157] Top shape: 1 128 5 5 (3200)
I0226 10:49:30.179797  3630 net.cpp:165] Memory required for data: 235197984
I0226 10:49:30.179801  3630 layer_factory.hpp:77] Creating layer conv8_1_relu
I0226 10:49:30.179805  3630 net.cpp:100] Creating Layer conv8_1_relu
I0226 10:49:30.179807  3630 net.cpp:434] conv8_1_relu <- conv8_1
I0226 10:49:30.179812  3630 net.cpp:395] conv8_1_relu -> conv8_1 (in-place)
I0226 10:49:30.179816  3630 net.cpp:150] Setting up conv8_1_relu
I0226 10:49:30.179819  3630 net.cpp:157] Top shape: 1 128 5 5 (3200)
I0226 10:49:30.179821  3630 net.cpp:165] Memory required for data: 235210784
I0226 10:49:30.179824  3630 layer_factory.hpp:77] Creating layer conv8_2
I0226 10:49:30.179831  3630 net.cpp:100] Creating Layer conv8_2
I0226 10:49:30.179832  3630 net.cpp:434] conv8_2 <- conv8_1
I0226 10:49:30.179836  3630 net.cpp:408] conv8_2 -> conv8_2
I0226 10:49:30.182019  3630 net.cpp:150] Setting up conv8_2
I0226 10:49:30.182027  3630 net.cpp:157] Top shape: 1 256 3 3 (2304)
I0226 10:49:30.182029  3630 net.cpp:165] Memory required for data: 235220000
I0226 10:49:30.182034  3630 layer_factory.hpp:77] Creating layer conv8_2_relu
I0226 10:49:30.182039  3630 net.cpp:100] Creating Layer conv8_2_relu
I0226 10:49:30.182041  3630 net.cpp:434] conv8_2_relu <- conv8_2
I0226 10:49:30.182045  3630 net.cpp:395] conv8_2_relu -> conv8_2 (in-place)
I0226 10:49:30.182050  3630 net.cpp:150] Setting up conv8_2_relu
I0226 10:49:30.182054  3630 net.cpp:157] Top shape: 1 256 3 3 (2304)
I0226 10:49:30.182056  3630 net.cpp:165] Memory required for data: 235229216
I0226 10:49:30.182059  3630 layer_factory.hpp:77] Creating layer conv8_2_conv8_2_relu_0_split
I0226 10:49:30.182062  3630 net.cpp:100] Creating Layer conv8_2_conv8_2_relu_0_split
I0226 10:49:30.182065  3630 net.cpp:434] conv8_2_conv8_2_relu_0_split <- conv8_2
I0226 10:49:30.182070  3630 net.cpp:408] conv8_2_conv8_2_relu_0_split -> conv8_2_conv8_2_relu_0_split_0
I0226 10:49:30.182075  3630 net.cpp:408] conv8_2_conv8_2_relu_0_split -> conv8_2_conv8_2_relu_0_split_1
I0226 10:49:30.182080  3630 net.cpp:408] conv8_2_conv8_2_relu_0_split -> conv8_2_conv8_2_relu_0_split_2
I0226 10:49:30.182085  3630 net.cpp:408] conv8_2_conv8_2_relu_0_split -> conv8_2_conv8_2_relu_0_split_3
I0226 10:49:30.182123  3630 net.cpp:150] Setting up conv8_2_conv8_2_relu_0_split
I0226 10:49:30.182127  3630 net.cpp:157] Top shape: 1 256 3 3 (2304)
I0226 10:49:30.182130  3630 net.cpp:157] Top shape: 1 256 3 3 (2304)
I0226 10:49:30.182133  3630 net.cpp:157] Top shape: 1 256 3 3 (2304)
I0226 10:49:30.182145  3630 net.cpp:157] Top shape: 1 256 3 3 (2304)
I0226 10:49:30.182147  3630 net.cpp:165] Memory required for data: 235266080
I0226 10:49:30.182149  3630 layer_factory.hpp:77] Creating layer conv9_1
I0226 10:49:30.182155  3630 net.cpp:100] Creating Layer conv9_1
I0226 10:49:30.182158  3630 net.cpp:434] conv9_1 <- conv8_2_conv8_2_relu_0_split_0
I0226 10:49:30.182163  3630 net.cpp:408] conv9_1 -> conv9_1
I0226 10:49:30.182466  3630 net.cpp:150] Setting up conv9_1
I0226 10:49:30.182471  3630 net.cpp:157] Top shape: 1 128 3 3 (1152)
I0226 10:49:30.182473  3630 net.cpp:165] Memory required for data: 235270688
I0226 10:49:30.182477  3630 layer_factory.hpp:77] Creating layer conv9_1_relu
I0226 10:49:30.182482  3630 net.cpp:100] Creating Layer conv9_1_relu
I0226 10:49:30.182484  3630 net.cpp:434] conv9_1_relu <- conv9_1
I0226 10:49:30.182487  3630 net.cpp:395] conv9_1_relu -> conv9_1 (in-place)
I0226 10:49:30.182492  3630 net.cpp:150] Setting up conv9_1_relu
I0226 10:49:30.182494  3630 net.cpp:157] Top shape: 1 128 3 3 (1152)
I0226 10:49:30.182497  3630 net.cpp:165] Memory required for data: 235275296
I0226 10:49:30.182499  3630 layer_factory.hpp:77] Creating layer conv9_2
I0226 10:49:30.182504  3630 net.cpp:100] Creating Layer conv9_2
I0226 10:49:30.182507  3630 net.cpp:434] conv9_2 <- conv9_1
I0226 10:49:30.182512  3630 net.cpp:408] conv9_2 -> conv9_2
I0226 10:49:30.184680  3630 net.cpp:150] Setting up conv9_2
I0226 10:49:30.184689  3630 net.cpp:157] Top shape: 1 256 1 1 (256)
I0226 10:49:30.184690  3630 net.cpp:165] Memory required for data: 235276320
I0226 10:49:30.184695  3630 layer_factory.hpp:77] Creating layer conv9_2_relu
I0226 10:49:30.184700  3630 net.cpp:100] Creating Layer conv9_2_relu
I0226 10:49:30.184703  3630 net.cpp:434] conv9_2_relu <- conv9_2
I0226 10:49:30.184706  3630 net.cpp:395] conv9_2_relu -> conv9_2 (in-place)
I0226 10:49:30.184711  3630 net.cpp:150] Setting up conv9_2_relu
I0226 10:49:30.184715  3630 net.cpp:157] Top shape: 1 256 1 1 (256)
I0226 10:49:30.184716  3630 net.cpp:165] Memory required for data: 235277344
I0226 10:49:30.184718  3630 layer_factory.hpp:77] Creating layer conv9_2_conv9_2_relu_0_split
I0226 10:49:30.184722  3630 net.cpp:100] Creating Layer conv9_2_conv9_2_relu_0_split
I0226 10:49:30.184725  3630 net.cpp:434] conv9_2_conv9_2_relu_0_split <- conv9_2
I0226 10:49:30.184728  3630 net.cpp:408] conv9_2_conv9_2_relu_0_split -> conv9_2_conv9_2_relu_0_split_0
I0226 10:49:30.184733  3630 net.cpp:408] conv9_2_conv9_2_relu_0_split -> conv9_2_conv9_2_relu_0_split_1
I0226 10:49:30.184739  3630 net.cpp:408] conv9_2_conv9_2_relu_0_split -> conv9_2_conv9_2_relu_0_split_2
I0226 10:49:30.184770  3630 net.cpp:150] Setting up conv9_2_conv9_2_relu_0_split
I0226 10:49:30.184774  3630 net.cpp:157] Top shape: 1 256 1 1 (256)
I0226 10:49:30.184777  3630 net.cpp:157] Top shape: 1 256 1 1 (256)
I0226 10:49:30.184779  3630 net.cpp:157] Top shape: 1 256 1 1 (256)
I0226 10:49:30.184782  3630 net.cpp:165] Memory required for data: 235280416
I0226 10:49:30.184783  3630 layer_factory.hpp:77] Creating layer conv4_3_norm
I0226 10:49:30.184788  3630 net.cpp:100] Creating Layer conv4_3_norm
I0226 10:49:30.184792  3630 net.cpp:434] conv4_3_norm <- conv4_3_relu4_3_0_split_1
I0226 10:49:30.184795  3630 net.cpp:408] conv4_3_norm -> conv4_3_norm
I0226 10:49:30.184893  3630 net.cpp:150] Setting up conv4_3_norm
I0226 10:49:30.184897  3630 net.cpp:157] Top shape: 1 512 38 38 (739328)
I0226 10:49:30.184900  3630 net.cpp:165] Memory required for data: 238237728
I0226 10:49:30.184903  3630 layer_factory.hpp:77] Creating layer conv4_3_norm_conv4_3_norm_0_split
I0226 10:49:30.184908  3630 net.cpp:100] Creating Layer conv4_3_norm_conv4_3_norm_0_split
I0226 10:49:30.184911  3630 net.cpp:434] conv4_3_norm_conv4_3_norm_0_split <- conv4_3_norm
I0226 10:49:30.184914  3630 net.cpp:408] conv4_3_norm_conv4_3_norm_0_split -> conv4_3_norm_conv4_3_norm_0_split_0
I0226 10:49:30.184919  3630 net.cpp:408] conv4_3_norm_conv4_3_norm_0_split -> conv4_3_norm_conv4_3_norm_0_split_1
I0226 10:49:30.184923  3630 net.cpp:408] conv4_3_norm_conv4_3_norm_0_split -> conv4_3_norm_conv4_3_norm_0_split_2
I0226 10:49:30.184960  3630 net.cpp:150] Setting up conv4_3_norm_conv4_3_norm_0_split
I0226 10:49:30.184965  3630 net.cpp:157] Top shape: 1 512 38 38 (739328)
I0226 10:49:30.184967  3630 net.cpp:157] Top shape: 1 512 38 38 (739328)
I0226 10:49:30.184970  3630 net.cpp:157] Top shape: 1 512 38 38 (739328)
I0226 10:49:30.184973  3630 net.cpp:165] Memory required for data: 247109664
I0226 10:49:30.184975  3630 layer_factory.hpp:77] Creating layer conv4_3_norm_mbox_loc
I0226 10:49:30.184981  3630 net.cpp:100] Creating Layer conv4_3_norm_mbox_loc
I0226 10:49:30.184983  3630 net.cpp:434] conv4_3_norm_mbox_loc <- conv4_3_norm_conv4_3_norm_0_split_0
I0226 10:49:30.184988  3630 net.cpp:408] conv4_3_norm_mbox_loc -> conv4_3_norm_mbox_loc
I0226 10:49:30.185510  3630 net.cpp:150] Setting up conv4_3_norm_mbox_loc
I0226 10:49:30.185515  3630 net.cpp:157] Top shape: 1 16 38 38 (23104)
I0226 10:49:30.185518  3630 net.cpp:165] Memory required for data: 247202080
I0226 10:49:30.185523  3630 layer_factory.hpp:77] Creating layer conv4_3_norm_mbox_loc_perm
I0226 10:49:30.185529  3630 net.cpp:100] Creating Layer conv4_3_norm_mbox_loc_perm
I0226 10:49:30.185533  3630 net.cpp:434] conv4_3_norm_mbox_loc_perm <- conv4_3_norm_mbox_loc
I0226 10:49:30.185535  3630 net.cpp:408] conv4_3_norm_mbox_loc_perm -> conv4_3_norm_mbox_loc_perm
I0226 10:49:30.185597  3630 net.cpp:150] Setting up conv4_3_norm_mbox_loc_perm
I0226 10:49:30.185602  3630 net.cpp:157] Top shape: 1 38 38 16 (23104)
I0226 10:49:30.185605  3630 net.cpp:165] Memory required for data: 247294496
I0226 10:49:30.185606  3630 layer_factory.hpp:77] Creating layer conv4_3_norm_mbox_loc_flat
I0226 10:49:30.185611  3630 net.cpp:100] Creating Layer conv4_3_norm_mbox_loc_flat
I0226 10:49:30.185613  3630 net.cpp:434] conv4_3_norm_mbox_loc_flat <- conv4_3_norm_mbox_loc_perm
I0226 10:49:30.185618  3630 net.cpp:408] conv4_3_norm_mbox_loc_flat -> conv4_3_norm_mbox_loc_flat
I0226 10:49:30.185642  3630 net.cpp:150] Setting up conv4_3_norm_mbox_loc_flat
I0226 10:49:30.185647  3630 net.cpp:157] Top shape: 1 23104 (23104)
I0226 10:49:30.185650  3630 net.cpp:165] Memory required for data: 247386912
I0226 10:49:30.185652  3630 layer_factory.hpp:77] Creating layer conv4_3_norm_mbox_conf
I0226 10:49:30.185662  3630 net.cpp:100] Creating Layer conv4_3_norm_mbox_conf
I0226 10:49:30.185665  3630 net.cpp:434] conv4_3_norm_mbox_conf <- conv4_3_norm_conv4_3_norm_0_split_1
I0226 10:49:30.185670  3630 net.cpp:408] conv4_3_norm_mbox_conf -> conv4_3_norm_mbox_conf
I0226 10:49:30.188299  3630 net.cpp:150] Setting up conv4_3_norm_mbox_conf
I0226 10:49:30.188308  3630 net.cpp:157] Top shape: 1 84 38 38 (121296)
I0226 10:49:30.188309  3630 net.cpp:165] Memory required for data: 247872096
I0226 10:49:30.188314  3630 layer_factory.hpp:77] Creating layer conv4_3_norm_mbox_conf_perm
I0226 10:49:30.188319  3630 net.cpp:100] Creating Layer conv4_3_norm_mbox_conf_perm
I0226 10:49:30.188323  3630 net.cpp:434] conv4_3_norm_mbox_conf_perm <- conv4_3_norm_mbox_conf
I0226 10:49:30.188328  3630 net.cpp:408] conv4_3_norm_mbox_conf_perm -> conv4_3_norm_mbox_conf_perm
I0226 10:49:30.188390  3630 net.cpp:150] Setting up conv4_3_norm_mbox_conf_perm
I0226 10:49:30.188395  3630 net.cpp:157] Top shape: 1 38 38 84 (121296)
I0226 10:49:30.188397  3630 net.cpp:165] Memory required for data: 248357280
I0226 10:49:30.188400  3630 layer_factory.hpp:77] Creating layer conv4_3_norm_mbox_conf_flat
I0226 10:49:30.188402  3630 net.cpp:100] Creating Layer conv4_3_norm_mbox_conf_flat
I0226 10:49:30.188405  3630 net.cpp:434] conv4_3_norm_mbox_conf_flat <- conv4_3_norm_mbox_conf_perm
I0226 10:49:30.188410  3630 net.cpp:408] conv4_3_norm_mbox_conf_flat -> conv4_3_norm_mbox_conf_flat
I0226 10:49:30.188423  3630 net.cpp:150] Setting up conv4_3_norm_mbox_conf_flat
I0226 10:49:30.188428  3630 net.cpp:157] Top shape: 1 121296 (121296)
I0226 10:49:30.188431  3630 net.cpp:165] Memory required for data: 248842464
I0226 10:49:30.188433  3630 layer_factory.hpp:77] Creating layer conv4_3_norm_mbox_priorbox
I0226 10:49:30.188446  3630 net.cpp:100] Creating Layer conv4_3_norm_mbox_priorbox
I0226 10:49:30.188449  3630 net.cpp:434] conv4_3_norm_mbox_priorbox <- conv4_3_norm_conv4_3_norm_0_split_2
I0226 10:49:30.188453  3630 net.cpp:434] conv4_3_norm_mbox_priorbox <- data_data_0_split_1
I0226 10:49:30.188457  3630 net.cpp:408] conv4_3_norm_mbox_priorbox -> conv4_3_norm_mbox_priorbox
I0226 10:49:30.188477  3630 net.cpp:150] Setting up conv4_3_norm_mbox_priorbox
I0226 10:49:30.188482  3630 net.cpp:157] Top shape: 1 2 23104 (46208)
I0226 10:49:30.188483  3630 net.cpp:165] Memory required for data: 249027296
I0226 10:49:30.188485  3630 layer_factory.hpp:77] Creating layer fc7_mbox_loc
I0226 10:49:30.188491  3630 net.cpp:100] Creating Layer fc7_mbox_loc
I0226 10:49:30.188495  3630 net.cpp:434] fc7_mbox_loc <- fc7_relu7_0_split_1
I0226 10:49:30.188499  3630 net.cpp:408] fc7_mbox_loc -> fc7_mbox_loc
I0226 10:49:30.189784  3630 net.cpp:150] Setting up fc7_mbox_loc
I0226 10:49:30.189790  3630 net.cpp:157] Top shape: 1 24 19 19 (8664)
I0226 10:49:30.189791  3630 net.cpp:165] Memory required for data: 249061952
I0226 10:49:30.189795  3630 layer_factory.hpp:77] Creating layer fc7_mbox_loc_perm
I0226 10:49:30.189800  3630 net.cpp:100] Creating Layer fc7_mbox_loc_perm
I0226 10:49:30.189802  3630 net.cpp:434] fc7_mbox_loc_perm <- fc7_mbox_loc
I0226 10:49:30.189807  3630 net.cpp:408] fc7_mbox_loc_perm -> fc7_mbox_loc_perm
I0226 10:49:30.189868  3630 net.cpp:150] Setting up fc7_mbox_loc_perm
I0226 10:49:30.189873  3630 net.cpp:157] Top shape: 1 19 19 24 (8664)
I0226 10:49:30.189877  3630 net.cpp:165] Memory required for data: 249096608
I0226 10:49:30.189878  3630 layer_factory.hpp:77] Creating layer fc7_mbox_loc_flat
I0226 10:49:30.189882  3630 net.cpp:100] Creating Layer fc7_mbox_loc_flat
I0226 10:49:30.189883  3630 net.cpp:434] fc7_mbox_loc_flat <- fc7_mbox_loc_perm
I0226 10:49:30.189888  3630 net.cpp:408] fc7_mbox_loc_flat -> fc7_mbox_loc_flat
I0226 10:49:30.189903  3630 net.cpp:150] Setting up fc7_mbox_loc_flat
I0226 10:49:30.189906  3630 net.cpp:157] Top shape: 1 8664 (8664)
I0226 10:49:30.189908  3630 net.cpp:165] Memory required for data: 249131264
I0226 10:49:30.189909  3630 layer_factory.hpp:77] Creating layer fc7_mbox_conf
I0226 10:49:30.189916  3630 net.cpp:100] Creating Layer fc7_mbox_conf
I0226 10:49:30.189919  3630 net.cpp:434] fc7_mbox_conf <- fc7_relu7_0_split_2
I0226 10:49:30.189924  3630 net.cpp:408] fc7_mbox_conf -> fc7_mbox_conf
I0226 10:49:30.196970  3630 net.cpp:150] Setting up fc7_mbox_conf
I0226 10:49:30.196983  3630 net.cpp:157] Top shape: 1 126 19 19 (45486)
I0226 10:49:30.196985  3630 net.cpp:165] Memory required for data: 249313208
I0226 10:49:30.196991  3630 layer_factory.hpp:77] Creating layer fc7_mbox_conf_perm
I0226 10:49:30.196998  3630 net.cpp:100] Creating Layer fc7_mbox_conf_perm
I0226 10:49:30.197002  3630 net.cpp:434] fc7_mbox_conf_perm <- fc7_mbox_conf
I0226 10:49:30.197006  3630 net.cpp:408] fc7_mbox_conf_perm -> fc7_mbox_conf_perm
I0226 10:49:30.197070  3630 net.cpp:150] Setting up fc7_mbox_conf_perm
I0226 10:49:30.197074  3630 net.cpp:157] Top shape: 1 19 19 126 (45486)
I0226 10:49:30.197077  3630 net.cpp:165] Memory required for data: 249495152
I0226 10:49:30.197079  3630 layer_factory.hpp:77] Creating layer fc7_mbox_conf_flat
I0226 10:49:30.197083  3630 net.cpp:100] Creating Layer fc7_mbox_conf_flat
I0226 10:49:30.197085  3630 net.cpp:434] fc7_mbox_conf_flat <- fc7_mbox_conf_perm
I0226 10:49:30.197090  3630 net.cpp:408] fc7_mbox_conf_flat -> fc7_mbox_conf_flat
I0226 10:49:30.197106  3630 net.cpp:150] Setting up fc7_mbox_conf_flat
I0226 10:49:30.197109  3630 net.cpp:157] Top shape: 1 45486 (45486)
I0226 10:49:30.197111  3630 net.cpp:165] Memory required for data: 249677096
I0226 10:49:30.197114  3630 layer_factory.hpp:77] Creating layer fc7_mbox_priorbox
I0226 10:49:30.197118  3630 net.cpp:100] Creating Layer fc7_mbox_priorbox
I0226 10:49:30.197121  3630 net.cpp:434] fc7_mbox_priorbox <- fc7_relu7_0_split_3
I0226 10:49:30.197124  3630 net.cpp:434] fc7_mbox_priorbox <- data_data_0_split_2
I0226 10:49:30.197130  3630 net.cpp:408] fc7_mbox_priorbox -> fc7_mbox_priorbox
I0226 10:49:30.197158  3630 net.cpp:150] Setting up fc7_mbox_priorbox
I0226 10:49:30.197162  3630 net.cpp:157] Top shape: 1 2 8664 (17328)
I0226 10:49:30.197165  3630 net.cpp:165] Memory required for data: 249746408
I0226 10:49:30.197167  3630 layer_factory.hpp:77] Creating layer conv6_2_mbox_loc
I0226 10:49:30.197175  3630 net.cpp:100] Creating Layer conv6_2_mbox_loc
I0226 10:49:30.197178  3630 net.cpp:434] conv6_2_mbox_loc <- conv6_2_conv6_2_relu_0_split_1
I0226 10:49:30.197186  3630 net.cpp:408] conv6_2_mbox_loc -> conv6_2_mbox_loc
I0226 10:49:30.197908  3630 net.cpp:150] Setting up conv6_2_mbox_loc
I0226 10:49:30.197914  3630 net.cpp:157] Top shape: 1 24 10 10 (2400)
I0226 10:49:30.197916  3630 net.cpp:165] Memory required for data: 249756008
I0226 10:49:30.197919  3630 layer_factory.hpp:77] Creating layer conv6_2_mbox_loc_perm
I0226 10:49:30.197924  3630 net.cpp:100] Creating Layer conv6_2_mbox_loc_perm
I0226 10:49:30.197927  3630 net.cpp:434] conv6_2_mbox_loc_perm <- conv6_2_mbox_loc
I0226 10:49:30.197932  3630 net.cpp:408] conv6_2_mbox_loc_perm -> conv6_2_mbox_loc_perm
I0226 10:49:30.197993  3630 net.cpp:150] Setting up conv6_2_mbox_loc_perm
I0226 10:49:30.197999  3630 net.cpp:157] Top shape: 1 10 10 24 (2400)
I0226 10:49:30.198000  3630 net.cpp:165] Memory required for data: 249765608
I0226 10:49:30.198002  3630 layer_factory.hpp:77] Creating layer conv6_2_mbox_loc_flat
I0226 10:49:30.198006  3630 net.cpp:100] Creating Layer conv6_2_mbox_loc_flat
I0226 10:49:30.198009  3630 net.cpp:434] conv6_2_mbox_loc_flat <- conv6_2_mbox_loc_perm
I0226 10:49:30.198012  3630 net.cpp:408] conv6_2_mbox_loc_flat -> conv6_2_mbox_loc_flat
I0226 10:49:30.198026  3630 net.cpp:150] Setting up conv6_2_mbox_loc_flat
I0226 10:49:30.198030  3630 net.cpp:157] Top shape: 1 2400 (2400)
I0226 10:49:30.198032  3630 net.cpp:165] Memory required for data: 249775208
I0226 10:49:30.198035  3630 layer_factory.hpp:77] Creating layer conv6_2_mbox_conf
I0226 10:49:30.198040  3630 net.cpp:100] Creating Layer conv6_2_mbox_conf
I0226 10:49:30.198043  3630 net.cpp:434] conv6_2_mbox_conf <- conv6_2_conv6_2_relu_0_split_2
I0226 10:49:30.198048  3630 net.cpp:408] conv6_2_mbox_conf -> conv6_2_mbox_conf
I0226 10:49:30.201792  3630 net.cpp:150] Setting up conv6_2_mbox_conf
I0226 10:49:30.201805  3630 net.cpp:157] Top shape: 1 126 10 10 (12600)
I0226 10:49:30.201807  3630 net.cpp:165] Memory required for data: 249825608
I0226 10:49:30.201815  3630 layer_factory.hpp:77] Creating layer conv6_2_mbox_conf_perm
I0226 10:49:30.201822  3630 net.cpp:100] Creating Layer conv6_2_mbox_conf_perm
I0226 10:49:30.201825  3630 net.cpp:434] conv6_2_mbox_conf_perm <- conv6_2_mbox_conf
I0226 10:49:30.201830  3630 net.cpp:408] conv6_2_mbox_conf_perm -> conv6_2_mbox_conf_perm
I0226 10:49:30.201900  3630 net.cpp:150] Setting up conv6_2_mbox_conf_perm
I0226 10:49:30.201905  3630 net.cpp:157] Top shape: 1 10 10 126 (12600)
I0226 10:49:30.201906  3630 net.cpp:165] Memory required for data: 249876008
I0226 10:49:30.201908  3630 layer_factory.hpp:77] Creating layer conv6_2_mbox_conf_flat
I0226 10:49:30.201912  3630 net.cpp:100] Creating Layer conv6_2_mbox_conf_flat
I0226 10:49:30.201915  3630 net.cpp:434] conv6_2_mbox_conf_flat <- conv6_2_mbox_conf_perm
I0226 10:49:30.201920  3630 net.cpp:408] conv6_2_mbox_conf_flat -> conv6_2_mbox_conf_flat
I0226 10:49:30.201934  3630 net.cpp:150] Setting up conv6_2_mbox_conf_flat
I0226 10:49:30.201938  3630 net.cpp:157] Top shape: 1 12600 (12600)
I0226 10:49:30.201941  3630 net.cpp:165] Memory required for data: 249926408
I0226 10:49:30.201941  3630 layer_factory.hpp:77] Creating layer conv6_2_mbox_priorbox
I0226 10:49:30.201946  3630 net.cpp:100] Creating Layer conv6_2_mbox_priorbox
I0226 10:49:30.201951  3630 net.cpp:434] conv6_2_mbox_priorbox <- conv6_2_conv6_2_relu_0_split_3
I0226 10:49:30.201953  3630 net.cpp:434] conv6_2_mbox_priorbox <- data_data_0_split_3
I0226 10:49:30.201958  3630 net.cpp:408] conv6_2_mbox_priorbox -> conv6_2_mbox_priorbox
I0226 10:49:30.201975  3630 net.cpp:150] Setting up conv6_2_mbox_priorbox
I0226 10:49:30.201988  3630 net.cpp:157] Top shape: 1 2 2400 (4800)
I0226 10:49:30.201990  3630 net.cpp:165] Memory required for data: 249945608
I0226 10:49:30.201992  3630 layer_factory.hpp:77] Creating layer conv7_2_mbox_loc
I0226 10:49:30.201999  3630 net.cpp:100] Creating Layer conv7_2_mbox_loc
I0226 10:49:30.202003  3630 net.cpp:434] conv7_2_mbox_loc <- conv7_2_conv7_2_relu_0_split_1
I0226 10:49:30.202008  3630 net.cpp:408] conv7_2_mbox_loc -> conv7_2_mbox_loc
I0226 10:49:30.202445  3630 net.cpp:150] Setting up conv7_2_mbox_loc
I0226 10:49:30.202450  3630 net.cpp:157] Top shape: 1 24 5 5 (600)
I0226 10:49:30.202452  3630 net.cpp:165] Memory required for data: 249948008
I0226 10:49:30.202456  3630 layer_factory.hpp:77] Creating layer conv7_2_mbox_loc_perm
I0226 10:49:30.202461  3630 net.cpp:100] Creating Layer conv7_2_mbox_loc_perm
I0226 10:49:30.202464  3630 net.cpp:434] conv7_2_mbox_loc_perm <- conv7_2_mbox_loc
I0226 10:49:30.202467  3630 net.cpp:408] conv7_2_mbox_loc_perm -> conv7_2_mbox_loc_perm
I0226 10:49:30.202528  3630 net.cpp:150] Setting up conv7_2_mbox_loc_perm
I0226 10:49:30.202533  3630 net.cpp:157] Top shape: 1 5 5 24 (600)
I0226 10:49:30.202534  3630 net.cpp:165] Memory required for data: 249950408
I0226 10:49:30.202536  3630 layer_factory.hpp:77] Creating layer conv7_2_mbox_loc_flat
I0226 10:49:30.202540  3630 net.cpp:100] Creating Layer conv7_2_mbox_loc_flat
I0226 10:49:30.202543  3630 net.cpp:434] conv7_2_mbox_loc_flat <- conv7_2_mbox_loc_perm
I0226 10:49:30.202546  3630 net.cpp:408] conv7_2_mbox_loc_flat -> conv7_2_mbox_loc_flat
I0226 10:49:30.202561  3630 net.cpp:150] Setting up conv7_2_mbox_loc_flat
I0226 10:49:30.202565  3630 net.cpp:157] Top shape: 1 600 (600)
I0226 10:49:30.202567  3630 net.cpp:165] Memory required for data: 249952808
I0226 10:49:30.202569  3630 layer_factory.hpp:77] Creating layer conv7_2_mbox_conf
I0226 10:49:30.202575  3630 net.cpp:100] Creating Layer conv7_2_mbox_conf
I0226 10:49:30.202579  3630 net.cpp:434] conv7_2_mbox_conf <- conv7_2_conv7_2_relu_0_split_2
I0226 10:49:30.202582  3630 net.cpp:408] conv7_2_mbox_conf -> conv7_2_mbox_conf
I0226 10:49:30.205059  3630 net.cpp:150] Setting up conv7_2_mbox_conf
I0226 10:49:30.205070  3630 net.cpp:157] Top shape: 1 126 5 5 (3150)
I0226 10:49:30.205071  3630 net.cpp:165] Memory required for data: 249965408
I0226 10:49:30.205075  3630 layer_factory.hpp:77] Creating layer conv7_2_mbox_conf_perm
I0226 10:49:30.205081  3630 net.cpp:100] Creating Layer conv7_2_mbox_conf_perm
I0226 10:49:30.205085  3630 net.cpp:434] conv7_2_mbox_conf_perm <- conv7_2_mbox_conf
I0226 10:49:30.205090  3630 net.cpp:408] conv7_2_mbox_conf_perm -> conv7_2_mbox_conf_perm
I0226 10:49:30.205155  3630 net.cpp:150] Setting up conv7_2_mbox_conf_perm
I0226 10:49:30.205159  3630 net.cpp:157] Top shape: 1 5 5 126 (3150)
I0226 10:49:30.205163  3630 net.cpp:165] Memory required for data: 249978008
I0226 10:49:30.205165  3630 layer_factory.hpp:77] Creating layer conv7_2_mbox_conf_flat
I0226 10:49:30.205168  3630 net.cpp:100] Creating Layer conv7_2_mbox_conf_flat
I0226 10:49:30.205171  3630 net.cpp:434] conv7_2_mbox_conf_flat <- conv7_2_mbox_conf_perm
I0226 10:49:30.205176  3630 net.cpp:408] conv7_2_mbox_conf_flat -> conv7_2_mbox_conf_flat
I0226 10:49:30.205191  3630 net.cpp:150] Setting up conv7_2_mbox_conf_flat
I0226 10:49:30.205194  3630 net.cpp:157] Top shape: 1 3150 (3150)
I0226 10:49:30.205196  3630 net.cpp:165] Memory required for data: 249990608
I0226 10:49:30.205199  3630 layer_factory.hpp:77] Creating layer conv7_2_mbox_priorbox
I0226 10:49:30.205204  3630 net.cpp:100] Creating Layer conv7_2_mbox_priorbox
I0226 10:49:30.205205  3630 net.cpp:434] conv7_2_mbox_priorbox <- conv7_2_conv7_2_relu_0_split_3
I0226 10:49:30.205209  3630 net.cpp:434] conv7_2_mbox_priorbox <- data_data_0_split_4
I0226 10:49:30.205214  3630 net.cpp:408] conv7_2_mbox_priorbox -> conv7_2_mbox_priorbox
I0226 10:49:30.205229  3630 net.cpp:150] Setting up conv7_2_mbox_priorbox
I0226 10:49:30.205234  3630 net.cpp:157] Top shape: 1 2 600 (1200)
I0226 10:49:30.205235  3630 net.cpp:165] Memory required for data: 249995408
I0226 10:49:30.205246  3630 layer_factory.hpp:77] Creating layer conv8_2_mbox_loc
I0226 10:49:30.205252  3630 net.cpp:100] Creating Layer conv8_2_mbox_loc
I0226 10:49:30.205255  3630 net.cpp:434] conv8_2_mbox_loc <- conv8_2_conv8_2_relu_0_split_1
I0226 10:49:30.205260  3630 net.cpp:408] conv8_2_mbox_loc -> conv8_2_mbox_loc
I0226 10:49:30.205600  3630 net.cpp:150] Setting up conv8_2_mbox_loc
I0226 10:49:30.205605  3630 net.cpp:157] Top shape: 1 16 3 3 (144)
I0226 10:49:30.205607  3630 net.cpp:165] Memory required for data: 249995984
I0226 10:49:30.205618  3630 layer_factory.hpp:77] Creating layer conv8_2_mbox_loc_perm
I0226 10:49:30.205624  3630 net.cpp:100] Creating Layer conv8_2_mbox_loc_perm
I0226 10:49:30.205628  3630 net.cpp:434] conv8_2_mbox_loc_perm <- conv8_2_mbox_loc
I0226 10:49:30.205631  3630 net.cpp:408] conv8_2_mbox_loc_perm -> conv8_2_mbox_loc_perm
I0226 10:49:30.205694  3630 net.cpp:150] Setting up conv8_2_mbox_loc_perm
I0226 10:49:30.205699  3630 net.cpp:157] Top shape: 1 3 3 16 (144)
I0226 10:49:30.205701  3630 net.cpp:165] Memory required for data: 249996560
I0226 10:49:30.205704  3630 layer_factory.hpp:77] Creating layer conv8_2_mbox_loc_flat
I0226 10:49:30.205708  3630 net.cpp:100] Creating Layer conv8_2_mbox_loc_flat
I0226 10:49:30.205711  3630 net.cpp:434] conv8_2_mbox_loc_flat <- conv8_2_mbox_loc_perm
I0226 10:49:30.205715  3630 net.cpp:408] conv8_2_mbox_loc_flat -> conv8_2_mbox_loc_flat
I0226 10:49:30.205729  3630 net.cpp:150] Setting up conv8_2_mbox_loc_flat
I0226 10:49:30.205734  3630 net.cpp:157] Top shape: 1 144 (144)
I0226 10:49:30.205735  3630 net.cpp:165] Memory required for data: 249997136
I0226 10:49:30.205737  3630 layer_factory.hpp:77] Creating layer conv8_2_mbox_conf
I0226 10:49:30.205746  3630 net.cpp:100] Creating Layer conv8_2_mbox_conf
I0226 10:49:30.205749  3630 net.cpp:434] conv8_2_mbox_conf <- conv8_2_conv8_2_relu_0_split_2
I0226 10:49:30.205754  3630 net.cpp:408] conv8_2_mbox_conf -> conv8_2_mbox_conf
I0226 10:49:30.206867  3630 net.cpp:150] Setting up conv8_2_mbox_conf
I0226 10:49:30.206872  3630 net.cpp:157] Top shape: 1 84 3 3 (756)
I0226 10:49:30.206874  3630 net.cpp:165] Memory required for data: 250000160
I0226 10:49:30.206878  3630 layer_factory.hpp:77] Creating layer conv8_2_mbox_conf_perm
I0226 10:49:30.206883  3630 net.cpp:100] Creating Layer conv8_2_mbox_conf_perm
I0226 10:49:30.206887  3630 net.cpp:434] conv8_2_mbox_conf_perm <- conv8_2_mbox_conf
I0226 10:49:30.206889  3630 net.cpp:408] conv8_2_mbox_conf_perm -> conv8_2_mbox_conf_perm
I0226 10:49:30.206951  3630 net.cpp:150] Setting up conv8_2_mbox_conf_perm
I0226 10:49:30.206956  3630 net.cpp:157] Top shape: 1 3 3 84 (756)
I0226 10:49:30.206959  3630 net.cpp:165] Memory required for data: 250003184
I0226 10:49:30.206960  3630 layer_factory.hpp:77] Creating layer conv8_2_mbox_conf_flat
I0226 10:49:30.206964  3630 net.cpp:100] Creating Layer conv8_2_mbox_conf_flat
I0226 10:49:30.206966  3630 net.cpp:434] conv8_2_mbox_conf_flat <- conv8_2_mbox_conf_perm
I0226 10:49:30.206970  3630 net.cpp:408] conv8_2_mbox_conf_flat -> conv8_2_mbox_conf_flat
I0226 10:49:30.206985  3630 net.cpp:150] Setting up conv8_2_mbox_conf_flat
I0226 10:49:30.206990  3630 net.cpp:157] Top shape: 1 756 (756)
I0226 10:49:30.206991  3630 net.cpp:165] Memory required for data: 250006208
I0226 10:49:30.206993  3630 layer_factory.hpp:77] Creating layer conv8_2_mbox_priorbox
I0226 10:49:30.206997  3630 net.cpp:100] Creating Layer conv8_2_mbox_priorbox
I0226 10:49:30.207000  3630 net.cpp:434] conv8_2_mbox_priorbox <- conv8_2_conv8_2_relu_0_split_3
I0226 10:49:30.207003  3630 net.cpp:434] conv8_2_mbox_priorbox <- data_data_0_split_5
I0226 10:49:30.207008  3630 net.cpp:408] conv8_2_mbox_priorbox -> conv8_2_mbox_priorbox
I0226 10:49:30.207025  3630 net.cpp:150] Setting up conv8_2_mbox_priorbox
I0226 10:49:30.207028  3630 net.cpp:157] Top shape: 1 2 144 (288)
I0226 10:49:30.207031  3630 net.cpp:165] Memory required for data: 250007360
I0226 10:49:30.207032  3630 layer_factory.hpp:77] Creating layer conv9_2_mbox_loc
I0226 10:49:30.207044  3630 net.cpp:100] Creating Layer conv9_2_mbox_loc
I0226 10:49:30.207048  3630 net.cpp:434] conv9_2_mbox_loc <- conv9_2_conv9_2_relu_0_split_0
I0226 10:49:30.207052  3630 net.cpp:408] conv9_2_mbox_loc -> conv9_2_mbox_loc
I0226 10:49:30.207387  3630 net.cpp:150] Setting up conv9_2_mbox_loc
I0226 10:49:30.207392  3630 net.cpp:157] Top shape: 1 16 1 1 (16)
I0226 10:49:30.207396  3630 net.cpp:165] Memory required for data: 250007424
I0226 10:49:30.207399  3630 layer_factory.hpp:77] Creating layer conv9_2_mbox_loc_perm
I0226 10:49:30.207404  3630 net.cpp:100] Creating Layer conv9_2_mbox_loc_perm
I0226 10:49:30.207407  3630 net.cpp:434] conv9_2_mbox_loc_perm <- conv9_2_mbox_loc
I0226 10:49:30.207412  3630 net.cpp:408] conv9_2_mbox_loc_perm -> conv9_2_mbox_loc_perm
I0226 10:49:30.207471  3630 net.cpp:150] Setting up conv9_2_mbox_loc_perm
I0226 10:49:30.207476  3630 net.cpp:157] Top shape: 1 1 1 16 (16)
I0226 10:49:30.207478  3630 net.cpp:165] Memory required for data: 250007488
I0226 10:49:30.207480  3630 layer_factory.hpp:77] Creating layer conv9_2_mbox_loc_flat
I0226 10:49:30.207484  3630 net.cpp:100] Creating Layer conv9_2_mbox_loc_flat
I0226 10:49:30.207487  3630 net.cpp:434] conv9_2_mbox_loc_flat <- conv9_2_mbox_loc_perm
I0226 10:49:30.207490  3630 net.cpp:408] conv9_2_mbox_loc_flat -> conv9_2_mbox_loc_flat
I0226 10:49:30.207505  3630 net.cpp:150] Setting up conv9_2_mbox_loc_flat
I0226 10:49:30.207509  3630 net.cpp:157] Top shape: 1 16 (16)
I0226 10:49:30.207511  3630 net.cpp:165] Memory required for data: 250007552
I0226 10:49:30.207514  3630 layer_factory.hpp:77] Creating layer conv9_2_mbox_conf
I0226 10:49:30.207520  3630 net.cpp:100] Creating Layer conv9_2_mbox_conf
I0226 10:49:30.207522  3630 net.cpp:434] conv9_2_mbox_conf <- conv9_2_conv9_2_relu_0_split_1
I0226 10:49:30.207526  3630 net.cpp:408] conv9_2_mbox_conf -> conv9_2_mbox_conf
I0226 10:49:30.208672  3630 net.cpp:150] Setting up conv9_2_mbox_conf
I0226 10:49:30.208678  3630 net.cpp:157] Top shape: 1 84 1 1 (84)
I0226 10:49:30.208679  3630 net.cpp:165] Memory required for data: 250007888
I0226 10:49:30.208683  3630 layer_factory.hpp:77] Creating layer conv9_2_mbox_conf_perm
I0226 10:49:30.208688  3630 net.cpp:100] Creating Layer conv9_2_mbox_conf_perm
I0226 10:49:30.208691  3630 net.cpp:434] conv9_2_mbox_conf_perm <- conv9_2_mbox_conf
I0226 10:49:30.208695  3630 net.cpp:408] conv9_2_mbox_conf_perm -> conv9_2_mbox_conf_perm
I0226 10:49:30.208756  3630 net.cpp:150] Setting up conv9_2_mbox_conf_perm
I0226 10:49:30.208760  3630 net.cpp:157] Top shape: 1 1 1 84 (84)
I0226 10:49:30.208762  3630 net.cpp:165] Memory required for data: 250008224
I0226 10:49:30.208765  3630 layer_factory.hpp:77] Creating layer conv9_2_mbox_conf_flat
I0226 10:49:30.208768  3630 net.cpp:100] Creating Layer conv9_2_mbox_conf_flat
I0226 10:49:30.208771  3630 net.cpp:434] conv9_2_mbox_conf_flat <- conv9_2_mbox_conf_perm
I0226 10:49:30.208775  3630 net.cpp:408] conv9_2_mbox_conf_flat -> conv9_2_mbox_conf_flat
I0226 10:49:30.208789  3630 net.cpp:150] Setting up conv9_2_mbox_conf_flat
I0226 10:49:30.208793  3630 net.cpp:157] Top shape: 1 84 (84)
I0226 10:49:30.208794  3630 net.cpp:165] Memory required for data: 250008560
I0226 10:49:30.208797  3630 layer_factory.hpp:77] Creating layer conv9_2_mbox_priorbox
I0226 10:49:30.208801  3630 net.cpp:100] Creating Layer conv9_2_mbox_priorbox
I0226 10:49:30.208804  3630 net.cpp:434] conv9_2_mbox_priorbox <- conv9_2_conv9_2_relu_0_split_2
I0226 10:49:30.208807  3630 net.cpp:434] conv9_2_mbox_priorbox <- data_data_0_split_6
I0226 10:49:30.208812  3630 net.cpp:408] conv9_2_mbox_priorbox -> conv9_2_mbox_priorbox
I0226 10:49:30.208827  3630 net.cpp:150] Setting up conv9_2_mbox_priorbox
I0226 10:49:30.208830  3630 net.cpp:157] Top shape: 1 2 16 (32)
I0226 10:49:30.208832  3630 net.cpp:165] Memory required for data: 250008688
I0226 10:49:30.208834  3630 layer_factory.hpp:77] Creating layer mbox_loc
I0226 10:49:30.208839  3630 net.cpp:100] Creating Layer mbox_loc
I0226 10:49:30.208843  3630 net.cpp:434] mbox_loc <- conv4_3_norm_mbox_loc_flat
I0226 10:49:30.208853  3630 net.cpp:434] mbox_loc <- fc7_mbox_loc_flat
I0226 10:49:30.208858  3630 net.cpp:434] mbox_loc <- conv6_2_mbox_loc_flat
I0226 10:49:30.208860  3630 net.cpp:434] mbox_loc <- conv7_2_mbox_loc_flat
I0226 10:49:30.208863  3630 net.cpp:434] mbox_loc <- conv8_2_mbox_loc_flat
I0226 10:49:30.208865  3630 net.cpp:434] mbox_loc <- conv9_2_mbox_loc_flat
I0226 10:49:30.208871  3630 net.cpp:408] mbox_loc -> mbox_loc
I0226 10:49:30.208890  3630 net.cpp:150] Setting up mbox_loc
I0226 10:49:30.208894  3630 net.cpp:157] Top shape: 1 34928 (34928)
I0226 10:49:30.208896  3630 net.cpp:165] Memory required for data: 250148400
I0226 10:49:30.208899  3630 layer_factory.hpp:77] Creating layer mbox_conf
I0226 10:49:30.208902  3630 net.cpp:100] Creating Layer mbox_conf
I0226 10:49:30.208905  3630 net.cpp:434] mbox_conf <- conv4_3_norm_mbox_conf_flat
I0226 10:49:30.208909  3630 net.cpp:434] mbox_conf <- fc7_mbox_conf_flat
I0226 10:49:30.208912  3630 net.cpp:434] mbox_conf <- conv6_2_mbox_conf_flat
I0226 10:49:30.208915  3630 net.cpp:434] mbox_conf <- conv7_2_mbox_conf_flat
I0226 10:49:30.208917  3630 net.cpp:434] mbox_conf <- conv8_2_mbox_conf_flat
I0226 10:49:30.208920  3630 net.cpp:434] mbox_conf <- conv9_2_mbox_conf_flat
I0226 10:49:30.208925  3630 net.cpp:408] mbox_conf -> mbox_conf
I0226 10:49:30.208940  3630 net.cpp:150] Setting up mbox_conf
I0226 10:49:30.208943  3630 net.cpp:157] Top shape: 1 183372 (183372)
I0226 10:49:30.208945  3630 net.cpp:165] Memory required for data: 250881888
I0226 10:49:30.208948  3630 layer_factory.hpp:77] Creating layer mbox_priorbox
I0226 10:49:30.208951  3630 net.cpp:100] Creating Layer mbox_priorbox
I0226 10:49:30.208955  3630 net.cpp:434] mbox_priorbox <- conv4_3_norm_mbox_priorbox
I0226 10:49:30.208957  3630 net.cpp:434] mbox_priorbox <- fc7_mbox_priorbox
I0226 10:49:30.208961  3630 net.cpp:434] mbox_priorbox <- conv6_2_mbox_priorbox
I0226 10:49:30.208964  3630 net.cpp:434] mbox_priorbox <- conv7_2_mbox_priorbox
I0226 10:49:30.208966  3630 net.cpp:434] mbox_priorbox <- conv8_2_mbox_priorbox
I0226 10:49:30.208968  3630 net.cpp:434] mbox_priorbox <- conv9_2_mbox_priorbox
I0226 10:49:30.208972  3630 net.cpp:408] mbox_priorbox -> mbox_priorbox
I0226 10:49:30.208986  3630 net.cpp:150] Setting up mbox_priorbox
I0226 10:49:30.208991  3630 net.cpp:157] Top shape: 1 2 34928 (69856)
I0226 10:49:30.208992  3630 net.cpp:165] Memory required for data: 251161312
I0226 10:49:30.208994  3630 layer_factory.hpp:77] Creating layer mbox_loss
I0226 10:49:30.209002  3630 net.cpp:100] Creating Layer mbox_loss
I0226 10:49:30.209005  3630 net.cpp:434] mbox_loss <- mbox_loc
I0226 10:49:30.209008  3630 net.cpp:434] mbox_loss <- mbox_conf
I0226 10:49:30.209012  3630 net.cpp:434] mbox_loss <- mbox_priorbox
…
state {
  phase: TEST
}
layer {
  name: "data"
  type: "AnnotatedData"
  top: "data"
  top: "label"
  include {
    phase: TEST
  }
  transform_param {
    mean_value: 104
    mean_value: 117
    mean_value: 123
    resize_param {
      prob: 1
      resize_mode: WARP
      height: 300
      width: 300
      interp_mode: LINEAR
    }
  }
  data_param {
    source: "examples/VOC0712/VOC0712_test_lmdb"
    batch_size: 8
    backend: LMDB
  }
  annotated_data_param {
    batch_sampler {
    }
    label_map_file: "data/VOC0712/labelmap_voc.prototxt"
  }
}
layer {
  name: "conv1_1"
  type: "Convolution"
  bottom: "data"
  top: "conv1_1"
  param {
    lr_mult: 1
    decay_mult: 1
  }
  param {
    lr_mult: 2
    decay_mult: 0
  }
  convolution_param {
    num_output: 64
    pad: 1
    kernel_size: 3
    weight_filler {
      type: "xavier"
    }
    bias_filler {
      type: "constant"
      value: 0
    }
  }
}
layer {
  name: "relu1_1"
  type: "ReLU"
  bottom: "conv1_1"
  top: "conv1_1"
}
layer {
  name: "conv1_2"
  type: "Convolution"
  bottom: "conv1_1"
  top: "conv1_2"
  param {
    lr_mult: 1
    decay_mult: 1
  }
  param {
    lr_mult: 2
    decay_mult: 0
  }
  convolution_param {
    num_output: 64
    pad: 1
    kernel_size: 3
    weight_filler {
      type: "xavier"
    }
    bias_filler {
      type: "constant"
      value: 0
    }
  }
}
layer {
  name: "relu1_2"
  type: "ReLU"
  bottom: "conv1_2"
  top: "conv1_2"
}
layer {
  name: "pool1"
  type: "Pooling"
  bottom: "conv1_2"
  top: "pool1"
  pooling_param {
    pool: MAX
    kernel_size: 2
    stride: 2
  }
}
layer {
  name: "conv2_1"
  type: "Convolution"
  bottom: "pool1"
  top: "conv2_1"
  param {
    lr_mult: 1
    decay_mult: 1
  }
  param {
    lr_mult: 2
    decay_mult: 0
  }
  convolution_param {
    num_output: 128
    pad: 1
    kernel_size: 3
    weight_filler {
      type: "xavier"
    }
    bias_filler {
      type: "constant"
      value: 0
    }
  }
}
layer {
  name: "relu2_1"
  type: "ReLU"
  bottom: "conv2_1"
  top: "conv2_1"
}
layer {
  name: "conv2_2"
  type: "Convolution"
  bottom: "conv2_1"
  top: "conv2_2"
  param {
    lr_mult: 1
    decay_mult: 1
  }
  param {
    lr_mult: 2
    decay_mult: 0
  }
  convolution_param {
    num_output: 128
    pad: 1
    kernel_size: 3
    weight_filler {
      type: "xavier"
    }
    bias_filler {
      type: "constant"
      value: 0
    }
  }
}
layer {
  name: "relu2_2"
  type: "ReLU"
  bottom: "conv2_2"
  top: "conv2_2"
}
layer {
  name: "pool2"
  type: "Pooling"
  bottom: "conv2_2"
  top: "pool2"
  pooling_param {
    pool: MAX
    kernel_size: 2
    stride: 2
  }
}
layer {
  name: "conv3_1"
  type: "Convolution"
  bottom: "pool2"
  top: "conv3_1"
  param {
    lr_mult: 1
    decay_mult: 1
  }
  param {
    lr_mult: 2
    decay_mult: 0
  }
  convolution_param {
    num_output: 256
    pad: 1
    kernel_size: 3
    weight_filler {
      type: "xavier"
    }
    bias_filler {
      type: "constant"
      value: 0
    }
  }
}
layer {
  name: "relu3_1"
  type: "ReLU"
  bottom: "conv3_1"
  top: "conv3_1"
}
layer {
  name: "conv3_2"
  type: "Convolution"
  bottom: "conv3_1"
  top: "conv3_2"
  param {
    lr_mult: 1
    decay_mult: 1
  }
  param {
    lr_mult: 2
    decay_mult: 0
  }
  convolution_param {
    num_output: 256
    pad: 1
    kernel_size: 3
    weight_filler {
      type: "xavier"
    }
    bias_filler {
      type: "constant"
      value: 0
    }
  }
}
layer {
  name: "relu3_2"
  type: "ReLU"
  bottom: "conv3_2"
  top: "conv3_2"
}
layer {
  name: "conv3_3"
  type: "Convolution"
  bottom: "conv3_2"
  top: "conv3_3"
  param {
    lr_mult: 1
    decay_mult: 1
  }
  param {
    lr_mult: 2
    decay_mult: 0
  }
  convolution_param {
    num_output: 256
    pad: 1
    kernel_size: 3
    weight_filler {
      type: "xavier"
    }
    bias_filler {
      type: "constant"
      value: 0
    }
  }
}
layer {
  name: "relu3_3"
  type: "ReLU"
  bottom: "conv3_3"
  top: "conv3_3"
}
layer {
  name: "pool3"
  type: "Pooling"
  bottom: "conv3_3"
  top: "pool3"
  pooling_param {
    pool: MAX
    kernel_size: 2
    stride: 2
  }
}
layer {
  name: "conv4_1"
  type: "Convolution"
  bottom: "pool3"
  top: "conv4_1"
  param {
    lr_mult: 1
    decay_mult: 1
  }
  param {
    lr_mult: 2
    decay_mult: 0
  }
  convolution_param {
    num_output: 512
    pad: 1
    kernel_size: 3
    weight_filler {
      type: "xavier"
    }
    bias_filler {
      type: "constant"
      value: 0
    }
  }
}
layer {
  name: "relu4_1"
  type: "ReLU"
  bottom: "conv4_1"
  top: "conv4_1"
}
layer {
  name: "conv4_2"
  type: "Convolution"
  bottom: "conv4_1"
  top: "conv4_2"
  param {
    lr_mult: 1
    decay_mult: 1
  }
  param {
    lr_mult: 2
    decay_mult: 0
  }
  convolution_param {
    num_output: 512
    pad: 1
    kernel_size: 3
    weight_filler {
      type: "xavier"
    }
    bias_filler {
      type: "constant"
      value: 0
    }
  }
}
layer {
  name: "relu4_2"
  type: "ReLU"
  bottom: "conv4_2"
  top: "conv4_2"
}
layer {
  name: "conv4_3"
  type: "Convolution"
  bottom: "conv4_2"
  top: "conv4_3"
  param {
    lr_mult: 1
    decay_mult: 1
  }
  param {
    lr_mult: 2
    decay_mult: 0
  }
  convolution_param {
    num_output: 512
    pad: 1
    kernel_size: 3
    weight_filler {
      type: "xavier"
    }
    bias_filler {
      type: "constant"
      value: 0
    }
  }
}
layer {
  name: "relu4_3"
  type: "ReLU"
  bottom: "conv4_3"
  top: "conv4_3"
}
layer {
  name: "pool4"
  type: "Pooling"
  bottom: "conv4_3"
  top: "pool4"
  pooling_param {
    pool: MAX
    kernel_size: 2
    stride: 2
  }
}
layer {
  name: "conv5_1"
  type: "Convolution"
  bottom: "pool4"
  top: "conv5_1"
  param {
    lr_mult: 1
    decay_mult: 1
  }
  param {
    lr_mult: 2
    decay_mult: 0
  }
  convolution_param {
    num_output: 512
    pad: 1
    kernel_size: 3
    weight_filler {
      type: "xavier"
    }
    bias_filler {
      type: "constant"
      value: 0
    }
    dilation: 1
  }
}
layer {
  name: "relu5_1"
  type: "ReLU"
  bottom: "conv5_1"
  top: "conv5_1"
}
layer {
  name: "conv5_2"
  type: "Convolution"
  bottom: "conv5_1"
  top: "conv5_2"
  param {
    lr_mult: 1
    decay_mult: 1
  }
  param {
    lr_mult: 2
    decay_mult: 0
  }
  convolution_param {
    num_output: 512
    pad: 1
    kernel_size: 3
    weight_filler {
      type: "xavier"
    }
    bias_filler {
      type: "constant"
      value: 0
    }
    dilation: 1
  }
}
layer {
  name: "relu5_2"
  type: "ReLU"
  bottom: "conv5_2"
  top: "conv5_2"
}
layer {
  name: "conv5_3"
  type: "Convolution"
  bottom: "conv5_2"
  top: "conv5_3"
  param {
    lr_mult: 1
    decay_mult: 1
  }
  param {
    lr_mult: 2
    decay_mult: 0
  }
  convolution_param {
    num_output: 512
    pad: 1
    kernel_size: 3
    weight_filler {
      type: "xavier"
    }
    bias_filler {
      type: "constant"
      value: 0
    }
    dilation: 1
  }
}
layer {
  name: "relu5_3"
  type: "ReLU"
  bottom: "conv5_3"
  top: "conv5_3"
}
layer {
  name: "pool5"
  type: "Pooling"
  bottom: "conv5_3"
  top: "pool5"
  pooling_param {
    pool: MAX
    kernel_size: 3
    stride: 1
    pad: 1
  }
}
layer {
  name: "fc6"
  type: "Convolution"
  bottom: "pool5"
  top: "fc6"
  param {
    lr_mult: 1
    decay_mult: 1
  }
  param {
    lr_mult: 2
    decay_mult: 0
  }
  convolution_param {
    num_output: 1024
    pad: 6
    kernel_size: 3
    weight_filler {
      type: "xavier"
    }
    bias_filler {
      type: "constant"
      value: 0
    }
    dilation: 6
  }
}
layer {
  name: "relu6"
  type: "ReLU"
  bottom: "fc6"
  top: "fc6"
}
layer {
  name: "fc7"
  type: "Convolution"
  bottom: "fc6"
  top: "fc7"
  param {
    lr_mult: 1
    decay_mult: 1
  }
  param {
    lr_mult: 2
    decay_mult: 0
  }
  convolution_param {
    num_output: 1024
    kernel_size: 1
    weight_filler {
      type: "xavier"
    }
    bias_filler {
      type: "constant"
      value: 0
    }
  }
}
layer {
  name: "relu7"
  type: "ReLU"
  bottom: "fc7"
  top: "fc7"
}
layer {
  name: "conv6_1"
  type: "Convolution"
  bottom: "fc7"
  top: "conv6_1"
  param {
    lr_mult: 1
    decay_mult: 1
  }
  param {
    lr_mult: 2
    decay_mult: 0
  }
  convolution_param {
    num_output: 256
    pad: 0
    kernel_size: 1
    stride: 1
    weight_filler {
      type: "xavier"
    }
    bias_filler {
      type: "constant"
      value: 0
    }
  }
}
layer {
  name: "conv6_1_relu"
  type: "ReLU"
  bottom: "conv6_1"
  top: "conv6_1"
}
layer {
  name: "conv6_2"
  type: "Convolution"
  bottom: "conv6_1"
  top: "conv6_2"
  param {
    lr_mult: 1
    decay_mult: 1
  }
  param {
    lr_mult: 2
    decay_mult: 0
  }
  convolution_param {
    num_output: 512
    pad: 1
    kernel_size: 3
    stride: 2
    weight_filler {
      type: "xavier"
    }
    bias_filler {
      type: "constant"
      value: 0
    }
  }
}
layer {
  name: "conv6_2_relu"
  type: "ReLU"
  bottom: "conv6_2"
  top: "conv6_2"
}
layer {
  name: "conv7_1"
  type: "Convolution"
  bottom: "conv6_2"
  top: "conv7_1"
  param {
    lr_mult: 1
    decay_mult: 1
  }
  param {
    lr_mult: 2
    decay_mult: 0
  }
  convolution_param {
    num_output: 128
    pad: 0
    kernel_size: 1
    stride: 1
    weight_filler {
      type: "xavier"
    }
    bias_filler {
      type: "constant"
      value: 0
    }
  }
}
layer {
  name: "conv7_1_relu"
  type: "ReLU"
  bottom: "conv7_1"
  top: "conv7_1"
}
layer {
  name: "conv7_2"
  type: "Convolution"
  bottom: "conv7_1"
  top: "conv7_2"
  param {
    lr_mult: 1
    decay_mult: 1
  }
  param {
    lr_mult: 2
    decay_mult: 0
  }
  convolution_param {
    num_output: 256
    pad: 1
    kernel_size: 3
    stride: 2
    weight_filler {
      type: "xavier"
    }
    bias_filler {
      type: "constant"
      value: 0
    }
  }
}
layer {
  name: "conv7_2_relu"
  type: "ReLU"
  bottom: "conv7_2"
  top: "conv7_2"
}
layer {
  name: "conv8_1"
  type: "Convolution"
  bottom: "conv7_2"
  top: "conv8_1"
  param {
    lr_mult: 1
    decay_mult: 1
  }
  param {
    lr_mult: 2
    decay_mult: 0
  }
  convolution_param {
    num_output: 128
    pad: 0
    kernel_size: 1
    stride: 1
    weight_filler {
      type: "xavier"
    }
    bias_filler {
      type: "constant"
      value: 0
    }
  }
}
layer {
  name: "conv8_1_relu"
  type: "ReLU"
  bottom: "conv8_1"
  top: "conv8_1"
}
layer {
  name: "conv8_2"
  type: "Convolution"
  bottom: "conv8_1"
  top: "conv8_2"
  param {
    lr_mult: 1
    decay_mult: 1
  }
  param {
    lr_mult: 2
    decay_mult: 0
  }
  convolution_param {
    num_output: 256
    pad: 0
    kernel_size: 3
    stride: 1
    weight_filler {
      type: "xavier"
    }
    bias_filler {
      type: "constant"
      value: 0
    }
  }
}
layer {
  name: "conv8_2_relu"
  type: "ReLU"
  bottom: "conv8_2"
  top: "conv8_2"
}
layer {
  name: "conv9_1"
  type: "Convolution"
  bottom: "conv8_2"
  top: "conv9_1"
  param {
    lr_mult: 1
    decay_mult: 1
  }
  param {
    lr_mult: 2
    decay_mult: 0
  }
  convolution_param {
    num_output: 128
    pad: 0
    kernel_size: 1
    stride: 1
    weight_filler {
      type: "xavier"
    }
    bias_filler {
      type: "constant"
      value: 0
    }
  }
}
layer {
  name: "conv9_1_relu"
  type: "ReLU"
  bottom: "conv9_1"
  top: "conv9_1"
}
layer {
  name: "conv9_2"
  type: "Convolution"
  bottom: "conv9_1"
  top: "conv9_2"
  param {
    lr_mult: 1
    decay_mult: 1
  }
  param {
    lr_mult: 2
    decay_mult: 0
  }
  convolution_param {
    num_output: 256
    pad: 0
    kernel_size: 3
    stride: 1
    weight_filler {
      type: "xavier"
    }
    bias_filler {
      type: "constant"
      value: 0
    }
  }
}
layer {
  name: "conv9_2_relu"
  type: "ReLU"
  bottom: "conv9_2"
  top: "conv9_2"
}
layer {
  name: "conv4_3_norm"
  type: "Normalize"
  bottom: "conv4_3"
  top: "conv4_3_norm"
  norm_param {
    across_spatial: false
    scale_filler {
      type: "constant"
      value: 20
    }
    channel_shared: false
  }
}
layer {
  name: "conv4_3_norm_mbox_loc"
  type: "Convolution"
  bottom: "conv4_3_norm"
  top: "conv4_3_norm_mbox_loc"
  param {
    lr_mult: 1
    decay_mult: 1
  }
  param {
    lr_mult: 2
    decay_mult: 0
  }
  convolution_param {
    num_output: 16
    pad: 1
    kernel_size: 3
    stride: 1
    weight_filler {
      type: "xavier"
    }
    bias_filler {
      type: "constant"
      value: 0
    }
  }
}
layer {
  name: "conv4_3_norm_mbox_loc_perm"
  type: "Permute"
  bottom: "conv4_3_norm_mbox_loc"
  top: "conv4_3_norm_mbox_loc_perm"
  permute_param {
    order: 0
    order: 2
    order: 3
    order: 1
  }
}
layer {
  name: "conv4_3_norm_mbox_loc_flat"
  type: "Flatten"
  bottom: "conv4_3_norm_mbox_loc_perm"
  top: "conv4_3_norm_mbox_loc_flat"
  flatten_param {
    axis: 1
  }
}
layer {
  name: "conv4_3_norm_mbox_conf"
  type: "Convolution"
  bottom: "conv4_3_norm"
  top: "conv4_3_norm_mbox_conf"
  param {
    lr_mult: 1
    decay_mult: 1
  }
  param {
    lr_mult: 2
    decay_mult: 0
  }
  convolution_param {
    num_output: 84
    pad: 1
    kernel_size: 3
    stride: 1
    weight_filler {
      type: "xavier"
    }
    bias_filler {
      type: "constant"
      value: 0
    }
  }
}
layer {
  name: "conv4_3_norm_mbox_conf_perm"
  type: "Permute"
  bottom: "conv4_3_norm_mbox_conf"
  top: "conv4_3_norm_mbox_conf_perm"
  permute_param {
    order: 0
    order: 2
    order: 3
    order: 1
  }
}
layer {
  name: "conv4_3_norm_mbox_conf_flat"
  type: "Flatten"
  bottom: "conv4_3_norm_mbox_conf_perm"
  top: "conv4_3_norm_mbox_conf_flat"
  flatten_param {
    axis: 1
  }
}
layer {
  name: "conv4_3_norm_mbox_priorbox"
  type: "PriorBox"
  bottom: "conv4_3_norm"
  bottom: "data"
  top: "conv4_3_norm_mbox_priorbox"
  prior_box_param {
    min_size: 30
    max_size: 60
    aspect_ratio: 2
    flip: true
    clip: false
    variance: 0.1
    variance: 0.1
    variance: 0.2
    variance: 0.2
    step: 8
    offset: 0.5
  }
}
layer {
  name: "fc7_mbox_loc"
  type: "Convolution"
  bottom: "fc7"
  top: "fc7_mbox_loc"
  param {
    lr_mult: 1
    decay_mult: 1
  }
  param {
    lr_mult: 2
    decay_mult: 0
  }
  convolution_param {
    num_output: 24
    pad: 1
    kernel_size: 3
    stride: 1
    weight_filler {
      type: "xavier"
    }
    bias_filler {
      type: "constant"
      value: 0
    }
  }
}
layer {
  name: "fc7_mbox_loc_perm"
  type: "Permute"
  bottom: "fc7_mbox_loc"
  top: "fc7_mbox_loc_perm"
  permute_param {
    order: 0
    order: 2
    order: 3
    order: 1
  }
}
layer {
  name: "fc7_mbox_loc_flat"
  type: "Flatten"
  bottom: "fc7_mbox_loc_perm"
  top: "fc7_mbox_loc_flat"
  flatten_param {
    axis: 1
  }
}
layer {
  name: "fc7_mbox_conf"
  type: "Convolution"
  bottom: "fc7"
  top: "fc7_mbox_conf"
  param {
    lr_mult: 1
    decay_mult: 1
  }
  param {
    lr_mult: 2
    decay_mult: 0
  }
  convolution_param {
    num_output: 126
    pad: 1
    kernel_size: 3
    stride: 1
    weight_filler {
      type: "xavier"
    }
    bias_filler {
      type: "constant"
      value: 0
    }
  }
}
layer {
  name: "fc7_mbox_conf_perm"
  type: "Permute"
  bottom: "fc7_mbox_conf"
  top: "fc7_mbox_conf_perm"
  permute_param {
    order: 0
    order: 2
    order: 3
    order: 1
  }
}
layer {
  name: "fc7_mbox_conf_flat"
  type: "Flatten"
  bottom: "fc7_mbox_conf_perm"
  top: "fc7_mbox_conf_flat"
  flatten_param {
    axis: 1
  }
}
layer {
  name: "fc7_mbox_priorbox"
  type: "PriorBox"
  bottom: "fc7"
  bottom: "data"
  top: "fc7_mbox_priorbox"
  prior_box_param {
    min_size: 60
    max_size: 111
    aspect_ratio: 2
    aspect_ratio: 3
    flip: true
    clip: false
    variance: 0.1
    variance: 0.1
    variance: 0.2
    variance: 0.2
    step: 16
    offset: 0.5
  }
}
layer {
  name: "conv6_2_mbox_loc"
  type: "Convolution"
  bottom: "conv6_2"
  top: "conv6_2_mbox_loc"
  param {
    lr_mult: 1
    decay_mult: 1
  }
  param {
    lr_mult: 2
    decay_mult: 0
  }
  convolution_param {
    num_output: 24
    pad: 1
    kernel_size: 3
    stride: 1
    weight_filler {
      type: "xavier"
    }
    bias_filler {
      type: "constant"
      value: 0
    }
  }
}
layer {
  name: "conv6_2_mbox_loc_perm"
  type: "Permute"
  bottom: "conv6_2_mbox_loc"
  top: "conv6_2_mbox_loc_perm"
  permute_param {
    order: 0
    order: 2
    order: 3
    order: 1
  }
}
layer {
  name: "conv6_2_mbox_loc_flat"
  type: "Flatten"
  bottom: "conv6_2_mbox_loc_perm"
  top: "conv6_2_mbox_loc_flat"
  flatten_param {
    axis: 1
  }
}
layer {
  name: "conv6_2_mbox_conf"
  type: "Convolution"
  bottom: "conv6_2"
  top: "conv6_2_mbox_conf"
  param {
    lr_mult: 1
    decay_mult: 1
  }
  param {
    lr_mult: 2
    decay_mult: 0
  }
  convolution_param {
    num_output: 126
    pad: 1
    kernel_size: 3
    stride: 1
    weight_filler {
      type: "xavier"
    }
    bias_filler {
      type: "constant"
      value: 0
    }
  }
}
layer {
  name: "conv6_2_mbox_conf_perm"
  type: "Permute"
  bottom: "conv6_2_mbox_conf"
  top: "conv6_2_mbox_conf_perm"
  permute_param {
    order: 0
    order: 2
    order: 3
    order: 1
  }
}
layer {
  name: "conv6_2_mbox_conf_flat"
  type: "Flatten"
  bottom: "conv6_2_mbox_conf_perm"
  top: "conv6_2_mbox_conf_flat"
  flatten_param {
    axis: 1
  }
}
layer {
  name: "conv6_2_mbox_priorbox"
  type: "PriorBox"
  bottom: "conv6_2"
  bottom: "data"
  top: "conv6_2_mbox_priorbox"
  prior_box_param {
    min_size: 111
    max_size: 162
    aspect_ratio: 2
    aspect_ratio: 3
    flip: true
    clip: false
    variance: 0.1
    variance: 0.1
    variance: 0.2
    variance: 0.2
    step: 32
    offset: 0.5
  }
}
layer {
  name: "conv7_2_mbox_loc"
  type: "Convolution"
  bottom: "conv7_2"
  top: "conv7_2_mbox_loc"
  param {
    lr_mult: 1
    decay_mult: 1
  }
  param {
    lr_mult: 2
    decay_mult: 0
  }
  convolution_param {
    num_output: 24
    pad: 1
    kernel_size: 3
    stride: 1
    weight_filler {
      type: "xavier"
    }
    bias_filler {
      type: "constant"
      value: 0
    }
  }
}
layer {
  name: "conv7_2_mbox_loc_perm"
  type: "Permute"
  bottom: "conv7_2_mbox_loc"
  top: "conv7_2_mbox_loc_perm"
  permute_param {
    order: 0
    order: 2
    order: 3
    order: 1
  }
}
layer {
  name: "conv7_2_mbox_loc_flat"
  type: "Flatten"
  bottom: "conv7_2_mbox_loc_perm"
  top: "conv7_2_mbox_loc_flat"
  flatten_param {
    axis: 1
  }
}
layer {
  name: "conv7_2_mbox_conf"
  type: "Convolution"
  bottom: "conv7_2"
  top: "conv7_2_mbox_conf"
  param {
    lr_mult: 1
    decay_mult: 1
  }
  param {
    lr_mult: 2
    decay_mult: 0
  }
  convolution_param {
    num_output: 126
    pad: 1
    kernel_size: 3
    stride: 1
    weight_filler {
      type: "xavier"
    }
    bias_filler {
      type: "constant"
      value: 0
    }
  }
}
layer {
  name: "conv7_2_mbox_conf_perm"
  type: "Permute"
  bottom: "conv7_2_mbox_conf"
  top: "conv7_2_mbox_conf_perm"
  permute_param {
    order: 0
    order: 2
    order: 3
    order: 1
  }
}
layer {
  name: "conv7_2_mbox_conf_flat"
  type: "Flatten"
  bottom: "conv7_2_mbox_conf_perm"
  top: "conv7_2_mbox_conf_flat"
  flatten_param {
    axis: 1
  }
}
layer {
  name: "conv7_2_mbox_priorbox"
  type: "PriorBox"
  bottom: "conv7_2"
  bottom: "data"
  top: "conv7_2_mbox_priorbox"
  prior_box_param {
    min_size: 162
    max_size: 213
    aspect_ratio: 2
    aspect_ratio: 3
    flip: true
    clip: false
    variance: 0.1
    variance: 0.1
    variance: 0.2
    variance: 0.2
    step: 64
    offset: 0.5
  }
}
layer {
  name: "conv8_2_mbox_loc"
  type: "Convolution"
  bottom: "conv8_2"
  top: "conv8_2_mbox_loc"
  param {
    lr_mult: 1
    decay_mult: 1
  }
  param {
    lr_mult: 2
    decay_mult: 0
  }
  convolution_param {
    num_output: 16
    pad: 1
    kernel_size: 3
    stride: 1
    weight_filler {
      type: "xavier"
    }
    bias_filler {
      type: "constant"
      value: 0
    }
  }
}
layer {
  name: "conv8_2_mbox_loc_perm"
  type: "Permute"
  bottom: "conv8_2_mbox_loc"
  top: "conv8_2_mbox_loc_perm"
  permute_param {
    order: 0
    order: 2
    order: 3
    order: 1
  }
}
layer {
  name: "conv8_2_mbox_loc_flat"
  type: "Flatten"
  bottom: "conv8_2_mbox_loc_perm"
  top: "conv8_2_mbox_loc_flat"
  flatten_param {
    axis: 1
  }
}
layer {
  name: "conv8_2_mbox_conf"
  type: "Convolution"
  bottom: "conv8_2"
  top: "conv8_2_mbox_conf"
  param {
    lr_mult: 1
    decay_mult: 1
  }
  param {
    lr_mult: 2
    decay_mult: 0
  }
  convolution_param {
    num_output: 84
    pad: 1
    kernel_size: 3
    stride: 1
    weight_filler {
      type: "xavier"
    }
    bias_filler {
      type: "constant"
      value: 0
    }
  }
}
layer {
  name: "conv8_2_mbox_conf_perm"
  type: "Permute"
  bottom: "conv8_2_mbox_conf"
  top: "conv8_2_mbox_conf_perm"
  permute_param {
    order: 0
    order: 2
    order: 3
    order: 1
  }
}
layer {
  name: "conv8_2_mbox_conf_flat"
  type: "Flatten"
  bottom: "conv8_2_mbox_conf_perm"
  top: "conv8_2_mbox_conf_flat"
  flatten_param {
    axis: 1
  }
}
layer {
  name: "conv8_2_mbox_priorbox"
  type: "PriorBox"
  bottom: "conv8_2"
  bottom: "data"
  top: "conv8_2_mbox_priorbox"
  prior_box_param {
    min_size: 213
    max_size: 264
    aspect_ratio: 2
    flip: true
    clip: false
    variance: 0.1
    variance: 0.1
    variance: 0.2
    variance: 0.2
    step: 100
    offset: 0.5
  }
}
layer {
  name: "conv9_2_mbox_loc"
  type: "Convolution"
  bottom: "conv9_2"
  top: "conv9_2_mbox_loc"
  param {
    lr_mult: 1
    decay_mult: 1
  }
  param {
    lr_mult: 2
    decay_mult: 0
  }
  convolution_param {
    num_output: 16
    pad: 1
    kernel_size: 3
    stride: 1
    weight_filler {
      type: "xavier"
    }
    bias_filler {
      type: "constant"
      value: 0
    }
  }
}
layer {
  name: "conv9_2_mbox_loc_perm"
  type: "Permute"
  bottom: "conv9_2_mbox_loc"
  top: "conv9_2_mbox_loc_perm"
  permute_param {
    order: 0
    order: 2
    order: 3
    order: 1
  }
}
layer {
  name: "conv9_2_mbox_loc_flat"
  type: "Flatten"
  bottom: "conv9_2_mbox_loc_perm"
  top: "conv9_2_mbox_loc_flat"
  flatten_param {
    axis: 1
  }
}
layer {
  name: "conv9_2_mbox_conf"
  type: "Convolution"
  bottom: "conv9_2"
  top: "conv9_2_mbox_conf"
  param {
    lr_mult: 1
    decay_mult: 1
  }
  param {
    lr_mult: 2
    decay_mult: 0
  }
  convolution_param {
    num_output: 84
    pad: 1
    kernel_size: 3
    stride: 1
    weight_filler {
      type: "xavier"
    }
    bias_filler {
      type: "constant"
      value: 0
    }
  }
}
layer {
  name: "conv9_2_mbox_conf_perm"
  type: "Permute"
  bottom: "conv9_2_mbox_conf"
  top: "conv9_2_mbox_conf_perm"
  permute_param {
    order: 0
    order: 2
    order: 3
    order: 1
  }
}
layer {
  name: "conv9_2_mbox_conf_flat"
  type: "Flatten"
  bottom: "conv9_2_mbox_conf_perm"
  top: "conv9_2_mbox_conf_flat"
  flatten_param {
    axis: 1
  }
}
layer {
  name: "conv9_2_mbox_priorbox"
  type: "PriorBox"
  bottom: "conv9_2"
  bottom: "data"
  top: "conv9_2_mbox_priorbox"
  prior_box_param {
    min_size: 264
    max_size: 315
    aspect_ratio: 2
    flip: true
    clip: false
    variance: 0.1
    variance: 0.1
    variance: 0.2
    variance: 0.2
    step: 300
    offset: 0.5
  }
}
layer {
  name: "mbox_loc"
  type: "Concat"
  bottom: "conv4_3_norm_mbox_loc_flat"
  bottom: "fc7_mbox_loc_flat"
  bottom: "conv6_2_mbox_loc_flat"
  bottom: "conv7_2_mbox_loc_flat"
  bottom: "conv8_2_mbox_loc_flat"
  bottom: "conv9_2_mbox_loc_flat"
  top: "mbox_loc"
  concat_param {
    axis: 1
  }
}
layer {
  name: "mbox_conf"
  type: "Concat"
  bottom: "conv4_3_norm_mbox_conf_flat"
  bottom: "fc7_mbox_conf_flat"
  bottom: "conv6_2_mbox_conf_flat"
  bottom: "conv7_2_mbox_conf_flat"
  bottom: "conv8_2_mbox_conf_flat"
  bottom: "conv9_2_mbox_conf_flat"
  top: "mbox_conf"
  concat_param {
    axis: 1
  }
}
layer {
  name: "mbox_priorbox"
  type: "Concat"
  bottom: "conv4_3_norm_mbox_priorbox"
  bottom: "fc7_mbox_priorbox"
  bottom: "conv6_2_mbox_priorbox"
  bottom: "conv7_2_mbox_priorbox"
  bottom: "conv8_2_mbox_priorbox"
  bottom: "conv9_2_mbox_priorbox"
  top: "mbox_priorbox"
  concat_param {
    axis: 2
  }
}
layer {
  name: "mbox_conf_reshape"
  type: "Reshape"
  bottom: "mbox_conf"
  top: "mbox_conf_reshape"
  reshape_param {
    shape {
      dim: 0
      dim: -1
      dim: 21
    }
  }
}
layer {
  name: "mbox_conf_softmax"
  type: "Softmax"
  bottom: "mbox_conf_reshape"
  top: "mbox_conf_softmax"
  softmax_param {
    axis: 2
  }
}
layer {
  name: "mbox_conf_flatten"
  type: "Flatten"
  bottom: "mbox_conf_softmax"
  top: "mbox_conf_flatten"
  flatten_param {
    axis: 1
  }
}
layer {
  name: "detection_out"
  type: "DetectionOutput"
  bottom: "mbox_loc"
  bottom: "mbox_conf_flatten"
  bottom: "mbox_priorbox"
  top: "detection_out"
  include {
    phase: TEST
  }
  detection_output_param {
    num_classes: 21
    share_location: true
    background_label_id: 0
    nms_param {
      nms_threshold: 0.45
      top_k: 400
    }
    save_output_param {
      output_directory: "/home/zoson/data/VOCdevkit/results/VOC2007/SSD_300x300_score/Main"
      output_name_prefix: "comp4_det_test_"
      output_format: "VOC"
      label_map_file: "data/VOC0712/labelmap_voc.prototxt"
      name_size_file: "data/VOC0712/test_name_size.txt"
      num_test_image: 4952
    }
    code_type: CENTER_SIZE
    keep_top_k: 200
    confidence_threshold: 0.01
  }
}
layer {
  name: "detection_eval"
  type: "DetectionEvaluate"
  bottom: "detection_out"
  bottom: "label"
  top: "detection_eval"
  include {
    phase: TEST
  }
  detection_evaluate_param {
    num_classes: 21
    background_label_id: 0
    overlap_threshold: 0.5
    evaluate_difficult_gt: false
    name_size_file: "data/VOC0712/test_name_size.txt"
  }
}
I0226 10:49:30.211055  3630 layer_factory.hpp:77] Creating layer data
I0226 10:49:30.211100  3630 net.cpp:100] Creating Layer data
I0226 10:49:30.211107  3630 net.cpp:408] data -> data
I0226 10:49:30.211112  3630 net.cpp:408] data -> label
I0226 10:49:30.211469  3655 db_lmdb.cpp:35] Opened lmdb examples/VOC0712/VOC0712_test_lmdb
I0226 10:49:30.213134  3630 annotated_data_layer.cpp:62] output data size: 8,3,300,300
I0226 10:49:30.223150  3630 net.cpp:150] Setting up data
I0226 10:49:30.223171  3630 net.cpp:157] Top shape: 8 3 300 300 (2160000)
I0226 10:49:30.223176  3630 net.cpp:157] Top shape: 1 1 2 8 (16)
I0226 10:49:30.223176  3630 net.cpp:165] Memory required for data: 8640064
I0226 10:49:30.223182  3630 layer_factory.hpp:77] Creating layer data_data_0_split
I0226 10:49:30.223196  3630 net.cpp:100] Creating Layer data_data_0_split
I0226 10:49:30.223199  3630 net.cpp:434] data_data_0_split <- data
I0226 10:49:30.223204  3630 net.cpp:408] data_data_0_split -> data_data_0_split_0
I0226 10:49:30.223214  3630 net.cpp:408] data_data_0_split -> data_data_0_split_1
I0226 10:49:30.223219  3630 net.cpp:408] data_data_0_split -> data_data_0_split_2
I0226 10:49:30.223224  3630 net.cpp:408] data_data_0_split -> data_data_0_split_3
I0226 10:49:30.223228  3630 net.cpp:408] data_data_0_split -> data_data_0_split_4
I0226 10:49:30.223232  3630 net.cpp:408] data_data_0_split -> data_data_0_split_5
I0226 10:49:30.223237  3630 net.cpp:408] data_data_0_split -> data_data_0_split_6
I0226 10:49:30.223312  3630 net.cpp:150] Setting up data_data_0_split
I0226 10:49:30.223317  3630 net.cpp:157] Top shape: 8 3 300 300 (2160000)
I0226 10:49:30.223320  3630 net.cpp:157] Top shape: 8 3 300 300 (2160000)
I0226 10:49:30.223322  3630 net.cpp:157] Top shape: 8 3 300 300 (2160000)
I0226 10:49:30.223325  3630 net.cpp:157] Top shape: 8 3 300 300 (2160000)
I0226 10:49:30.223327  3630 net.cpp:157] Top shape: 8 3 300 300 (2160000)
I0226 10:49:30.223330  3630 net.cpp:157] Top shape: 8 3 300 300 (2160000)
I0226 10:49:30.223332  3630 net.cpp:157] Top shape: 8 3 300 300 (2160000)
I0226 10:49:30.223335  3630 net.cpp:165] Memory required for data: 69120064
I0226 10:49:30.223336  3630 layer_factory.hpp:77] Creating layer conv1_1
I0226 10:49:30.223345  3630 net.cpp:100] Creating Layer conv1_1
I0226 10:49:30.223346  3630 net.cpp:434] conv1_1 <- data_data_0_split_0
I0226 10:49:30.223351  3630 net.cpp:408] conv1_1 -> conv1_1
I0226 10:49:30.223619  3630 net.cpp:150] Setting up conv1_1
I0226 10:49:30.223626  3630 net.cpp:157] Top shape: 8 64 300 300 (46080000)
I0226 10:49:30.223628  3630 net.cpp:165] Memory required for data: 253440064
I0226 10:49:30.223636  3630 layer_factory.hpp:77] Creating layer relu1_1
I0226 10:49:30.223640  3630 net.cpp:100] Creating Layer relu1_1
I0226 10:49:30.223642  3630 net.cpp:434] relu1_1 <- conv1_1
I0226 10:49:30.223645  3630 net.cpp:395] relu1_1 -> conv1_1 (in-place)
I0226 10:49:30.223649  3630 net.cpp:150] Setting up relu1_1
I0226 10:49:30.223652  3630 net.cpp:157] Top shape: 8 64 300 300 (46080000)
I0226 10:49:30.223654  3630 net.cpp:165] Memory required for data: 437760064
I0226 10:49:30.223656  3630 layer_factory.hpp:77] Creating layer conv1_2
I0226 10:49:30.223662  3630 net.cpp:100] Creating Layer conv1_2
I0226 10:49:30.223664  3630 net.cpp:434] conv1_2 <- conv1_1
I0226 10:49:30.223667  3630 net.cpp:408] conv1_2 -> conv1_2
I0226 10:49:30.224063  3630 net.cpp:150] Setting up conv1_2
I0226 10:49:30.224068  3630 net.cpp:157] Top shape: 8 64 300 300 (46080000)
I0226 10:49:30.224071  3630 net.cpp:165] Memory required for data: 622080064
I0226 10:49:30.224076  3630 layer_factory.hpp:77] Creating layer relu1_2
I0226 10:49:30.224079  3630 net.cpp:100] Creating Layer relu1_2
I0226 10:49:30.224081  3630 net.cpp:434] relu1_2 <- conv1_2
I0226 10:49:30.224084  3630 net.cpp:395] relu1_2 -> conv1_2 (in-place)
I0226 10:49:30.224087  3630 net.cpp:150] Setting up relu1_2
I0226 10:49:30.224090  3630 net.cpp:157] Top shape: 8 64 300 300 (46080000)
I0226 10:49:30.224092  3630 net.cpp:165] Memory required for data: 806400064
I0226 10:49:30.224094  3630 layer_factory.hpp:77] Creating layer pool1
I0226 10:49:30.224097  3630 net.cpp:100] Creating Layer pool1
I0226 10:49:30.224100  3630 net.cpp:434] pool1 <- conv1_2
I0226 10:49:30.224102  3630 net.cpp:408] pool1 -> pool1
I0226 10:49:30.224128  3630 net.cpp:150] Setting up pool1
I0226 10:49:30.224131  3630 net.cpp:157] Top shape: 8 64 150 150 (11520000)
I0226 10:49:30.224133  3630 net.cpp:165] Memory required for data: 852480064
I0226 10:49:30.224135  3630 layer_factory.hpp:77] Creating layer conv2_1
I0226 10:49:30.224140  3630 net.cpp:100] Creating Layer conv2_1
I0226 10:49:30.224143  3630 net.cpp:434] conv2_1 <- pool1
I0226 10:49:30.224146  3630 net.cpp:408] conv2_1 -> conv2_1
I0226 10:49:30.224683  3630 net.cpp:150] Setting up conv2_1
I0226 10:49:30.224687  3630 net.cpp:157] Top shape: 8 128 150 150 (23040000)
I0226 10:49:30.224689  3630 net.cpp:165] Memory required for data: 944640064
I0226 10:49:30.224694  3630 layer_factory.hpp:77] Creating layer relu2_1
I0226 10:49:30.224699  3630 net.cpp:100] Creating Layer relu2_1
I0226 10:49:30.224700  3630 net.cpp:434] relu2_1 <- conv2_1
I0226 10:49:30.224704  3630 net.cpp:395] relu2_1 -> conv2_1 (in-place)
I0226 10:49:30.224706  3630 net.cpp:150] Setting up relu2_1
I0226 10:49:30.224709  3630 net.cpp:157] Top shape: 8 128 150 150 (23040000)
I0226 10:49:30.224711  3630 net.cpp:165] Memory required for data: 1036800064
I0226 10:49:30.224712  3630 layer_factory.hpp:77] Creating layer conv2_2
I0226 10:49:30.224717  3630 net.cpp:100] Creating Layer conv2_2
I0226 10:49:30.224720  3630 net.cpp:434] conv2_2 <- conv2_1
I0226 10:49:30.224722  3630 net.cpp:408] conv2_2 -> conv2_2
I0226 10:49:30.225793  3630 net.cpp:150] Setting up conv2_2
I0226 10:49:30.225800  3630 net.cpp:157] Top shape: 8 128 150 150 (23040000)
I0226 10:49:30.225801  3630 net.cpp:165] Memory required for data: 1128960064
I0226 10:49:30.225805  3630 layer_factory.hpp:77] Creating layer relu2_2
I0226 10:49:30.225808  3630 net.cpp:100] Creating Layer relu2_2
I0226 10:49:30.225811  3630 net.cpp:434] relu2_2 <- conv2_2
I0226 10:49:30.225813  3630 net.cpp:395] relu2_2 -> conv2_2 (in-place)
I0226 10:49:30.225816  3630 net.cpp:150] Setting up relu2_2
I0226 10:49:30.225819  3630 net.cpp:157] Top shape: 8 128 150 150 (23040000)
I0226 10:49:30.225821  3630 net.cpp:165] Memory required for data: 1221120064
I0226 10:49:30.225823  3630 layer_factory.hpp:77] Creating layer pool2
I0226 10:49:30.225826  3630 net.cpp:100] Creating Layer pool2
I0226 10:49:30.225836  3630 net.cpp:434] pool2 <- conv2_2
I0226 10:49:30.225839  3630 net.cpp:408] pool2 -> pool2
I0226 10:49:30.225864  3630 net.cpp:150] Setting up pool2
I0226 10:49:30.225868  3630 net.cpp:157] Top shape: 8 128 75 75 (5760000)
I0226 10:49:30.225870  3630 net.cpp:165] Memory required for data: 1244160064
I0226 10:49:30.225873  3630 layer_factory.hpp:77] Creating layer conv3_1
I0226 10:49:30.225878  3630 net.cpp:100] Creating Layer conv3_1
I0226 10:49:30.225880  3630 net.cpp:434] conv3_1 <- pool2
I0226 10:49:30.225883  3630 net.cpp:408] conv3_1 -> conv3_1
I0226 10:49:30.228112  3630 net.cpp:150] Setting up conv3_1
I0226 10:49:30.228121  3630 net.cpp:157] Top shape: 8 256 75 75 (11520000)
I0226 10:49:30.228123  3630 net.cpp:165] Memory required for data: 1290240064
I0226 10:49:30.228129  3630 layer_factory.hpp:77] Creating layer relu3_1
I0226 10:49:30.228134  3630 net.cpp:100] Creating Layer relu3_1
I0226 10:49:30.228137  3630 net.cpp:434] relu3_1 <- conv3_1
I0226 10:49:30.228139  3630 net.cpp:395] relu3_1 -> conv3_1 (in-place)
I0226 10:49:30.228143  3630 net.cpp:150] Setting up relu3_1
I0226 10:49:30.228147  3630 net.cpp:157] Top shape: 8 256 75 75 (11520000)
I0226 10:49:30.228148  3630 net.cpp:165] Memory required for data: 1336320064
I0226 10:49:30.228150  3630 layer_factory.hpp:77] Creating layer conv3_2
I0226 10:49:30.228155  3630 net.cpp:100] Creating Layer conv3_2
I0226 10:49:30.228157  3630 net.cpp:434] conv3_2 <- conv3_1
I0226 10:49:30.228160  3630 net.cpp:408] conv3_2 -> conv3_2
I0226 10:49:30.231927  3630 net.cpp:150] Setting up conv3_2
I0226 10:49:30.231938  3630 net.cpp:157] Top shape: 8 256 75 75 (11520000)
I0226 10:49:30.231940  3630 net.cpp:165] Memory required for data: 1382400064
I0226 10:49:30.231945  3630 layer_factory.hpp:77] Creating layer relu3_2
I0226 10:49:30.231950  3630 net.cpp:100] Creating Layer relu3_2
I0226 10:49:30.231951  3630 net.cpp:434] relu3_2 <- conv3_2
I0226 10:49:30.231956  3630 net.cpp:395] relu3_2 -> conv3_2 (in-place)
I0226 10:49:30.231959  3630 net.cpp:150] Setting up relu3_2
I0226 10:49:30.231962  3630 net.cpp:157] Top shape: 8 256 75 75 (11520000)
I0226 10:49:30.231964  3630 net.cpp:165] Memory required for data: 1428480064
I0226 10:49:30.231966  3630 layer_factory.hpp:77] Creating layer conv3_3
I0226 10:49:30.231972  3630 net.cpp:100] Creating Layer conv3_3
I0226 10:49:30.231974  3630 net.cpp:434] conv3_3 <- conv3_2
I0226 10:49:30.231978  3630 net.cpp:408] conv3_3 -> conv3_3
I0226 10:49:30.235819  3630 net.cpp:150] Setting up conv3_3
I0226 10:49:30.235831  3630 net.cpp:157] Top shape: 8 256 75 75 (11520000)
I0226 10:49:30.235833  3630 net.cpp:165] Memory required for data: 1474560064
I0226 10:49:30.235838  3630 layer_factory.hpp:77] Creating layer relu3_3
I0226 10:49:30.235843  3630 net.cpp:100] Creating Layer relu3_3
I0226 10:49:30.235846  3630 net.cpp:434] relu3_3 <- conv3_3
I0226 10:49:30.235849  3630 net.cpp:395] relu3_3 -> conv3_3 (in-place)
I0226 10:49:30.235854  3630 net.cpp:150] Setting up relu3_3
I0226 10:49:30.235857  3630 net.cpp:157] Top shape: 8 256 75 75 (11520000)
I0226 10:49:30.235860  3630 net.cpp:165] Memory required for data: 1520640064
I0226 10:49:30.235862  3630 layer_factory.hpp:77] Creating layer pool3
I0226 10:49:30.235867  3630 net.cpp:100] Creating Layer pool3
I0226 10:49:30.235868  3630 net.cpp:434] pool3 <- conv3_3
I0226 10:49:30.235883  3630 net.cpp:408] pool3 -> pool3
I0226 10:49:30.235919  3630 net.cpp:150] Setting up pool3
I0226 10:49:30.235924  3630 net.cpp:157] Top shape: 8 256 38 38 (2957312)
I0226 10:49:30.235925  3630 net.cpp:165] Memory required for data: 1532469312
I0226 10:49:30.235929  3630 layer_factory.hpp:77] Creating layer conv4_1
I0226 10:49:30.235934  3630 net.cpp:100] Creating Layer conv4_1
I0226 10:49:30.235936  3630 net.cpp:434] conv4_1 <- pool3
I0226 10:49:30.235940  3630 net.cpp:408] conv4_1 -> conv4_1
I0226 10:49:30.243512  3630 net.cpp:150] Setting up conv4_1
I0226 10:49:30.243528  3630 net.cpp:157] Top shape: 8 512 38 38 (5914624)
I0226 10:49:30.243531  3630 net.cpp:165] Memory required for data: 1556127808
I0226 10:49:30.243556  3630 layer_factory.hpp:77] Creating layer relu4_1
I0226 10:49:30.243564  3630 net.cpp:100] Creating Layer relu4_1
I0226 10:49:30.243567  3630 net.cpp:434] relu4_1 <- conv4_1
I0226 10:49:30.243572  3630 net.cpp:395] relu4_1 -> conv4_1 (in-place)
I0226 10:49:30.243577  3630 net.cpp:150] Setting up relu4_1
I0226 10:49:30.243582  3630 net.cpp:157] Top shape: 8 512 38 38 (5914624)
I0226 10:49:30.243584  3630 net.cpp:165] Memory required for data: 1579786304
I0226 10:49:30.243587  3630 layer_factory.hpp:77] Creating layer conv4_2
I0226 10:49:30.243592  3630 net.cpp:100] Creating Layer conv4_2
I0226 10:49:30.243594  3630 net.cpp:434] conv4_2 <- conv4_1
I0226 10:49:30.243598  3630 net.cpp:408] conv4_2 -> conv4_2
I0226 10:49:30.258288  3630 net.cpp:150] Setting up conv4_2
I0226 10:49:30.258307  3630 net.cpp:157] Top shape: 8 512 38 38 (5914624)
I0226 10:49:30.258311  3630 net.cpp:165] Memory required for data: 1603444800
I0226 10:49:30.258321  3630 layer_factory.hpp:77] Creating layer relu4_2
I0226 10:49:30.258327  3630 net.cpp:100] Creating Layer relu4_2
I0226 10:49:30.258328  3630 net.cpp:434] relu4_2 <- conv4_2
I0226 10:49:30.258335  3630 net.cpp:395] relu4_2 -> conv4_2 (in-place)
I0226 10:49:30.258342  3630 net.cpp:150] Setting up relu4_2
I0226 10:49:30.258345  3630 net.cpp:157] Top shape: 8 512 38 38 (5914624)
I0226 10:49:30.258347  3630 net.cpp:165] Memory required for data: 1627103296
I0226 10:49:30.258349  3630 layer_factory.hpp:77] Creating layer conv4_3
I0226 10:49:30.258357  3630 net.cpp:100] Creating Layer conv4_3
I0226 10:49:30.258358  3630 net.cpp:434] conv4_3 <- conv4_2
I0226 10:49:30.258363  3630 net.cpp:408] conv4_3 -> conv4_3
I0226 10:49:30.273100  3630 net.cpp:150] Setting up conv4_3
I0226 10:49:30.273116  3630 net.cpp:157] Top shape: 8 512 38 38 (5914624)
I0226 10:49:30.273119  3630 net.cpp:165] Memory required for data: 1650761792
I0226 10:49:30.273125  3630 layer_factory.hpp:77] Creating layer relu4_3
I0226 10:49:30.273131  3630 net.cpp:100] Creating Layer relu4_3
I0226 10:49:30.273134  3630 net.cpp:434] relu4_3 <- conv4_3
I0226 10:49:30.273139  3630 net.cpp:395] relu4_3 -> conv4_3 (in-place)
I0226 10:49:30.273145  3630 net.cpp:150] Setting up relu4_3
I0226 10:49:30.273149  3630 net.cpp:157] Top shape: 8 512 38 38 (5914624)
I0226 10:49:30.273150  3630 net.cpp:165] Memory required for data: 1674420288
I0226 10:49:30.273152  3630 layer_factory.hpp:77] Creating layer conv4_3_relu4_3_0_split
I0226 10:49:30.273156  3630 net.cpp:100] Creating Layer conv4_3_relu4_3_0_split
I0226 10:49:30.273159  3630 net.cpp:434] conv4_3_relu4_3_0_split <- conv4_3
I0226 10:49:30.273162  3630 net.cpp:408] conv4_3_relu4_3_0_split -> conv4_3_relu4_3_0_split_0
I0226 10:49:30.273166  3630 net.cpp:408] conv4_3_relu4_3_0_split -> conv4_3_relu4_3_0_split_1
I0226 10:49:30.273193  3630 net.cpp:150] Setting up conv4_3_relu4_3_0_split
I0226 10:49:30.273198  3630 net.cpp:157] Top shape: 8 512 38 38 (5914624)
I0226 10:49:30.273200  3630 net.cpp:157] Top shape: 8 512 38 38 (5914624)
I0226 10:49:30.273202  3630 net.cpp:165] Memory required for data: 1721737280
I0226 10:49:30.273205  3630 layer_factory.hpp:77] Creating layer pool4
I0226 10:49:30.273208  3630 net.cpp:100] Creating Layer pool4
I0226 10:49:30.273211  3630 net.cpp:434] pool4 <- conv4_3_relu4_3_0_split_0
I0226 10:49:30.273214  3630 net.cpp:408] pool4 -> pool4
I0226 10:49:30.273237  3630 net.cpp:150] Setting up pool4
I0226 10:49:30.273241  3630 net.cpp:157] Top shape: 8 512 19 19 (1478656)
I0226 10:49:30.273243  3630 net.cpp:165] Memory required for data: 1727651904
I0226 10:49:30.273246  3630 layer_factory.hpp:77] Creating layer conv5_1
I0226 10:49:30.273252  3630 net.cpp:100] Creating Layer conv5_1
I0226 10:49:30.273253  3630 net.cpp:434] conv5_1 <- pool4
I0226 10:49:30.273257  3630 net.cpp:408] conv5_1 -> conv5_1
I0226 10:49:30.287744  3630 net.cpp:150] Setting up conv5_1
I0226 10:49:30.287760  3630 net.cpp:157] Top shape: 8 512 19 19 (1478656)
I0226 10:49:30.287762  3630 net.cpp:165] Memory required for data: 1733566528
I0226 10:49:30.287786  3630 layer_factory.hpp:77] Creating layer relu5_1
I0226 10:49:30.287793  3630 net.cpp:100] Creating Layer relu5_1
I0226 10:49:30.287796  3630 net.cpp:434] relu5_1 <- conv5_1
I0226 10:49:30.287802  3630 net.cpp:395] relu5_1 -> conv5_1 (in-place)
I0226 10:49:30.287807  3630 net.cpp:150] Setting up relu5_1
I0226 10:49:30.287811  3630 net.cpp:157] Top shape: 8 512 19 19 (1478656)
I0226 10:49:30.287813  3630 net.cpp:165] Memory required for data: 1739481152
I0226 10:49:30.287817  3630 layer_factory.hpp:77] Creating layer conv5_2
I0226 10:49:30.287823  3630 net.cpp:100] Creating Layer conv5_2
I0226 10:49:30.287827  3630 net.cpp:434] conv5_2 <- conv5_1
I0226 10:49:30.287829  3630 net.cpp:408] conv5_2 -> conv5_2
I0226 10:49:30.302985  3630 net.cpp:150] Setting up conv5_2
I0226 10:49:30.303004  3630 net.cpp:157] Top shape: 8 512 19 19 (1478656)
I0226 10:49:30.303006  3630 net.cpp:165] Memory required for data: 1745395776
I0226 10:49:30.303014  3630 layer_factory.hpp:77] Creating layer relu5_2
I0226 10:49:30.303020  3630 net.cpp:100] Creating Layer relu5_2
I0226 10:49:30.303022  3630 net.cpp:434] relu5_2 <- conv5_2
I0226 10:49:30.303026  3630 net.cpp:395] relu5_2 -> conv5_2 (in-place)
I0226 10:49:30.303032  3630 net.cpp:150] Setting up relu5_2
I0226 10:49:30.303036  3630 net.cpp:157] Top shape: 8 512 19 19 (1478656)
I0226 10:49:30.303037  3630 net.cpp:165] Memory required for data: 1751310400
I0226 10:49:30.303040  3630 layer_factory.hpp:77] Creating layer conv5_3
I0226 10:49:30.303048  3630 net.cpp:100] Creating Layer conv5_3
I0226 10:49:30.303050  3630 net.cpp:434] conv5_3 <- conv5_2
I0226 10:49:30.303055  3630 net.cpp:408] conv5_3 -> conv5_3
I0226 10:49:30.317790  3630 net.cpp:150] Setting up conv5_3
I0226 10:49:30.317809  3630 net.cpp:157] Top shape: 8 512 19 19 (1478656)
I0226 10:49:30.317812  3630 net.cpp:165] Memory required for data: 1757225024
I0226 10:49:30.317817  3630 layer_factory.hpp:77] Creating layer relu5_3
I0226 10:49:30.317827  3630 net.cpp:100] Creating Layer relu5_3
I0226 10:49:30.317831  3630 net.cpp:434] relu5_3 <- conv5_3
I0226 10:49:30.317836  3630 net.cpp:395] relu5_3 -> conv5_3 (in-place)
I0226 10:49:30.317842  3630 net.cpp:150] Setting up relu5_3
I0226 10:49:30.317845  3630 net.cpp:157] Top shape: 8 512 19 19 (1478656)
I0226 10:49:30.317847  3630 net.cpp:165] Memory required for data: 1763139648
I0226 10:49:30.317849  3630 layer_factory.hpp:77] Creating layer pool5
I0226 10:49:30.317854  3630 net.cpp:100] Creating Layer pool5
I0226 10:49:30.317857  3630 net.cpp:434] pool5 <- conv5_3
I0226 10:49:30.317859  3630 net.cpp:408] pool5 -> pool5
I0226 10:49:30.317895  3630 net.cpp:150] Setting up pool5
I0226 10:49:30.317899  3630 net.cpp:157] Top shape: 8 512 19 19 (1478656)
I0226 10:49:30.317903  3630 net.cpp:165] Memory required for data: 1769054272
I0226 10:49:30.317904  3630 layer_factory.hpp:77] Creating layer fc6
I0226 10:49:30.317911  3630 net.cpp:100] Creating Layer fc6
I0226 10:49:30.317914  3630 net.cpp:434] fc6 <- pool5
I0226 10:49:30.317919  3630 net.cpp:408] fc6 -> fc6
I0226 10:49:30.346812  3630 net.cpp:150] Setting up fc6
I0226 10:49:30.346830  3630 net.cpp:157] Top shape: 8 1024 19 19 (2957312)
I0226 10:49:30.346833  3630 net.cpp:165] Memory required for data: 1780883520
I0226 10:49:30.346839  3630 layer_factory.hpp:77] Creating layer relu6
I0226 10:49:30.346845  3630 net.cpp:100] Creating Layer relu6
I0226 10:49:30.346849  3630 net.cpp:434] relu6 <- fc6
I0226 10:49:30.346854  3630 net.cpp:395] relu6 -> fc6 (in-place)
I0226 10:49:30.346861  3630 net.cpp:150] Setting up relu6
I0226 10:49:30.346864  3630 net.cpp:157] Top shape: 8 1024 19 19 (2957312)
I0226 10:49:30.346866  3630 net.cpp:165] Memory required for data: 1792712768
I0226 10:49:30.346868  3630 layer_factory.hpp:77] Creating layer fc7
I0226 10:49:30.346878  3630 net.cpp:100] Creating Layer fc7
I0226 10:49:30.346879  3630 net.cpp:434] fc7 <- fc6
I0226 10:49:30.346884  3630 net.cpp:408] fc7 -> fc7
I0226 10:49:30.353412  3630 net.cpp:150] Setting up fc7
I0226 10:49:30.353427  3630 net.cpp:157] Top shape: 8 1024 19 19 (2957312)
I0226 10:49:30.353444  3630 net.cpp:165] Memory required for data: 1804542016
I0226 10:49:30.353451  3630 layer_factory.hpp:77] Creating layer relu7
I0226 10:49:30.353456  3630 net.cpp:100] Creating Layer relu7
I0226 10:49:30.353459  3630 net.cpp:434] relu7 <- fc7
I0226 10:49:30.353463  3630 net.cpp:395] relu7 -> fc7 (in-place)
I0226 10:49:30.353469  3630 net.cpp:150] Setting up relu7
I0226 10:49:30.353472  3630 net.cpp:157] Top shape: 8 1024 19 19 (2957312)
I0226 10:49:30.353474  3630 net.cpp:165] Memory required for data: 1816371264
I0226 10:49:30.353477  3630 layer_factory.hpp:77] Creating layer fc7_relu7_0_split
I0226 10:49:30.353480  3630 net.cpp:100] Creating Layer fc7_relu7_0_split
I0226 10:49:30.353483  3630 net.cpp:434] fc7_relu7_0_split <- fc7
I0226 10:49:30.353488  3630 net.cpp:408] fc7_relu7_0_split -> fc7_relu7_0_split_0
I0226 10:49:30.353493  3630 net.cpp:408] fc7_relu7_0_split -> fc7_relu7_0_split_1
I0226 10:49:30.353503  3630 net.cpp:408] fc7_relu7_0_split -> fc7_relu7_0_split_2
I0226 10:49:30.353507  3630 net.cpp:408] fc7_relu7_0_split -> fc7_relu7_0_split_3
I0226 10:49:30.353552  3630 net.cpp:150] Setting up fc7_relu7_0_split
I0226 10:49:30.353557  3630 net.cpp:157] Top shape: 8 1024 19 19 (2957312)
I0226 10:49:30.353561  3630 net.cpp:157] Top shape: 8 1024 19 19 (2957312)
I0226 10:49:30.353564  3630 net.cpp:157] Top shape: 8 1024 19 19 (2957312)
I0226 10:49:30.353565  3630 net.cpp:157] Top shape: 8 1024 19 19 (2957312)
I0226 10:49:30.353567  3630 net.cpp:165] Memory required for data: 1863688256
I0226 10:49:30.353569  3630 layer_factory.hpp:77] Creating layer conv6_1
I0226 10:49:30.353576  3630 net.cpp:100] Creating Layer conv6_1
I0226 10:49:30.353579  3630 net.cpp:434] conv6_1 <- fc7_relu7_0_split_0
I0226 10:49:30.353584  3630 net.cpp:408] conv6_1 -> conv6_1
I0226 10:49:30.355710  3630 net.cpp:150] Setting up conv6_1
I0226 10:49:30.355718  3630 net.cpp:157] Top shape: 8 256 19 19 (739328)
I0226 10:49:30.355720  3630 net.cpp:165] Memory required for data: 1866645568
I0226 10:49:30.355725  3630 layer_factory.hpp:77] Creating layer conv6_1_relu
I0226 10:49:30.355729  3630 net.cpp:100] Creating Layer conv6_1_relu
I0226 10:49:30.355731  3630 net.cpp:434] conv6_1_relu <- conv6_1
I0226 10:49:30.355736  3630 net.cpp:395] conv6_1_relu -> conv6_1 (in-place)
I0226 10:49:30.355739  3630 net.cpp:150] Setting up conv6_1_relu
I0226 10:49:30.355742  3630 net.cpp:157] Top shape: 8 256 19 19 (739328)
I0226 10:49:30.355746  3630 net.cpp:165] Memory required for data: 1869602880
I0226 10:49:30.355747  3630 layer_factory.hpp:77] Creating layer conv6_2
I0226 10:49:30.355752  3630 net.cpp:100] Creating Layer conv6_2
I0226 10:49:30.355756  3630 net.cpp:434] conv6_2 <- conv6_1
I0226 10:49:30.355758  3630 net.cpp:408] conv6_2 -> conv6_2
I0226 10:49:30.363034  3630 net.cpp:150] Setting up conv6_2
I0226 10:49:30.363052  3630 net.cpp:157] Top shape: 8 512 10 10 (409600)
I0226 10:49:30.363055  3630 net.cpp:165] Memory required for data: 1871241280
I0226 10:49:30.363075  3630 layer_factory.hpp:77] Creating layer conv6_2_relu
I0226 10:49:30.363081  3630 net.cpp:100] Creating Layer conv6_2_relu
I0226 10:49:30.363086  3630 net.cpp:434] conv6_2_relu <- conv6_2
I0226 10:49:30.363092  3630 net.cpp:395] conv6_2_relu -> conv6_2 (in-place)
I0226 10:49:30.363098  3630 net.cpp:150] Setting up conv6_2_relu
I0226 10:49:30.363101  3630 net.cpp:157] Top shape: 8 512 10 10 (409600)
I0226 10:49:30.363103  3630 net.cpp:165] Memory required for data: 1872879680
I0226 10:49:30.363106  3630 layer_factory.hpp:77] Creating layer conv6_2_conv6_2_relu_0_split
I0226 10:49:30.363111  3630 net.cpp:100] Creating Layer conv6_2_conv6_2_relu_0_split
I0226 10:49:30.363112  3630 net.cpp:434] conv6_2_conv6_2_relu_0_split <- conv6_2
I0226 10:49:30.363116  3630 net.cpp:408] conv6_2_conv6_2_relu_0_split -> conv6_2_conv6_2_relu_0_split_0
I0226 10:49:30.363121  3630 net.cpp:408] conv6_2_conv6_2_relu_0_split -> conv6_2_conv6_2_relu_0_split_1
I0226 10:49:30.363127  3630 net.cpp:408] conv6_2_conv6_2_relu_0_split -> conv6_2_conv6_2_relu_0_split_2
I0226 10:49:30.363131  3630 net.cpp:408] conv6_2_conv6_2_relu_0_split -> conv6_2_conv6_2_relu_0_split_3
I0226 10:49:30.363195  3630 net.cpp:150] Setting up conv6_2_conv6_2_relu_0_split
I0226 10:49:30.363200  3630 net.cpp:157] Top shape: 8 512 10 10 (409600)
I0226 10:49:30.363204  3630 net.cpp:157] Top shape: 8 512 10 10 (409600)
I0226 10:49:30.363205  3630 net.cpp:157] Top shape: 8 512 10 10 (409600)
I0226 10:49:30.363207  3630 net.cpp:157] Top shape: 8 512 10 10 (409600)
I0226 10:49:30.363210  3630 net.cpp:165] Memory required for data: 1879433280
I0226 10:49:30.363212  3630 layer_factory.hpp:77] Creating layer conv7_1
I0226 10:49:30.363221  3630 net.cpp:100] Creating Layer conv7_1
I0226 10:49:30.363224  3630 net.cpp:434] conv7_1 <- conv6_2_conv6_2_relu_0_split_0
I0226 10:49:30.363229  3630 net.cpp:408] conv7_1 -> conv7_1
I0226 10:49:30.363744  3630 net.cpp:150] Setting up conv7_1
I0226 10:49:30.363749  3630 net.cpp:157] Top shape: 8 128 10 10 (102400)
I0226 10:49:30.363751  3630 net.cpp:165] Memory required for data: 1879842880
I0226 10:49:30.363755  3630 layer_factory.hpp:77] Creating layer conv7_1_relu
I0226 10:49:30.363759  3630 net.cpp:100] Creating Layer conv7_1_relu
I0226 10:49:30.363761  3630 net.cpp:434] conv7_1_relu <- conv7_1
I0226 10:49:30.363765  3630 net.cpp:395] conv7_1_relu -> conv7_1 (in-place)
I0226 10:49:30.363770  3630 net.cpp:150] Setting up conv7_1_relu
I0226 10:49:30.363773  3630 net.cpp:157] Top shape: 8 128 10 10 (102400)
I0226 10:49:30.363775  3630 net.cpp:165] Memory required for data: 1880252480
I0226 10:49:30.363777  3630 layer_factory.hpp:77] Creating layer conv7_2
I0226 10:49:30.363782  3630 net.cpp:100] Creating Layer conv7_2
I0226 10:49:30.363785  3630 net.cpp:434] conv7_2 <- conv7_1
I0226 10:49:30.363788  3630 net.cpp:408] conv7_2 -> conv7_2
I0226 10:49:30.366304  3630 net.cpp:150] Setting up conv7_2
I0226 10:49:30.366318  3630 net.cpp:157] Top shape: 8 256 5 5 (51200)
I0226 10:49:30.366320  3630 net.cpp:165] Memory required for data: 1880457280
I0226 10:49:30.366328  3630 layer_factory.hpp:77] Creating layer conv7_2_relu
I0226 10:49:30.366333  3630 net.cpp:100] Creating Layer conv7_2_relu
I0226 10:49:30.366338  3630 net.cpp:434] conv7_2_relu <- conv7_2
I0226 10:49:30.366343  3630 net.cpp:395] conv7_2_relu -> conv7_2 (in-place)
I0226 10:49:30.366348  3630 net.cpp:150] Setting up conv7_2_relu
I0226 10:49:30.366351  3630 net.cpp:157] Top shape: 8 256 5 5 (51200)
I0226 10:49:30.366354  3630 net.cpp:165] Memory required for data: 1880662080
I0226 10:49:30.366356  3630 layer_factory.hpp:77] Creating layer conv7_2_conv7_2_relu_0_split
I0226 10:49:30.366359  3630 net.cpp:100] Creating Layer conv7_2_conv7_2_relu_0_split
I0226 10:49:30.366363  3630 net.cpp:434] conv7_2_conv7_2_relu_0_split <- conv7_2
I0226 10:49:30.366367  3630 net.cpp:408] conv7_2_conv7_2_relu_0_split -> conv7_2_conv7_2_relu_0_split_0
I0226 10:49:30.366372  3630 net.cpp:408] conv7_2_conv7_2_relu_0_split -> conv7_2_conv7_2_relu_0_split_1
I0226 10:49:30.366377  3630 net.cpp:408] conv7_2_conv7_2_relu_0_split -> conv7_2_conv7_2_relu_0_split_2
I0226 10:49:30.366382  3630 net.cpp:408] conv7_2_conv7_2_relu_0_split -> conv7_2_conv7_2_relu_0_split_3
I0226 10:49:30.366430  3630 net.cpp:150] Setting up conv7_2_conv7_2_relu_0_split
I0226 10:49:30.366435  3630 net.cpp:157] Top shape: 8 256 5 5 (51200)
I0226 10:49:30.366437  3630 net.cpp:157] Top shape: 8 256 5 5 (51200)
I0226 10:49:30.366439  3630 net.cpp:157] Top shape: 8 256 5 5 (51200)
I0226 10:49:30.366443  3630 net.cpp:157] Top shape: 8 256 5 5 (51200)
I0226 10:49:30.366444  3630 net.cpp:165] Memory required for data: 1881481280
I0226 10:49:30.366447  3630 layer_factory.hpp:77] Creating layer conv8_1
I0226 10:49:30.366453  3630 net.cpp:100] Creating Layer conv8_1
I0226 10:49:30.366457  3630 net.cpp:434] conv8_1 <- conv7_2_conv7_2_relu_0_split_0
I0226 10:49:30.366461  3630 net.cpp:408] conv8_1 -> conv8_1
I0226 10:49:30.366796  3630 net.cpp:150] Setting up conv8_1
I0226 10:49:30.366802  3630 net.cpp:157] Top shape: 8 128 5 5 (25600)
I0226 10:49:30.366806  3630 net.cpp:165] Memory required for data: 1881583680
I0226 10:49:30.366821  3630 layer_factory.hpp:77] Creating layer conv8_1_relu
I0226 10:49:30.366824  3630 net.cpp:100] Creating Layer conv8_1_relu
I0226 10:49:30.366827  3630 net.cpp:434] conv8_1_relu <- conv8_1
I0226 10:49:30.366829  3630 net.cpp:395] conv8_1_relu -> conv8_1 (in-place)
I0226 10:49:30.366833  3630 net.cpp:150] Setting up conv8_1_relu
I0226 10:49:30.366837  3630 net.cpp:157] Top shape: 8 128 5 5 (25600)
I0226 10:49:30.366838  3630 net.cpp:165] Memory required for data: 1881686080
I0226 10:49:30.366840  3630 layer_factory.hpp:77] Creating layer conv8_2
I0226 10:49:30.366847  3630 net.cpp:100] Creating Layer conv8_2
I0226 10:49:30.366848  3630 net.cpp:434] conv8_2 <- conv8_1
I0226 10:49:30.366852  3630 net.cpp:408] conv8_2 -> conv8_2
I0226 10:49:30.369134  3630 net.cpp:150] Setting up conv8_2
I0226 10:49:30.369143  3630 net.cpp:157] Top shape: 8 256 3 3 (18432)
I0226 10:49:30.369145  3630 net.cpp:165] Memory required for data: 1881759808
I0226 10:49:30.369150  3630 layer_factory.hpp:77] Creating layer conv8_2_relu
I0226 10:49:30.369158  3630 net.cpp:100] Creating Layer conv8_2_relu
I0226 10:49:30.369163  3630 net.cpp:434] conv8_2_relu <- conv8_2
I0226 10:49:30.369166  3630 net.cpp:395] conv8_2_relu -> conv8_2 (in-place)
I0226 10:49:30.369173  3630 net.cpp:150] Setting up conv8_2_relu
I0226 10:49:30.369176  3630 net.cpp:157] Top shape: 8 256 3 3 (18432)
I0226 10:49:30.369179  3630 net.cpp:165] Memory required for data: 1881833536
I0226 10:49:30.369180  3630 layer_factory.hpp:77] Creating layer conv8_2_conv8_2_relu_0_split
I0226 10:49:30.369184  3630 net.cpp:100] Creating Layer conv8_2_conv8_2_relu_0_split
I0226 10:49:30.369187  3630 net.cpp:434] conv8_2_conv8_2_relu_0_split <- conv8_2
I0226 10:49:30.369191  3630 net.cpp:408] conv8_2_conv8_2_relu_0_split -> conv8_2_conv8_2_relu_0_split_0
I0226 10:49:30.369196  3630 net.cpp:408] conv8_2_conv8_2_relu_0_split -> conv8_2_conv8_2_relu_0_split_1
I0226 10:49:30.369201  3630 net.cpp:408] conv8_2_conv8_2_relu_0_split -> conv8_2_conv8_2_relu_0_split_2
I0226 10:49:30.369206  3630 net.cpp:408] conv8_2_conv8_2_relu_0_split -> conv8_2_conv8_2_relu_0_split_3
I0226 10:49:30.369252  3630 net.cpp:150] Setting up conv8_2_conv8_2_relu_0_split
I0226 10:49:30.369256  3630 net.cpp:157] Top shape: 8 256 3 3 (18432)
I0226 10:49:30.369259  3630 net.cpp:157] Top shape: 8 256 3 3 (18432)
I0226 10:49:30.369262  3630 net.cpp:157] Top shape: 8 256 3 3 (18432)
I0226 10:49:30.369264  3630 net.cpp:157] Top shape: 8 256 3 3 (18432)
I0226 10:49:30.369266  3630 net.cpp:165] Memory required for data: 1882128448
I0226 10:49:30.369268  3630 layer_factory.hpp:77] Creating layer conv9_1
I0226 10:49:30.369277  3630 net.cpp:100] Creating Layer conv9_1
I0226 10:49:30.369280  3630 net.cpp:434] conv9_1 <- conv8_2_conv8_2_relu_0_split_0
I0226 10:49:30.369287  3630 net.cpp:408] conv9_1 -> conv9_1
I0226 10:49:30.370198  3630 net.cpp:150] Setting up conv9_1
I0226 10:49:30.370206  3630 net.cpp:157] Top shape: 8 128 3 3 (9216)
I0226 10:49:30.370208  3630 net.cpp:165] Memory required for data: 1882165312
I0226 10:49:30.370213  3630 layer_factory.hpp:77] Creating layer conv9_1_relu
I0226 10:49:30.370216  3630 net.cpp:100] Creating Layer conv9_1_relu
I0226 10:49:30.370220  3630 net.cpp:434] conv9_1_relu <- conv9_1
I0226 10:49:30.370224  3630 net.cpp:395] conv9_1_relu -> conv9_1 (in-place)
I0226 10:49:30.370229  3630 net.cpp:150] Setting up conv9_1_relu
I0226 10:49:30.370232  3630 net.cpp:157] Top shape: 8 128 3 3 (9216)
I0226 10:49:30.370235  3630 net.cpp:165] Memory required for data: 1882202176
I0226 10:49:30.370237  3630 layer_factory.hpp:77] Creating layer conv9_2
I0226 10:49:30.370244  3630 net.cpp:100] Creating Layer conv9_2
I0226 10:49:30.370247  3630 net.cpp:434] conv9_2 <- conv9_1
I0226 10:49:30.370252  3630 net.cpp:408] conv9_2 -> conv9_2
I0226 10:49:30.372617  3630 net.cpp:150] Setting up conv9_2
I0226 10:49:30.372625  3630 net.cpp:157] Top shape: 8 256 1 1 (2048)
I0226 10:49:30.372627  3630 net.cpp:165] Memory required for data: 1882210368
I0226 10:49:30.372632  3630 layer_factory.hpp:77] Creating layer conv9_2_relu
I0226 10:49:30.372650  3630 net.cpp:100] Creating Layer conv9_2_relu
I0226 10:49:30.372653  3630 net.cpp:434] conv9_2_relu <- conv9_2
I0226 10:49:30.372658  3630 net.cpp:395] conv9_2_relu -> conv9_2 (in-place)
I0226 10:49:30.372664  3630 net.cpp:150] Setting up conv9_2_relu
I0226 10:49:30.372669  3630 net.cpp:157] Top shape: 8 256 1 1 (2048)
I0226 10:49:30.372673  3630 net.cpp:165] Memory required for data: 1882218560
I0226 10:49:30.372676  3630 layer_factory.hpp:77] Creating layer conv9_2_conv9_2_relu_0_split
I0226 10:49:30.372684  3630 net.cpp:100] Creating Layer conv9_2_conv9_2_relu_0_split
I0226 10:49:30.372686  3630 net.cpp:434] conv9_2_conv9_2_relu_0_split <- conv9_2
I0226 10:49:30.372690  3630 net.cpp:408] conv9_2_conv9_2_relu_0_split -> conv9_2_conv9_2_relu_0_split_0
I0226 10:49:30.372695  3630 net.cpp:408] conv9_2_conv9_2_relu_0_split -> conv9_2_conv9_2_relu_0_split_1
I0226 10:49:30.372700  3630 net.cpp:408] conv9_2_conv9_2_relu_0_split -> conv9_2_conv9_2_relu_0_split_2
I0226 10:49:30.372740  3630 net.cpp:150] Setting up conv9_2_conv9_2_relu_0_split
I0226 10:49:30.372745  3630 net.cpp:157] Top shape: 8 256 1 1 (2048)
I0226 10:49:30.372750  3630 net.cpp:157] Top shape: 8 256 1 1 (2048)
I0226 10:49:30.372756  3630 net.cpp:157] Top shape: 8 256 1 1 (2048)
I0226 10:49:30.372759  3630 net.cpp:165] Memory required for data: 1882243136
I0226 10:49:30.372762  3630 layer_factory.hpp:77] Creating layer conv4_3_norm
I0226 10:49:30.372769  3630 net.cpp:100] Creating Layer conv4_3_norm
I0226 10:49:30.372773  3630 net.cpp:434] conv4_3_norm <- conv4_3_relu4_3_0_split_1
I0226 10:49:30.372777  3630 net.cpp:408] conv4_3_norm -> conv4_3_norm
I0226 10:49:30.372887  3630 net.cpp:150] Setting up conv4_3_norm
I0226 10:49:30.372892  3630 net.cpp:157] Top shape: 8 512 38 38 (5914624)
I0226 10:49:30.372895  3630 net.cpp:165] Memory required for data: 1905901632
I0226 10:49:30.372898  3630 layer_factory.hpp:77] Creating layer conv4_3_norm_conv4_3_norm_0_split
I0226 10:49:30.372901  3630 net.cpp:100] Creating Layer conv4_3_norm_conv4_3_norm_0_split
I0226 10:49:30.372905  3630 net.cpp:434] conv4_3_norm_conv4_3_norm_0_split <- conv4_3_norm
I0226 10:49:30.372910  3630 net.cpp:408] conv4_3_norm_conv4_3_norm_0_split -> conv4_3_norm_conv4_3_norm_0_split_0
I0226 10:49:30.372915  3630 net.cpp:408] conv4_3_norm_conv4_3_norm_0_split -> conv4_3_norm_conv4_3_norm_0_split_1
I0226 10:49:30.372918  3630 net.cpp:408] conv4_3_norm_conv4_3_norm_0_split -> conv4_3_norm_conv4_3_norm_0_split_2
I0226 10:49:30.372951  3630 net.cpp:150] Setting up conv4_3_norm_conv4_3_norm_0_split
I0226 10:49:30.372956  3630 net.cpp:157] Top shape: 8 512 38 38 (5914624)
I0226 10:49:30.372962  3630 net.cpp:157] Top shape: 8 512 38 38 (5914624)
I0226 10:49:30.372967  3630 net.cpp:157] Top shape: 8 512 38 38 (5914624)
I0226 10:49:30.372970  3630 net.cpp:165] Memory required for data: 1976877120
I0226 10:49:30.372975  3630 layer_factory.hpp:77] Creating layer conv4_3_norm_mbox_loc
I0226 10:49:30.372985  3630 net.cpp:100] Creating Layer conv4_3_norm_mbox_loc
I0226 10:49:30.372988  3630 net.cpp:434] conv4_3_norm_mbox_loc <- conv4_3_norm_conv4_3_norm_0_split_0
I0226 10:49:30.372994  3630 net.cpp:408] conv4_3_norm_mbox_loc -> conv4_3_norm_mbox_loc
I0226 10:49:30.373549  3630 net.cpp:150] Setting up conv4_3_norm_mbox_loc
I0226 10:49:30.373554  3630 net.cpp:157] Top shape: 8 16 38 38 (184832)
I0226 10:49:30.373556  3630 net.cpp:165] Memory required for data: 1977616448
I0226 10:49:30.373560  3630 layer_factory.hpp:77] Creating layer conv4_3_norm_mbox_loc_perm
I0226 10:49:30.373567  3630 net.cpp:100] Creating Layer conv4_3_norm_mbox_loc_perm
I0226 10:49:30.373570  3630 net.cpp:434] conv4_3_norm_mbox_loc_perm <- conv4_3_norm_mbox_loc
I0226 10:49:30.373574  3630 net.cpp:408] conv4_3_norm_mbox_loc_perm -> conv4_3_norm_mbox_loc_perm
I0226 10:49:30.373642  3630 net.cpp:150] Setting up conv4_3_norm_mbox_loc_perm
I0226 10:49:30.373647  3630 net.cpp:157] Top shape: 8 38 38 16 (184832)
I0226 10:49:30.373649  3630 net.cpp:165] Memory required for data: 1978355776
I0226 10:49:30.373651  3630 layer_factory.hpp:77] Creating layer conv4_3_norm_mbox_loc_flat
I0226 10:49:30.373663  3630 net.cpp:100] Creating Layer conv4_3_norm_mbox_loc_flat
I0226 10:49:30.373667  3630 net.cpp:434] conv4_3_norm_mbox_loc_flat <- conv4_3_norm_mbox_loc_perm
I0226 10:49:30.373672  3630 net.cpp:408] conv4_3_norm_mbox_loc_flat -> conv4_3_norm_mbox_loc_flat
I0226 10:49:30.373695  3630 net.cpp:150] Setting up conv4_3_norm_mbox_loc_flat
I0226 10:49:30.373700  3630 net.cpp:157] Top shape: 8 23104 (184832)
I0226 10:49:30.373703  3630 net.cpp:165] Memory required for data: 1979095104
I0226 10:49:30.373705  3630 layer_factory.hpp:77] Creating layer conv4_3_norm_mbox_conf
I0226 10:49:30.373716  3630 net.cpp:100] Creating Layer conv4_3_norm_mbox_conf
I0226 10:49:30.373719  3630 net.cpp:434] conv4_3_norm_mbox_conf <- conv4_3_norm_conv4_3_norm_0_split_1
I0226 10:49:30.373724  3630 net.cpp:408] conv4_3_norm_mbox_conf -> conv4_3_norm_mbox_conf
I0226 10:49:30.376510  3630 net.cpp:150] Setting up conv4_3_norm_mbox_conf
I0226 10:49:30.376520  3630 net.cpp:157] Top shape: 8 84 38 38 (970368)
I0226 10:49:30.376523  3630 net.cpp:165] Memory required for data: 1982976576
I0226 10:49:30.376528  3630 layer_factory.hpp:77] Creating layer conv4_3_norm_mbox_conf_perm
I0226 10:49:30.376534  3630 net.cpp:100] Creating Layer conv4_3_norm_mbox_conf_perm
I0226 10:49:30.376538  3630 net.cpp:434] conv4_3_norm_mbox_conf_perm <- conv4_3_norm_mbox_conf
I0226 10:49:30.376543  3630 net.cpp:408] conv4_3_norm_mbox_conf_perm -> conv4_3_norm_mbox_conf_perm
I0226 10:49:30.376613  3630 net.cpp:150] Setting up conv4_3_norm_mbox_conf_perm
I0226 10:49:30.376618  3630 net.cpp:157] Top shape: 8 38 38 84 (970368)
I0226 10:49:30.376621  3630 net.cpp:165] Memory required for data: 1986858048
I0226 10:49:30.376622  3630 layer_factory.hpp:77] Creating layer conv4_3_norm_mbox_conf_flat
I0226 10:49:30.376629  3630 net.cpp:100] Creating Layer conv4_3_norm_mbox_conf_flat
I0226 10:49:30.376633  3630 net.cpp:434] conv4_3_norm_mbox_conf_flat <- conv4_3_norm_mbox_conf_perm
I0226 10:49:30.376637  3630 net.cpp:408] conv4_3_norm_mbox_conf_flat -> conv4_3_norm_mbox_conf_flat
I0226 10:49:30.376654  3630 net.cpp:150] Setting up conv4_3_norm_mbox_conf_flat
I0226 10:49:30.376658  3630 net.cpp:157] Top shape: 8 121296 (970368)
I0226 10:49:30.376660  3630 net.cpp:165] Memory required for data: 1990739520
I0226 10:49:30.376662  3630 layer_factory.hpp:77] Creating layer conv4_3_norm_mbox_priorbox
I0226 10:49:30.376667  3630 net.cpp:100] Creating Layer conv4_3_norm_mbox_priorbox
I0226 10:49:30.376670  3630 net.cpp:434] conv4_3_norm_mbox_priorbox <- conv4_3_norm_conv4_3_norm_0_split_2
I0226 10:49:30.376675  3630 net.cpp:434] conv4_3_norm_mbox_priorbox <- data_data_0_split_1
I0226 10:49:30.376682  3630 net.cpp:408] conv4_3_norm_mbox_priorbox -> conv4_3_norm_mbox_priorbox
I0226 10:49:30.376703  3630 net.cpp:150] Setting up conv4_3_norm_mbox_priorbox
I0226 10:49:30.376708  3630 net.cpp:157] Top shape: 1 2 23104 (46208)
I0226 10:49:30.376710  3630 net.cpp:165] Memory required for data: 1990924352
I0226 10:49:30.376713  3630 layer_factory.hpp:77] Creating layer fc7_mbox_loc
I0226 10:49:30.376718  3630 net.cpp:100] Creating Layer fc7_mbox_loc
I0226 10:49:30.376721  3630 net.cpp:434] fc7_mbox_loc <- fc7_relu7_0_split_1
I0226 10:49:30.376726  3630 net.cpp:408] fc7_mbox_loc -> fc7_mbox_loc
I0226 10:49:30.378043  3630 net.cpp:150] Setting up fc7_mbox_loc
I0226 10:49:30.378049  3630 net.cpp:157] Top shape: 8 24 19 19 (69312)
I0226 10:49:30.378054  3630 net.cpp:165] Memory required for data: 1991201600
I0226 10:49:30.378062  3630 layer_factory.hpp:77] Creating layer fc7_mbox_loc_perm
I0226 10:49:30.378068  3630 net.cpp:100] Creating Layer fc7_mbox_loc_perm
I0226 10:49:30.378072  3630 net.cpp:434] fc7_mbox_loc_perm <- fc7_mbox_loc
I0226 10:49:30.378078  3630 net.cpp:408] fc7_mbox_loc_perm -> fc7_mbox_loc_perm
I0226 10:49:30.378150  3630 net.cpp:150] Setting up fc7_mbox_loc_perm
I0226 10:49:30.378155  3630 net.cpp:157] Top shape: 8 19 19 24 (69312)
I0226 10:49:30.378159  3630 net.cpp:165] Memory required for data: 1991478848
I0226 10:49:30.378175  3630 layer_factory.hpp:77] Creating layer fc7_mbox_loc_flat
I0226 10:49:30.378181  3630 net.cpp:100] Creating Layer fc7_mbox_loc_flat
I0226 10:49:30.378185  3630 net.cpp:434] fc7_mbox_loc_flat <- fc7_mbox_loc_perm
I0226 10:49:30.378196  3630 net.cpp:408] fc7_mbox_loc_flat -> fc7_mbox_loc_flat
I0226 10:49:30.378214  3630 net.cpp:150] Setting up fc7_mbox_loc_flat
I0226 10:49:30.378218  3630 net.cpp:157] Top shape: 8 8664 (69312)
I0226 10:49:30.378221  3630 net.cpp:165] Memory required for data: 1991756096
I0226 10:49:30.378222  3630 layer_factory.hpp:77] Creating layer fc7_mbox_conf
I0226 10:49:30.378228  3630 net.cpp:100] Creating Layer fc7_mbox_conf
I0226 10:49:30.378232  3630 net.cpp:434] fc7_mbox_conf <- fc7_relu7_0_split_2
I0226 10:49:30.378237  3630 net.cpp:408] fc7_mbox_conf -> fc7_mbox_conf
I0226 10:49:30.385473  3630 net.cpp:150] Setting up fc7_mbox_conf
I0226 10:49:30.385496  3630 net.cpp:157] Top shape: 8 126 19 19 (363888)
I0226 10:49:30.385499  3630 net.cpp:165] Memory required for data: 1993211648
I0226 10:49:30.385506  3630 layer_factory.hpp:77] Creating layer fc7_mbox_conf_perm
I0226 10:49:30.385514  3630 net.cpp:100] Creating Layer fc7_mbox_conf_perm
I0226 10:49:30.385519  3630 net.cpp:434] fc7_mbox_conf_perm <- fc7_mbox_conf
I0226 10:49:30.385529  3630 net.cpp:408] fc7_mbox_conf_perm -> fc7_mbox_conf_perm
I0226 10:49:30.385635  3630 net.cpp:150] Setting up fc7_mbox_conf_perm
I0226 10:49:30.385640  3630 net.cpp:157] Top shape: 8 19 19 126 (363888)
I0226 10:49:30.385643  3630 net.cpp:165] Memory required for data: 1994667200
I0226 10:49:30.385644  3630 layer_factory.hpp:77] Creating layer fc7_mbox_conf_flat
I0226 10:49:30.385649  3630 net.cpp:100] Creating Layer fc7_mbox_conf_flat
I0226 10:49:30.385651  3630 net.cpp:434] fc7_mbox_conf_flat <- fc7_mbox_conf_perm
I0226 10:49:30.385656  3630 net.cpp:408] fc7_mbox_conf_flat -> fc7_mbox_conf_flat
I0226 10:49:30.385673  3630 net.cpp:150] Setting up fc7_mbox_conf_flat
I0226 10:49:30.385676  3630 net.cpp:157] Top shape: 8 45486 (363888)
I0226 10:49:30.385679  3630 net.cpp:165] Memory required for data: 1996122752
I0226 10:49:30.385680  3630 layer_factory.hpp:77] Creating layer fc7_mbox_priorbox
I0226 10:49:30.385687  3630 net.cpp:100] Creating Layer fc7_mbox_priorbox
I0226 10:49:30.385692  3630 net.cpp:434] fc7_mbox_priorbox <- fc7_relu7_0_split_3
I0226 10:49:30.385696  3630 net.cpp:434] fc7_mbox_priorbox <- data_data_0_split_2
I0226 10:49:30.385704  3630 net.cpp:408] fc7_mbox_priorbox -> fc7_mbox_priorbox
I0226 10:49:30.385725  3630 net.cpp:150] Setting up fc7_mbox_priorbox
I0226 10:49:30.385728  3630 net.cpp:157] Top shape: 1 2 8664 (17328)
I0226 10:49:30.385730  3630 net.cpp:165] Memory required for data: 1996192064
I0226 10:49:30.385732  3630 layer_factory.hpp:77] Creating layer conv6_2_mbox_loc
I0226 10:49:30.385743  3630 net.cpp:100] Creating Layer conv6_2_mbox_loc
I0226 10:49:30.385746  3630 net.cpp:434] conv6_2_mbox_loc <- conv6_2_conv6_2_relu_0_split_1
I0226 10:49:30.385751  3630 net.cpp:408] conv6_2_mbox_loc -> conv6_2_mbox_loc
I0226 10:49:30.386509  3630 net.cpp:150] Setting up conv6_2_mbox_loc
I0226 10:49:30.386514  3630 net.cpp:157] Top shape: 8 24 10 10 (19200)
I0226 10:49:30.386517  3630 net.cpp:165] Memory required for data: 1996268864
I0226 10:49:30.386520  3630 layer_factory.hpp:77] Creating layer conv6_2_mbox_loc_perm
I0226 10:49:30.386525  3630 net.cpp:100] Creating Layer conv6_2_mbox_loc_perm
I0226 10:49:30.386528  3630 net.cpp:434] conv6_2_mbox_loc_perm <- conv6_2_mbox_loc
I0226 10:49:30.386530  3630 net.cpp:408] conv6_2_mbox_loc_perm -> conv6_2_mbox_loc_perm
I0226 10:49:30.386600  3630 net.cpp:150] Setting up conv6_2_mbox_loc_perm
I0226 10:49:30.386605  3630 net.cpp:157] Top shape: 8 10 10 24 (19200)
I0226 10:49:30.386607  3630 net.cpp:165] Memory required for data: 1996345664
I0226 10:49:30.386610  3630 layer_factory.hpp:77] Creating layer conv6_2_mbox_loc_flat
I0226 10:49:30.386612  3630 net.cpp:100] Creating Layer conv6_2_mbox_loc_flat
I0226 10:49:30.386615  3630 net.cpp:434] conv6_2_mbox_loc_flat <- conv6_2_mbox_loc_perm
I0226 10:49:30.386631  3630 net.cpp:408] conv6_2_mbox_loc_flat -> conv6_2_mbox_loc_flat
I0226 10:49:30.386648  3630 net.cpp:150] Setting up conv6_2_mbox_loc_flat
I0226 10:49:30.386651  3630 net.cpp:157] Top shape: 8 2400 (19200)
I0226 10:49:30.386654  3630 net.cpp:165] Memory required for data: 1996422464
I0226 10:49:30.386656  3630 layer_factory.hpp:77] Creating layer conv6_2_mbox_conf
I0226 10:49:30.386662  3630 net.cpp:100] Creating Layer conv6_2_mbox_conf
I0226 10:49:30.386663  3630 net.cpp:434] conv6_2_mbox_conf <- conv6_2_conv6_2_relu_0_split_2
I0226 10:49:30.386669  3630 net.cpp:408] conv6_2_mbox_conf -> conv6_2_mbox_conf
I0226 10:49:30.390503  3630 net.cpp:150] Setting up conv6_2_mbox_conf
I0226 10:49:30.390513  3630 net.cpp:157] Top shape: 8 126 10 10 (100800)
I0226 10:49:30.390516  3630 net.cpp:165] Memory required for data: 1996825664
I0226 10:49:30.390521  3630 layer_factory.hpp:77] Creating layer conv6_2_mbox_conf_perm
I0226 10:49:30.390525  3630 net.cpp:100] Creating Layer conv6_2_mbox_conf_perm
I0226 10:49:30.390527  3630 net.cpp:434] conv6_2_mbox_conf_perm <- conv6_2_mbox_conf
I0226 10:49:30.390532  3630 net.cpp:408] conv6_2_mbox_conf_perm -> conv6_2_mbox_conf_perm
I0226 10:49:30.390607  3630 net.cpp:150] Setting up conv6_2_mbox_conf_perm
I0226 10:49:30.390611  3630 net.cpp:157] Top shape: 8 10 10 126 (100800)
I0226 10:49:30.390614  3630 net.cpp:165] Memory required for data: 1997228864
I0226 10:49:30.390615  3630 layer_factory.hpp:77] Creating layer conv6_2_mbox_conf_flat
I0226 10:49:30.390620  3630 net.cpp:100] Creating Layer conv6_2_mbox_conf_flat
I0226 10:49:30.390622  3630 net.cpp:434] conv6_2_mbox_conf_flat <- conv6_2_mbox_conf_perm
I0226 10:49:30.390626  3630 net.cpp:408] conv6_2_mbox_conf_flat -> conv6_2_mbox_conf_flat
I0226 10:49:30.390642  3630 net.cpp:150] Setting up conv6_2_mbox_conf_flat
I0226 10:49:30.390646  3630 net.cpp:157] Top shape: 8 12600 (100800)
I0226 10:49:30.390648  3630 net.cpp:165] Memory required for data: 1997632064
I0226 10:49:30.390650  3630 layer_factory.hpp:77] Creating layer conv6_2_mbox_priorbox
I0226 10:49:30.390655  3630 net.cpp:100] Creating Layer conv6_2_mbox_priorbox
I0226 10:49:30.390658  3630 net.cpp:434] conv6_2_mbox_priorbox <- conv6_2_conv6_2_relu_0_split_3
I0226 10:49:30.390661  3630 net.cpp:434] conv6_2_mbox_priorbox <- data_data_0_split_3
I0226 10:49:30.390666  3630 net.cpp:408] conv6_2_mbox_priorbox -> conv6_2_mbox_priorbox
I0226 10:49:30.390684  3630 net.cpp:150] Setting up conv6_2_mbox_priorbox
I0226 10:49:30.390688  3630 net.cpp:157] Top shape: 1 2 2400 (4800)
I0226 10:49:30.390691  3630 net.cpp:165] Memory required for data: 1997651264
I0226 10:49:30.390692  3630 layer_factory.hpp:77] Creating layer conv7_2_mbox_loc
I0226 10:49:30.390698  3630 net.cpp:100] Creating Layer conv7_2_mbox_loc
I0226 10:49:30.390703  3630 net.cpp:434] conv7_2_mbox_loc <- conv7_2_conv7_2_relu_0_split_1
I0226 10:49:30.390707  3630 net.cpp:408] conv7_2_mbox_loc -> conv7_2_mbox_loc
I0226 10:49:30.391163  3630 net.cpp:150] Setting up conv7_2_mbox_loc
I0226 10:49:30.391168  3630 net.cpp:157] Top shape: 8 24 5 5 (4800)
I0226 10:49:30.391171  3630 net.cpp:165] Memory required for data: 1997670464
I0226 10:49:30.391175  3630 layer_factory.hpp:77] Creating layer conv7_2_mbox_loc_perm
I0226 10:49:30.391180  3630 net.cpp:100] Creating Layer conv7_2_mbox_loc_perm
I0226 10:49:30.391182  3630 net.cpp:434] conv7_2_mbox_loc_perm <- conv7_2_mbox_loc
I0226 10:49:30.391186  3630 net.cpp:408] conv7_2_mbox_loc_perm -> conv7_2_mbox_loc_perm
I0226 10:49:30.391258  3630 net.cpp:150] Setting up conv7_2_mbox_loc_perm
I0226 10:49:30.391261  3630 net.cpp:157] Top shape: 8 5 5 24 (4800)
I0226 10:49:30.391263  3630 net.cpp:165] Memory required for data: 1997689664
I0226 10:49:30.391265  3630 layer_factory.hpp:77] Creating layer conv7_2_mbox_loc_flat
I0226 10:49:30.391268  3630 net.cpp:100] Creating Layer conv7_2_mbox_loc_flat
I0226 10:49:30.391271  3630 net.cpp:434] conv7_2_mbox_loc_flat <- conv7_2_mbox_loc_perm
I0226 10:49:30.391274  3630 net.cpp:408] conv7_2_mbox_loc_flat -> conv7_2_mbox_loc_flat
I0226 10:49:30.391300  3630 net.cpp:150] Setting up conv7_2_mbox_loc_flat
I0226 10:49:30.391305  3630 net.cpp:157] Top shape: 8 600 (4800)
I0226 10:49:30.391307  3630 net.cpp:165] Memory required for data: 1997708864
I0226 10:49:30.391309  3630 layer_factory.hpp:77] Creating layer conv7_2_mbox_conf
I0226 10:49:30.391315  3630 net.cpp:100] Creating Layer conv7_2_mbox_conf
I0226 10:49:30.391319  3630 net.cpp:434] conv7_2_mbox_conf <- conv7_2_conv7_2_relu_0_split_2
I0226 10:49:30.391324  3630 net.cpp:408] conv7_2_mbox_conf -> conv7_2_mbox_conf
I0226 10:49:30.393611  3630 net.cpp:150] Setting up conv7_2_mbox_conf
I0226 10:49:30.393623  3630 net.cpp:157] Top shape: 8 126 5 5 (25200)
I0226 10:49:30.393625  3630 net.cpp:165] Memory required for data: 1997809664
I0226 10:49:30.393631  3630 layer_factory.hpp:77] Creating layer conv7_2_mbox_conf_perm
I0226 10:49:30.393636  3630 net.cpp:100] Creating Layer conv7_2_mbox_conf_perm
I0226 10:49:30.393640  3630 net.cpp:434] conv7_2_mbox_conf_perm <- conv7_2_mbox_conf
I0226 10:49:30.393646  3630 net.cpp:408] conv7_2_mbox_conf_perm -> conv7_2_mbox_conf_perm
I0226 10:49:30.393721  3630 net.cpp:150] Setting up conv7_2_mbox_conf_perm
I0226 10:49:30.393726  3630 net.cpp:157] Top shape: 8 5 5 126 (25200)
I0226 10:49:30.393728  3630 net.cpp:165] Memory required for data: 1997910464
I0226 10:49:30.393730  3630 layer_factory.hpp:77] Creating layer conv7_2_mbox_conf_flat
I0226 10:49:30.393734  3630 net.cpp:100] Creating Layer conv7_2_mbox_conf_flat
I0226 10:49:30.393736  3630 net.cpp:434] conv7_2_mbox_conf_flat <- conv7_2_mbox_conf_perm
I0226 10:49:30.393740  3630 net.cpp:408] conv7_2_mbox_conf_flat -> conv7_2_mbox_conf_flat
I0226 10:49:30.393757  3630 net.cpp:150] Setting up conv7_2_mbox_conf_flat
I0226 10:49:30.393761  3630 net.cpp:157] Top shape: 8 3150 (25200)
I0226 10:49:30.393764  3630 net.cpp:165] Memory required for data: 1998011264
I0226 10:49:30.393766  3630 layer_factory.hpp:77] Creating layer conv7_2_mbox_priorbox
I0226 10:49:30.393771  3630 net.cpp:100] Creating Layer conv7_2_mbox_priorbox
I0226 10:49:30.393774  3630 net.cpp:434] conv7_2_mbox_priorbox <- conv7_2_conv7_2_relu_0_split_3
I0226 10:49:30.393777  3630 net.cpp:434] conv7_2_mbox_priorbox <- data_data_0_split_4
I0226 10:49:30.393782  3630 net.cpp:408] conv7_2_mbox_priorbox -> conv7_2_mbox_priorbox
I0226 10:49:30.393800  3630 net.cpp:150] Setting up conv7_2_mbox_priorbox
I0226 10:49:30.393803  3630 net.cpp:157] Top shape: 1 2 600 (1200)
I0226 10:49:30.393805  3630 net.cpp:165] Memory required for data: 1998016064
I0226 10:49:30.393808  3630 layer_factory.hpp:77] Creating layer conv8_2_mbox_loc
I0226 10:49:30.393820  3630 net.cpp:100] Creating Layer conv8_2_mbox_loc
I0226 10:49:30.393822  3630 net.cpp:434] conv8_2_mbox_loc <- conv8_2_conv8_2_relu_0_split_1
I0226 10:49:30.393827  3630 net.cpp:408] conv8_2_mbox_loc -> conv8_2_mbox_loc
I0226 10:49:30.394191  3630 net.cpp:150] Setting up conv8_2_mbox_loc
I0226 10:49:30.394196  3630 net.cpp:157] Top shape: 8 16 3 3 (1152)
I0226 10:49:30.394198  3630 net.cpp:165] Memory required for data: 1998020672
I0226 10:49:30.394209  3630 layer_factory.hpp:77] Creating layer conv8_2_mbox_loc_perm
I0226 10:49:30.394214  3630 net.cpp:100] Creating Layer conv8_2_mbox_loc_perm
I0226 10:49:30.394217  3630 net.cpp:434] conv8_2_mbox_loc_perm <- conv8_2_mbox_loc
I0226 10:49:30.394223  3630 net.cpp:408] conv8_2_mbox_loc_perm -> conv8_2_mbox_loc_perm
I0226 10:49:30.394297  3630 net.cpp:150] Setting up conv8_2_mbox_loc_perm
I0226 10:49:30.394301  3630 net.cpp:157] Top shape: 8 3 3 16 (1152)
I0226 10:49:30.394304  3630 net.cpp:165] Memory required for data: 1998025280
I0226 10:49:30.394305  3630 layer_factory.hpp:77] Creating layer conv8_2_mbox_loc_flat
I0226 10:49:30.394309  3630 net.cpp:100] Creating Layer conv8_2_mbox_loc_flat
I0226 10:49:30.394312  3630 net.cpp:434] conv8_2_mbox_loc_flat <- conv8_2_mbox_loc_perm
I0226 10:49:30.394315  3630 net.cpp:408] conv8_2_mbox_loc_flat -> conv8_2_mbox_loc_flat
I0226 10:49:30.394332  3630 net.cpp:150] Setting up conv8_2_mbox_loc_flat
I0226 10:49:30.394336  3630 net.cpp:157] Top shape: 8 144 (1152)
I0226 10:49:30.394348  3630 net.cpp:165] Memory required for data: 1998029888
I0226 10:49:30.394351  3630 layer_factory.hpp:77] Creating layer conv8_2_mbox_conf
I0226 10:49:30.394358  3630 net.cpp:100] Creating Layer conv8_2_mbox_conf
I0226 10:49:30.394361  3630 net.cpp:434] conv8_2_mbox_conf <- conv8_2_conv8_2_relu_0_split_2
I0226 10:49:30.394366  3630 net.cpp:408] conv8_2_mbox_conf -> conv8_2_mbox_conf
I0226 10:49:30.395524  3630 net.cpp:150] Setting up conv8_2_mbox_conf
I0226 10:49:30.395529  3630 net.cpp:157] Top shape: 8 84 3 3 (6048)
I0226 10:49:30.395530  3630 net.cpp:165] Memory required for data: 1998054080
I0226 10:49:30.395534  3630 layer_factory.hpp:77] Creating layer conv8_2_mbox_conf_perm
I0226 10:49:30.395539  3630 net.cpp:100] Creating Layer conv8_2_mbox_conf_perm
I0226 10:49:30.395542  3630 net.cpp:434] conv8_2_mbox_conf_perm <- conv8_2_mbox_conf
I0226 10:49:30.395547  3630 net.cpp:408] conv8_2_mbox_conf_perm -> conv8_2_mbox_conf_perm
I0226 10:49:30.395617  3630 net.cpp:150] Setting up conv8_2_mbox_conf_perm
I0226 10:49:30.395622  3630 net.cpp:157] Top shape: 8 3 3 84 (6048)
I0226 10:49:30.395624  3630 net.cpp:165] Memory required for data: 1998078272
I0226 10:49:30.395627  3630 layer_factory.hpp:77] Creating layer conv8_2_mbox_conf_flat
I0226 10:49:30.395629  3630 net.cpp:100] Creating Layer conv8_2_mbox_conf_flat
I0226 10:49:30.395632  3630 net.cpp:434] conv8_2_mbox_conf_flat <- conv8_2_mbox_conf_perm
I0226 10:49:30.395637  3630 net.cpp:408] conv8_2_mbox_conf_flat -> conv8_2_mbox_conf_flat
I0226 10:49:30.395651  3630 net.cpp:150] Setting up conv8_2_mbox_conf_flat
I0226 10:49:30.395655  3630 net.cpp:157] Top shape: 8 756 (6048)
I0226 10:49:30.395658  3630 net.cpp:165] Memory required for data: 1998102464
I0226 10:49:30.395660  3630 layer_factory.hpp:77] Creating layer conv8_2_mbox_priorbox
I0226 10:49:30.395664  3630 net.cpp:100] Creating Layer conv8_2_mbox_priorbox
I0226 10:49:30.395666  3630 net.cpp:434] conv8_2_mbox_priorbox <- conv8_2_conv8_2_relu_0_split_3
I0226 10:49:30.395670  3630 net.cpp:434] conv8_2_mbox_priorbox <- data_data_0_split_5
I0226 10:49:30.395674  3630 net.cpp:408] conv8_2_mbox_priorbox -> conv8_2_mbox_priorbox
I0226 10:49:30.395690  3630 net.cpp:150] Setting up conv8_2_mbox_priorbox
I0226 10:49:30.395695  3630 net.cpp:157] Top shape: 1 2 144 (288)
I0226 10:49:30.395699  3630 net.cpp:165] Memory required for data: 1998103616
I0226 10:49:30.395700  3630 layer_factory.hpp:77] Creating layer conv9_2_mbox_loc
I0226 10:49:30.395706  3630 net.cpp:100] Creating Layer conv9_2_mbox_loc
I0226 10:49:30.395709  3630 net.cpp:434] conv9_2_mbox_loc <- conv9_2_conv9_2_relu_0_split_0
I0226 10:49:30.395714  3630 net.cpp:408] conv9_2_mbox_loc -> conv9_2_mbox_loc
I0226 10:49:30.396095  3630 net.cpp:150] Setting up conv9_2_mbox_loc
I0226 10:49:30.396101  3630 net.cpp:157] Top shape: 8 16 1 1 (128)
I0226 10:49:30.396103  3630 net.cpp:165] Memory required for data: 1998104128
I0226 10:49:30.396107  3630 layer_factory.hpp:77] Creating layer conv9_2_mbox_loc_perm
I0226 10:49:30.396111  3630 net.cpp:100] Creating Layer conv9_2_mbox_loc_perm
I0226 10:49:30.396116  3630 net.cpp:434] conv9_2_mbox_loc_perm <- conv9_2_mbox_loc
I0226 10:49:30.396119  3630 net.cpp:408] conv9_2_mbox_loc_perm -> conv9_2_mbox_loc_perm
I0226 10:49:30.396190  3630 net.cpp:150] Setting up conv9_2_mbox_loc_perm
I0226 10:49:30.396194  3630 net.cpp:157] Top shape: 8 1 1 16 (128)
I0226 10:49:30.396196  3630 net.cpp:165] Memory required for data: 1998104640
I0226 10:49:30.396198  3630 layer_factory.hpp:77] Creating layer conv9_2_mbox_loc_flat
I0226 10:49:30.396203  3630 net.cpp:100] Creating Layer conv9_2_mbox_loc_flat
I0226 10:49:30.396204  3630 net.cpp:434] conv9_2_mbox_loc_flat <- conv9_2_mbox_loc_perm
I0226 10:49:30.396209  3630 net.cpp:408] conv9_2_mbox_loc_flat -> conv9_2_mbox_loc_flat
I0226 10:49:30.396224  3630 net.cpp:150] Setting up conv9_2_mbox_loc_flat
I0226 10:49:30.396229  3630 net.cpp:157] Top shape: 8 16 (128)
I0226 10:49:30.396230  3630 net.cpp:165] Memory required for data: 1998105152
I0226 10:49:30.396240  3630 layer_factory.hpp:77] Creating layer conv9_2_mbox_conf
I0226 10:49:30.396247  3630 net.cpp:100] Creating Layer conv9_2_mbox_conf
I0226 10:49:30.396251  3630 net.cpp:434] conv9_2_mbox_conf <- conv9_2_conv9_2_relu_0_split_1
I0226 10:49:30.396256  3630 net.cpp:408] conv9_2_mbox_conf -> conv9_2_mbox_conf
I0226 10:49:30.397450  3630 net.cpp:150] Setting up conv9_2_mbox_conf
I0226 10:49:30.397456  3630 net.cpp:157] Top shape: 8 84 1 1 (672)
I0226 10:49:30.397459  3630 net.cpp:165] Memory required for data: 1998107840
I0226 10:49:30.397462  3630 layer_factory.hpp:77] Creating layer conv9_2_mbox_conf_perm
I0226 10:49:30.397466  3630 net.cpp:100] Creating Layer conv9_2_mbox_conf_perm
I0226 10:49:30.397469  3630 net.cpp:434] conv9_2_mbox_conf_perm <- conv9_2_mbox_conf
I0226 10:49:30.397472  3630 net.cpp:408] conv9_2_mbox_conf_perm -> conv9_2_mbox_conf_perm
I0226 10:49:30.397541  3630 net.cpp:150] Setting up conv9_2_mbox_conf_perm
I0226 10:49:30.397547  3630 net.cpp:157] Top shape: 8 1 1 84 (672)
I0226 10:49:30.397547  3630 net.cpp:165] Memory required for data: 1998110528
I0226 10:49:30.397550  3630 layer_factory.hpp:77] Creating layer conv9_2_mbox_conf_flat
I0226 10:49:30.397554  3630 net.cpp:100] Creating Layer conv9_2_mbox_conf_flat
I0226 10:49:30.397557  3630 net.cpp:434] conv9_2_mbox_conf_flat <- conv9_2_mbox_conf_perm
I0226 10:49:30.397560  3630 net.cpp:408] conv9_2_mbox_conf_flat -> conv9_2_mbox_conf_flat
I0226 10:49:30.397578  3630 net.cpp:150] Setting up conv9_2_mbox_conf_flat
I0226 10:49:30.397580  3630 net.cpp:157] Top shape: 8 84 (672)
I0226 10:49:30.397583  3630 net.cpp:165] Memory required for data: 1998113216
I0226 10:49:30.397584  3630 layer_factory.hpp:77] Creating layer conv9_2_mbox_priorbox
I0226 10:49:30.397589  3630 net.cpp:100] Creating Layer conv9_2_mbox_priorbox
I0226 10:49:30.397593  3630 net.cpp:434] conv9_2_mbox_priorbox <- conv9_2_conv9_2_relu_0_split_2
I0226 10:49:30.397594  3630 net.cpp:434] conv9_2_mbox_priorbox <- data_data_0_split_6
I0226 10:49:30.397598  3630 net.cpp:408] conv9_2_mbox_priorbox -> conv9_2_mbox_priorbox
I0226 10:49:30.397617  3630 net.cpp:150] Setting up conv9_2_mbox_priorbox
I0226 10:49:30.397621  3630 net.cpp:157] Top shape: 1 2 16 (32)
I0226 10:49:30.397622  3630 net.cpp:165] Memory required for data: 1998113344
I0226 10:49:30.397624  3630 layer_factory.hpp:77] Creating layer mbox_loc
I0226 10:49:30.397630  3630 net.cpp:100] Creating Layer mbox_loc
I0226 10:49:30.397634  3630 net.cpp:434] mbox_loc <- conv4_3_norm_mbox_loc_flat
I0226 10:49:30.397637  3630 net.cpp:434] mbox_loc <- fc7_mbox_loc_flat
I0226 10:49:30.397641  3630 net.cpp:434] mbox_loc <- conv6_2_mbox_loc_flat
I0226 10:49:30.397646  3630 net.cpp:434] mbox_loc <- conv7_2_mbox_loc_flat
I0226 10:49:30.397649  3630 net.cpp:434] mbox_loc <- conv8_2_mbox_loc_flat
I0226 10:49:30.397651  3630 net.cpp:434] mbox_loc <- conv9_2_mbox_loc_flat
I0226 10:49:30.397655  3630 net.cpp:408] mbox_loc -> mbox_loc
I0226 10:49:30.397675  3630 net.cpp:150] Setting up mbox_loc
I0226 10:49:30.397678  3630 net.cpp:157] Top shape: 8 34928 (279424)
I0226 10:49:30.397680  3630 net.cpp:165] Memory required for data: 1999231040
I0226 10:49:30.397682  3630 layer_factory.hpp:77] Creating layer mbox_conf
I0226 10:49:30.397686  3630 net.cpp:100] Creating Layer mbox_conf
I0226 10:49:30.397688  3630 net.cpp:434] mbox_conf <- conv4_3_norm_mbox_conf_flat
I0226 10:49:30.397692  3630 net.cpp:434] mbox_conf <- fc7_mbox_conf_flat
I0226 10:49:30.397696  3630 net.cpp:434] mbox_conf <- conv6_2_mbox_conf_flat
I0226 10:49:30.397698  3630 net.cpp:434] mbox_conf <- conv7_2_mbox_conf_flat
I0226 10:49:30.397701  3630 net.cpp:434] mbox_conf <- conv8_2_mbox_conf_flat
I0226 10:49:30.397703  3630 net.cpp:434] mbox_conf <- conv9_2_mbox_conf_flat
I0226 10:49:30.397707  3630 net.cpp:408] mbox_conf -> mbox_conf
I0226 10:49:30.397724  3630 net.cpp:150] Setting up mbox_conf
I0226 10:49:30.397728  3630 net.cpp:157] Top shape: 8 183372 (1466976)
I0226 10:49:30.397730  3630 net.cpp:165] Memory required for data: 2005098944
I0226 10:49:30.397732  3630 layer_factory.hpp:77] Creating layer mbox_priorbox
I0226 10:49:30.397745  3630 net.cpp:100] Creating Layer mbox_priorbox
I0226 10:49:30.397748  3630 net.cpp:434] mbox_priorbox <- conv4_3_norm_mbox_priorbox
I0226 10:49:30.397752  3630 net.cpp:434] mbox_priorbox <- fc7_mbox_priorbox
I0226 10:49:30.397754  3630 net.cpp:434] mbox_priorbox <- conv6_2_mbox_priorbox
I0226 10:49:30.397758  3630 net.cpp:434] mbox_priorbox <- conv7_2_mbox_priorbox
I0226 10:49:30.397759  3630 net.cpp:434] mbox_priorbox <- conv8_2_mbox_priorbox
I0226 10:49:30.397763  3630 net.cpp:434] mbox_priorbox <- conv9_2_mbox_priorbox
I0226 10:49:30.397766  3630 net.cpp:408] mbox_priorbox -> mbox_priorbox
I0226 10:49:30.397783  3630 net.cpp:150] Setting up mbox_priorbox
I0226 10:49:30.397789  3630 net.cpp:157] Top shape: 1 2 34928 (69856)
I0226 10:49:30.397790  3630 net.cpp:165] Memory required for data: 2005378368
I0226 10:49:30.397792  3630 layer_factory.hpp:77] Creating layer mbox_conf_reshape
I0226 10:49:30.397799  3630 net.cpp:100] Creating Layer mbox_conf_reshape
I0226 10:49:30.397801  3630 net.cpp:434] mbox_conf_reshape <- mbox_conf
I0226 10:49:30.397805  3630 net.cpp:408] mbox_conf_reshape -> mbox_conf_reshape
I0226 10:49:30.397910  3630 net.cpp:150] Setting up mbox_conf_reshape
I0226 10:49:30.397917  3630 net.cpp:157] Top shape: 8 8732 21 (1466976)
I0226 10:49:30.397919  3630 net.cpp:165] Memory required for data: 2011246272
I0226 10:49:30.397922  3630 layer_factory.hpp:77] Creating layer mbox_conf_softmax
I0226 10:49:30.397929  3630 net.cpp:100] Creating Layer mbox_conf_softmax
I0226 10:49:30.397931  3630 net.cpp:434] mbox_conf_softmax <- mbox_conf_reshape
I0226 10:49:30.397935  3630 net.cpp:408] mbox_conf_softmax -> mbox_conf_softmax
I0226 10:49:30.397985  3630 net.cpp:150] Setting up mbox_conf_softmax
I0226 10:49:30.397989  3630 net.cpp:157] Top shape: 8 8732 21 (1466976)
I0226 10:49:30.397992  3630 net.cpp:165] Memory required for data: 2017114176
I0226 10:49:30.397994  3630 layer_factory.hpp:77] Creating layer mbox_conf_flatten
I0226 10:49:30.397997  3630 net.cpp:100] Creating Layer mbox_conf_flatten
I0226 10:49:30.398000  3630 net.cpp:434] mbox_conf_flatten <- mbox_conf_softmax
I0226 10:49:30.398003  3630 net.cpp:408] mbox_conf_flatten -> mbox_conf_flatten
I0226 10:49:30.398020  3630 net.cpp:150] Setting up mbox_conf_flatten
I0226 10:49:30.398025  3630 net.cpp:157] Top shape: 8 183372 (1466976)
I0226 10:49:30.398027  3630 net.cpp:165] Memory required for data: 2022982080
I0226 10:49:30.398030  3630 layer_factory.hpp:77] Creating layer detection_out
I0226 10:49:30.398041  3630 net.cpp:100] Creating Layer detection_out
I0226 10:49:30.398044  3630 net.cpp:434] detection_out <- mbox_loc
I0226 10:49:30.398047  3630 net.cpp:434] detection_out <- mbox_conf_flatten
I0226 10:49:30.398051  3630 net.cpp:434] detection_out <- mbox_priorbox
I0226 10:49:30.398056  3630 net.cpp:408] detection_out -> detection_out
I0226 10:49:30.400382  3630 net.cpp:150] Setting up detection_out
I0226 10:49:30.400403  3630 net.cpp:157] Top shape: 1 1 1 7 (7)
I0226 10:49:30.400408  3630 net.cpp:165] Memory required for data: 2022982108
I0226 10:49:30.400411  3630 layer_factory.hpp:77] Creating layer detection_eval
I0226 10:49:30.400420  3630 net.cpp:100] Creating Layer detection_eval
I0226 10:49:30.400436  3630 net.cpp:434] detection_eval <- detection_out
I0226 10:49:30.400441  3630 net.cpp:434] detection_eval <- label
I0226 10:49:30.400446  3630 net.cpp:408] detection_eval -> detection_eval
I0226 10:49:30.401160  3630 net.cpp:150] Setting up detection_eval
I0226 10:49:30.401165  3630 net.cpp:157] Top shape: 1 1 21 5 (105)
I0226 10:49:30.401168  3630 net.cpp:165] Memory required for data: 2022982528
I0226 10:49:30.401171  3630 net.cpp:228] detection_eval does not need backward computation.
I0226 10:49:30.401175  3630 net.cpp:228] detection_out does not need backward computation.
I0226 10:49:30.401176  3630 net.cpp:228] mbox_conf_flatten does not need backward computation.
I0226 10:49:30.401180  3630 net.cpp:228] mbox_conf_softmax does not need backward computation.
…
