…
      sampler {
        min_scale: 0.3
        max_scale: 1
        min_aspect_ratio: 0.5
        max_aspect_ratio: 2
      }
      sample_constraint {
        min_jaccard_overlap: 0.9
      }
      max_sample: 1
      max_trials: 50
    }
    batch_sampler {
      sampler {
        min_scale: 0.3
        max_scale: 1
        min_aspect_ratio: 0.5
        max_aspect_ratio: 2
      }
      sample_constraint {
        max_jaccard_overlap: 1
      }
      max_sample: 1
      max_trials: 50
    }
    label_map_file: "data/VOC0712/labelmap_voc.prototxt"
  }
}
layer {
  name: "conv1_1"
  type: "Convolution"
  bottom: "data"
  top: "conv1_1"
  param {
    lr_mult: 1
    decay_mult: 1
  }
  param {
    lr_mult: 2
    decay_mult: 0
  }
  convolution_param {
    num_output: 64
    pad: 1
    kernel_size: 3
    weight_filler {
      type: "xavier"
    }
    bias_filler {
      type: "constant"
      value: 0
    }
  }
}
layer {
  name: "relu1_1"
  type: "ReLU"
  bottom: "conv1_1"
  top: "conv1_1"
}
layer {
  name: "conv1_2"
  type: "Convolution"
  bottom: "conv1_1"
  top: "conv1_2"
  param {
    lr_mult: 1
    decay_mult: 1
  }
  param {
    lr_mult: 2
    decay_mult: 0
  }
  convolution_param {
    num_output: 64
    pad: 1
    kernel_size: 3
    weight_filler {
      type: "xavier"
    }
    bias_filler {
      type: "constant"
      value: 0
    }
  }
}
layer {
  name: "relu1_2"
  type: "ReLU"
  bottom: "conv1_2"
  top: "conv1_2"
}
layer {
  name: "pool1"
  type: "Pooling"
  bottom: "conv1_2"
  top: "pool1"
  pooling_param {
    pool: MAX
    kernel_size: 2
    stride: 2
  }
}
layer {
  name: "conv2_1"
  type: "Convolution"
  bottom: "pool1"
  top: "conv2_1"
  param {
    lr_mult: 1
    decay_mult: 1
  }
  param {
    lr_mult: 2
    decay_mult: 0
  }
  convolution_param {
    num_output: 128
    pad: 1
    kernel_size: 3
    weight_filler {
      type: "xavier"
    }
    bias_filler {
      type: "constant"
      value: 0
    }
  }
}
layer {
  name: "relu2_1"
  type: "ReLU"
  bottom: "conv2_1"
  top: "conv2_1"
}
layer {
  name: "conv2_2"
  type: "Convolution"
  bottom: "conv2_1"
  top: "conv2_2"
  param {
    lr_mult: 1
    decay_mult: 1
  }
  param {
    lr_mult: 2
    decay_mult: 0
  }
  convolution_param {
    num_output: 128
    pad: 1
    kernel_size: 3
    weight_filler {
      type: "xavier"
    }
    bias_filler {
      type: "constant"
      value: 0
    }
  }
}
layer {
  name: "relu2_2"
  type: "ReLU"
  bottom: "conv2_2"
  top: "conv2_2"
}
layer {
  name: "pool2"
  type: "Pooling"
  bottom: "conv2_2"
  top: "pool2"
  pooling_param {
    pool: MAX
    kernel_size: 2
    stride: 2
  }
}
layer {
  name: "conv3_1"
  type: "Convolution"
  bottom: "pool2"
  top: "conv3_1"
  param {
    lr_mult: 1
    decay_mult: 1
  }
  param {
    lr_mult: 2
    decay_mult: 0
  }
  convolution_param {
    num_output: 256
    pad: 1
    kernel_size: 3
    weight_filler {
      type: "xavier"
    }
    bias_filler {
      type: "constant"
      value: 0
    }
  }
}
layer {
  name: "relu3_1"
  type: "ReLU"
  bottom: "conv3_1"
  top: "conv3_1"
}
layer {
  name: "conv3_2"
  type: "Convolution"
  bottom: "conv3_1"
  top: "conv3_2"
  param {
    lr_mult: 1
    decay_mult: 1
  }
  param {
    lr_mult: 2
    decay_mult: 0
  }
  convolution_param {
    num_output: 256
    pad: 1
    kernel_size: 3
    weight_filler {
      type: "xavier"
    }
    bias_filler {
      type: "constant"
      value: 0
    }
  }
}
layer {
  name: "relu3_2"
  type: "ReLU"
  bottom: "conv3_2"
  top: "conv3_2"
}
layer {
  name: "conv3_3"
  type: "Convolution"
  bottom: "conv3_2"
  top: "conv3_3"
  param {
    lr_mult: 1
    decay_mult: 1
  }
  param {
    lr_mult: 2
    decay_mult: 0
  }
  convolution_param {
    num_output: 256
    pad: 1
    kernel_size: 3
    weight_filler {
      type: "xavier"
    }
    bias_filler {
      type: "constant"
      value: 0
    }
  }
}
layer {
  name: "relu3_3"
  type: "ReLU"
  bottom: "conv3_3"
  top: "conv3_3"
}
layer {
  name: "pool3"
  type: "Pooling"
  bottom: "conv3_3"
  top: "pool3"
  pooling_param {
    pool: MAX
    kernel_size: 2
    stride: 2
  }
}
layer {
  name: "conv4_1"
  type: "Convolution"
  bottom: "pool3"
  top: "conv4_1"
  param {
    lr_mult: 1
    decay_mult: 1
  }
  param {
    lr_mult: 2
    decay_mult: 0
  }
  convolution_param {
    num_output: 512
    pad: 1
    kernel_size: 3
    weight_filler {
      type: "xavier"
    }
    bias_filler {
      type: "constant"
      value: 0
    }
  }
}
layer {
  name: "relu4_1"
  type: "ReLU"
  bottom: "conv4_1"
  top: "conv4_1"
}
layer {
  name: "conv4_2"
  type: "Convolution"
  bottom: "conv4_1"
  top: "conv4_2"
  param {
    lr_mult: 1
    decay_mult: 1
  }
  param {
    lr_mult: 2
    decay_mult: 0
  }
  convolution_param {
    num_output: 512
    pad: 1
    kernel_size: 3
    weight_filler {
      type: "xavier"
    }
    bias_filler {
      type: "constant"
      value: 0
    }
  }
}
layer {
  name: "relu4_2"
  type: "ReLU"
  bottom: "conv4_2"
  top: "conv4_2"
}
layer {
  name: "conv4_3"
  type: "Convolution"
  bottom: "conv4_2"
  top: "conv4_3"
  param {
    lr_mult: 1
    decay_mult: 1
  }
  param {
    lr_mult: 2
    decay_mult: 0
  }
  convolution_param {
    num_output: 512
    pad: 1
    kernel_size: 3
    weight_filler {
      type: "xavier"
    }
    bias_filler {
      type: "constant"
      value: 0
    }
  }
}
layer {
  name: "relu4_3"
  type: "ReLU"
  bottom: "conv4_3"
  top: "conv4_3"
}
layer {
  name: "pool4"
  type: "Pooling"
  bottom: "conv4_3"
  top: "pool4"
  pooling_param {
    pool: MAX
    kernel_size: 2
    stride: 2
  }
}
layer {
  name: "conv5_1"
  type: "Convolution"
  bottom: "pool4"
  top: "conv5_1"
  param {
    lr_mult: 1
    decay_mult: 1
  }
  param {
    lr_mult: 2
    decay_mult: 0
  }
  convolution_param {
    num_output: 512
    pad: 1
    kernel_size: 3
    weight_filler {
      type: "xavier"
    }
    bias_filler {
      type: "constant"
      value: 0
    }
    dilation: 1
  }
}
layer {
  name: "relu5_1"
  type: "ReLU"
  bottom: "conv5_1"
  top: "conv5_1"
}
layer {
  name: "conv5_2"
  type: "Convolution"
  bottom: "conv5_1"
  top: "conv5_2"
  param {
    lr_mult: 1
    decay_mult: 1
  }
  param {
    lr_mult: 2
    decay_mult: 0
  }
  convolution_param {
    num_output: 512
    pad: 1
    kernel_size: 3
    weight_filler {
      type: "xavier"
    }
    bias_filler {
      type: "constant"
      value: 0
    }
    dilation: 1
  }
}
layer {
  name: "relu5_2"
  type: "ReLU"
  bottom: "conv5_2"
  top: "conv5_2"
}
layer {
  name: "conv5_3"
  type: "Convolution"
  bottom: "conv5_2"
  top: "conv5_3"
  param {
    lr_mult: 1
    decay_mult: 1
  }
  param {
    lr_mult: 2
    decay_mult: 0
  }
  convolution_param {
    num_output: 512
    pad: 1
    kernel_size: 3
    weight_filler {
      type: "xavier"
    }
    bias_filler {
      type: "constant"
      value: 0
    }
    dilation: 1
  }
}
layer {
  name: "relu5_3"
  type: "ReLU"
  bottom: "conv5_3"
  top: "conv5_3"
}
layer {
  name: "pool5"
  type: "Pooling"
  bottom: "conv5_3"
  top: "pool5"
  pooling_param {
    pool: MAX
    kernel_size: 3
    stride: 1
    pad: 1
  }
}
layer {
  name: "fc6"
  type: "Convolution"
  bottom: "pool5"
  top: "fc6"
  param {
    lr_mult: 1
    decay_mult: 1
  }
  param {
    lr_mult: 2
    decay_mult: 0
  }
  convolution_param {
    num_output: 1024
    pad: 6
    kernel_size: 3
    weight_filler {
      type: "xavier"
    }
    bias_filler {
      type: "constant"
      value: 0
    }
    dilation: 6
  }
}
layer {
  name: "relu6"
  type: "ReLU"
  bottom: "fc6"
  top: "fc6"
}
layer {
  name: "fc7"
  type: "Convolution"
  bottom: "fc6"
  top: "fc7"
  param {
    lr_mult: 1
    decay_mult: 1
  }
  param {
    lr_mult: 2
    decay_mult: 0
  }
  convolution_param {
    num_output: 1024
    kernel_size: 1
    weight_filler {
      type: "xavier"
    }
    bias_filler {
      type: "constant"
      value: 0
    }
  }
}
layer {
  name: "relu7"
  type: "ReLU"
  bottom: "fc7"
  top: "fc7"
}
layer {
  name: "conv6_1"
  type: "Convolution"
  bottom: "fc7"
  top: "conv6_1"
  param {
    lr_mult: 1
    decay_mult: 1
  }
  param {
    lr_mult: 2
    decay_mult: 0
  }
  convolution_param {
    num_output: 256
    pad: 0
    kernel_size: 1
    stride: 1
    weight_filler {
      type: "xavier"
    }
    bias_filler {
      type: "constant"
      value: 0
    }
  }
}
layer {
  name: "conv6_1_relu"
  type: "ReLU"
  bottom: "conv6_1"
  top: "conv6_1"
}
layer {
  name: "conv6_2"
  type: "Convolution"
  bottom: "conv6_1"
  top: "conv6_2"
  param {
    lr_mult: 1
    decay_mult: 1
  }
  param {
    lr_mult: 2
    decay_mult: 0
  }
  convolution_param {
    num_output: 512
    pad: 1
    kernel_size: 3
    stride: 2
    weight_filler {
      type: "xavier"
    }
    bias_filler {
      type: "constant"
      value: 0
    }
  }
}
layer {
  name: "conv6_2_relu"
  type: "ReLU"
  bottom: "conv6_2"
  top: "conv6_2"
}
layer {
  name: "conv7_1"
  type: "Convolution"
  bottom: "conv6_2"
  top: "conv7_1"
  param {
    lr_mult: 1
    decay_mult: 1
  }
  param {
    lr_mult: 2
    decay_mult: 0
  }
  convolution_param {
    num_output: 128
    pad: 0
    kernel_size: 1
    stride: 1
    weight_filler {
      type: "xavier"
    }
    bias_filler {
      type: "constant"
      value: 0
    }
  }
}
layer {
  name: "conv7_1_relu"
  type: "ReLU"
  bottom: "conv7_1"
  top: "conv7_1"
}
layer {
  name: "conv7_2"
  type: "Convolution"
  bottom: "conv7_1"
  top: "conv7_2"
  param {
    lr_mult: 1
    decay_mult: 1
  }
  param {
    lr_mult: 2
    decay_mult: 0
  }
  convolution_param {
    num_output: 256
    pad: 1
    kernel_size: 3
    stride: 2
    weight_filler {
      type: "xavier"
    }
    bias_filler {
      type: "constant"
      value: 0
    }
  }
}
layer {
  name: "conv7_2_relu"
  type: "ReLU"
  bottom: "conv7_2"
  top: "conv7_2"
}
layer {
  name: "conv8_1"
  type: "Convolution"
  bottom: "conv7_2"
  top: "conv8_1"
  param {
    lr_mult: 1
    decay_mult: 1
  }
  param {
    lr_mult: 2
    decay_mult: 0
  }
  convolution_param {
    num_output: 128
    pad: 0
    kernel_size: 1
    stride: 1
    weight_filler {
      type: "xavier"
    }
    bias_filler {
      type: "constant"
      value: 0
    }
  }
}
layer {
  name: "conv8_1_relu"
  type: "ReLU"
  bottom: "conv8_1"
  top: "conv8_1"
}
layer {
  name: "conv8_2"
  type: "Convolution"
  bottom: "conv8_1"
  top: "conv8_2"
  param {
    lr_mult: 1
    decay_mult: 1
  }
  param {
    lr_mult: 2
    decay_mult: 0
  }
  convolution_param {
    num_output: 256
    pad: 0
    kernel_size: 3
    stride: 1
    weight_filler {
      type: "xavier"
    }
    bias_filler {
      type: "constant"
      value: 0
    }
  }
}
layer {
  name: "conv8_2_relu"
  type: "ReLU"
  bottom: "conv8_2"
  top: "conv8_2"
}
layer {
  name: "conv9_1"
  type: "Convolution"
  bottom: "conv8_2"
  top: "conv9_1"
  param {
    lr_mult: 1
    decay_mult: 1
  }
  param {
    lr_mult: 2
    decay_mult: 0
  }
  convolution_param {
    num_output: 128
    pad: 0
    kernel_size: 1
    stride: 1
    weight_filler {
      type: "xavier"
    }
    bias_filler {
      type: "constant"
      value: 0
    }
  }
}
layer {
  name: "conv9_1_relu"
  type: "ReLU"
  bottom: "conv9_1"
  top: "conv9_1"
}
layer {
  name: "conv9_2"
  type: "Convolution"
  bottom: "conv9_1"
  top: "conv9_2"
  param {
    lr_mult: 1
    decay_mult: 1
  }
  param {
    lr_mult: 2
    decay_mult: 0
  }
  convolution_param {
    num_output: 256
    pad: 0
    kernel_size: 3
    stride: 1
    weight_filler {
      type: "xavier"
    }
    bias_filler {
      type: "constant"
      value: 0
    }
  }
}
layer {
  name: "conv9_2_relu"
  type: "ReLU"
  bottom: "conv9_2"
  top: "conv9_2"
}
layer {
  name: "conv4_3_norm"
  type: "Normalize"
  bottom: "conv4_3"
  top: "conv4_3_norm"
  norm_param {
    across_spatial: false
    scale_filler {
      type: "constant"
      value: 20
    }
    channel_shared: false
  }
}
layer {
  name: "conv4_3_norm_mbox_loc"
  type: "Convolution"
  bottom: "conv4_3_norm"
  top: "conv4_3_norm_mbox_loc"
  param {
    lr_mult: 1
    decay_mult: 1
  }
  param {
    lr_mult: 2
    decay_mult: 0
  }
  convolution_param {
    num_output: 16
    pad: 1
    kernel_size: 3
    stride: 1
    weight_filler {
      type: "xavier"
    }
    bias_filler {
      type: "constant"
      value: 0
    }
  }
}
layer {
  name: "conv4_3_norm_mbox_loc_perm"
  type: "Permute"
  bottom: "conv4_3_norm_mbox_loc"
  top: "conv4_3_norm_mbox_loc_perm"
  permute_param {
    order: 0
    order: 2
    order: 3
    order: 1
  }
}
layer {
  name: "conv4_3_norm_mbox_loc_flat"
  type: "Flatten"
  bottom: "conv4_3_norm_mbox_loc_perm"
  top: "conv4_3_norm_mbox_loc_flat"
  flatten_param {
    axis: 1
  }
}
layer {
  name: "conv4_3_norm_mbox_conf"
  type: "Convolution"
  bottom: "conv4_3_norm"
  top: "conv4_3_norm_mbox_conf"
  param {
    lr_mult: 1
    decay_mult: 1
  }
  param {
    lr_mult: 2
    decay_mult: 0
  }
  convolution_param {
    num_output: 84
    pad: 1
    kernel_size: 3
    stride: 1
    weight_filler {
      type: "xavier"
    }
    bias_filler {
      type: "constant"
      value: 0
    }
  }
}
layer {
  name: "conv4_3_norm_mbox_conf_perm"
  type: "Permute"
  bottom: "conv4_3_norm_mbox_conf"
  top: "conv4_3_norm_mbox_conf_perm"
  permute_param {
    order: 0
    order: 2
    order: 3
    order: 1
  }
}
layer {
  name: "conv4_3_norm_mbox_conf_flat"
  type: "Flatten"
  bottom: "conv4_3_norm_mbox_conf_perm"
  top: "conv4_3_norm_mbox_conf_flat"
  flatten_param {
    axis: 1
  }
}
layer {
  name: "conv4_3_norm_mbox_priorbox"
  type: "PriorBox"
  bottom: "conv4_3_norm"
  bottom: "data"
  top: "conv4_3_norm_mbox_priorbox"
  prior_box_param {
    min_size: 30
    max_size: 60
    aspect_ratio: 2
    flip: true
    clip: false
    variance: 0.1
    variance: 0.1
    variance: 0.2
    variance: 0.2
    step: 8
    offset: 0.5
  }
}
layer {
  name: "fc7_mbox_loc"
  type: "Convolution"
  bottom: "fc7"
  top: "fc7_mbox_loc"
  param {
    lr_mult: 1
    decay_mult: 1
  }
  param {
    lr_mult: 2
    decay_mult: 0
  }
  convolution_param {
    num_output: 24
    pad: 1
    kernel_size: 3
    stride: 1
    weight_filler {
      type: "xavier"
    }
    bias_filler {
      type: "constant"
      value: 0
    }
  }
}
layer {
  name: "fc7_mbox_loc_perm"
  type: "Permute"
  bottom: "fc7_mbox_loc"
  top: "fc7_mbox_loc_perm"
  permute_param {
    order: 0
    order: 2
    order: 3
    order: 1
  }
}
layer {
  name: "fc7_mbox_loc_flat"
  type: "Flatten"
  bottom: "fc7_mbox_loc_perm"
  top: "fc7_mbox_loc_flat"
  flatten_param {
    axis: 1
  }
}
layer {
  name: "fc7_mbox_conf"
  type: "Convolution"
  bottom: "fc7"
  top: "fc7_mbox_conf"
  param {
    lr_mult: 1
    decay_mult: 1
  }
  param {
    lr_mult: 2
    decay_mult: 0
  }
  convolution_param {
    num_output: 126
    pad: 1
    kernel_size: 3
    stride: 1
    weight_filler {
      type: "xavier"
    }
    bias_filler {
      type: "constant"
      value: 0
    }
  }
}
layer {
  name: "fc7_mbox_conf_perm"
  type: "Permute"
  bottom: "fc7_mbox_conf"
  top: "fc7_mbox_conf_perm"
  permute_param {
    order: 0
    order: 2
    order: 3
    order: 1
  }
}
layer {
  name: "fc7_mbox_conf_flat"
  type: "Flatten"
  bottom: "fc7_mbox_conf_perm"
  top: "fc7_mbox_conf_flat"
  flatten_param {
    axis: 1
  }
}
layer {
  name: "fc7_mbox_priorbox"
  type: "PriorBox"
  bottom: "fc7"
  bottom: "data"
  top: "fc7_mbox_priorbox"
  prior_box_param {
    min_size: 60
    max_size: 111
    aspect_ratio: 2
    aspect_ratio: 3
    flip: true
    clip: false
    variance: 0.1
    variance: 0.1
    variance: 0.2
    variance: 0.2
    step: 16
    offset: 0.5
  }
}
layer {
  name: "conv6_2_mbox_loc"
  type: "Convolution"
  bottom: "conv6_2"
  top: "conv6_2_mbox_loc"
  param {
    lr_mult: 1
    decay_mult: 1
  }
  param {
    lr_mult: 2
    decay_mult: 0
  }
  convolution_param {
    num_output: 24
    pad: 1
    kernel_size: 3
    stride: 1
    weight_filler {
      type: "xavier"
    }
    bias_filler {
      type: "constant"
      value: 0
    }
  }
}
layer {
  name: "conv6_2_mbox_loc_perm"
  type: "Permute"
  bottom: "conv6_2_mbox_loc"
  top: "conv6_2_mbox_loc_perm"
  permute_param {
    order: 0
    order: 2
    order: 3
    order: 1
  }
}
layer {
  name: "conv6_2_mbox_loc_flat"
  type: "Flatten"
  bottom: "conv6_2_mbox_loc_perm"
  top: "conv6_2_mbox_loc_flat"
  flatten_param {
    axis: 1
  }
}
layer {
  name: "conv6_2_mbox_conf"
  type: "Convolution"
  bottom: "conv6_2"
  top: "conv6_2_mbox_conf"
  param {
    lr_mult: 1
    decay_mult: 1
  }
  param {
    lr_mult: 2
    decay_mult: 0
  }
  convolution_param {
    num_output: 126
    pad: 1
    kernel_size: 3
    stride: 1
    weight_filler {
      type: "xavier"
    }
    bias_filler {
      type: "constant"
      value: 0
    }
  }
}
layer {
  name: "conv6_2_mbox_conf_perm"
  type: "Permute"
  bottom: "conv6_2_mbox_conf"
  top: "conv6_2_mbox_conf_perm"
  permute_param {
    order: 0
    order: 2
    order: 3
    order: 1
  }
}
layer {
  name: "conv6_2_mbox_conf_flat"
  type: "Flatten"
  bottom: "conv6_2_mbox_conf_perm"
  top: "conv6_2_mbox_conf_flat"
  flatten_param {
    axis: 1
  }
}
layer {
  name: "conv6_2_mbox_priorbox"
  type: "PriorBox"
  bottom: "conv6_2"
  bottom: "data"
  top: "conv6_2_mbox_priorbox"
  prior_box_param {
    min_size: 111
    max_size: 162
    aspect_ratio: 2
    aspect_ratio: 3
    flip: true
    clip: false
    variance: 0.1
    variance: 0.1
    variance: 0.2
    variance: 0.2
    step: 32
    offset: 0.5
  }
}
layer {
  name: "conv7_2_mbox_loc"
  type: "Convolution"
  bottom: "conv7_2"
  top: "conv7_2_mbox_loc"
  param {
    lr_mult: 1
    decay_mult: 1
  }
  param {
    lr_mult: 2
    decay_mult: 0
  }
  convolution_param {
    num_output: 24
    pad: 1
    kernel_size: 3
    stride: 1
    weight_filler {
      type: "xavier"
    }
    bias_filler {
      type: "constant"
      value: 0
    }
  }
}
layer {
  name: "conv7_2_mbox_loc_perm"
  type: "Permute"
  bottom: "conv7_2_mbox_loc"
  top: "conv7_2_mbox_loc_perm"
  permute_param {
    order: 0
    order: 2
    order: 3
    order: 1
  }
}
layer {
  name: "conv7_2_mbox_loc_flat"
  type: "Flatten"
  bottom: "conv7_2_mbox_loc_perm"
  top: "conv7_2_mbox_loc_flat"
  flatten_param {
    axis: 1
  }
}
layer {
  name: "conv7_2_mbox_conf"
  type: "Convolution"
  bottom: "conv7_2"
  top: "conv7_2_mbox_conf"
  param {
    lr_mult: 1
    decay_mult: 1
  }
  param {
    lr_mult: 2
    decay_mult: 0
  }
  convolution_param {
    num_output: 126
    pad: 1
    kernel_size: 3
    stride: 1
    weight_filler {
      type: "xavier"
    }
    bias_filler {
      type: "constant"
      value: 0
    }
  }
}
layer {
  name: "conv7_2_mbox_conf_perm"
  type: "Permute"
  bottom: "conv7_2_mbox_conf"
  top: "conv7_2_mbox_conf_perm"
  permute_param {
    order: 0
    order: 2
    order: 3
    order: 1
  }
}
layer {
  name: "conv7_2_mbox_conf_flat"
  type: "Flatten"
  bottom: "conv7_2_mbox_conf_perm"
  top: "conv7_2_mbox_conf_flat"
  flatten_param {
    axis: 1
  }
}
layer {
  name: "conv7_2_mbox_priorbox"
  type: "PriorBox"
  bottom: "conv7_2"
  bottom: "data"
  top: "conv7_2_mbox_priorbox"
  prior_box_param {
    min_size: 162
    max_size: 213
    aspect_ratio: 2
    aspect_ratio: 3
    flip: true
    clip: false
    variance: 0.1
    variance: 0.1
    variance: 0.2
    variance: 0.2
    step: 64
    offset: 0.5
  }
}
layer {
  name: "conv8_2_mbox_loc"
  type: "Convolution"
  bottom: "conv8_2"
  top: "conv8_2_mbox_loc"
  param {
    lr_mult: 1
    decay_mult: 1
  }
  param {
    lr_mult: 2
    decay_mult: 0
  }
  convolution_param {
    num_output: 16
    pad: 1
    kernel_size: 3
    stride: 1
    weight_filler {
      type: "xavier"
    }
    bias_filler {
      type: "constant"
      value: 0
    }
  }
}
layer {
  name: "conv8_2_mbox_loc_perm"
  type: "Permute"
  bottom: "conv8_2_mbox_loc"
  top: "conv8_2_mbox_loc_perm"
  permute_param {
    order: 0
    order: 2
    order: 3
    order: 1
  }
}
layer {
  name: "conv8_2_mbox_loc_flat"
  type: "Flatten"
  bottom: "conv8_2_mbox_loc_perm"
  top: "conv8_2_mbox_loc_flat"
  flatten_param {
    axis: 1
  }
}
layer {
  name: "conv8_2_mbox_conf"
  type: "Convolution"
  bottom: "conv8_2"
  top: "conv8_2_mbox_conf"
  param {
    lr_mult: 1
    decay_mult: 1
  }
  param {
    lr_mult: 2
    decay_mult: 0
  }
  convolution_param {
    num_output: 84
    pad: 1
    kernel_size: 3
    stride: 1
    weight_filler {
      type: "xavier"
    }
    bias_filler {
      type: "constant"
      value: 0
    }
  }
}
layer {
  name: "conv8_2_mbox_conf_perm"
  type: "Permute"
  bottom: "conv8_2_mbox_conf"
  top: "conv8_2_mbox_conf_perm"
  permute_param {
    order: 0
    order: 2
    order: 3
    order: 1
  }
}
layer {
  name: "conv8_2_mbox_conf_flat"
  type: "Flatten"
  bottom: "conv8_2_mbox_conf_perm"
  top: "conv8_2_mbox_conf_flat"
  flatten_param {
    axis: 1
  }
}
layer {
  name: "conv8_2_mbox_priorbox"
  type: "PriorBox"
  bottom: "conv8_2"
  bottom: "data"
  top: "conv8_2_mbox_priorbox"
  prior_box_param {
    min_size: 213
    max_size: 264
    aspect_ratio: 2
    flip: true
    clip: false
    variance: 0.1
    variance: 0.1
    variance: 0.2
    variance: 0.2
    step: 100
    offset: 0.5
  }
}
layer {
  name: "conv9_2_mbox_loc"
  type: "Convolution"
  bottom: "conv9_2"
  top: "conv9_2_mbox_loc"
  param {
    lr_mult: 1
    decay_mult: 1
  }
  param {
    lr_mult: 2
    decay_mult: 0
  }
  convolution_param {
    num_output: 16
    pad: 1
    kernel_size: 3
    stride: 1
    weight_filler {
      type: "xavier"
    }
    bias_filler {
      type: "constant"
      value: 0
    }
  }
}
layer {
  name: "conv9_2_mbox_loc_perm"
  type: "Permute"
  bottom: "conv9_2_mbox_loc"
  top: "conv9_2_mbox_loc_perm"
  permute_param {
    order: 0
    order: 2
    order: 3
    order: 1
  }
}
layer {
  name: "conv9_2_mbox_loc_flat"
  type: "Flatten"
  bottom: "conv9_2_mbox_loc_perm"
  top: "conv9_2_mbox_loc_flat"
  flatten_param {
    axis: 1
  }
}
layer {
  name: "conv9_2_mbox_conf"
  type: "Convolution"
  bottom: "conv9_2"
  top: "conv9_2_mbox_conf"
  param {
    lr_mult: 1
    decay_mult: 1
  }
  param {
    lr_mult: 2
    decay_mult: 0
  }
  convolution_param {
    num_output: 84
    pad: 1
    kernel_size: 3
    stride: 1
    weight_filler {
      type: "xavier"
    }
    bias_filler {
      type: "constant"
      value: 0
    }
  }
}
layer {
  name: "conv9_2_mbox_conf_perm"
  type: "Permute"
  bottom: "conv9_2_mbox_conf"
  top: "conv9_2_mbox_conf_perm"
  permute_param {
    order: 0
    order: 2
    order: 3
    order: 1
  }
}
layer {
  name: "conv9_2_mbox_conf_flat"
  type: "Flatten"
  bottom: "conv9_2_mbox_conf_perm"
  top: "conv9_2_mbox_conf_flat"
  flatten_param {
    axis: 1
  }
}
layer {
  name: "conv9_2_mbox_priorbox"
  type: "PriorBox"
  bottom: "conv9_2"
  bottom: "data"
  top: "conv9_2_mbox_priorbox"
  prior_box_param {
    min_size: 264
    max_size: 315
    aspect_ratio: 2
    flip: true
    clip: false
    variance: 0.1
    variance: 0.1
    variance: 0.2
    variance: 0.2
    step: 300
    offset: 0.5
  }
}
layer {
  name: "mbox_loc"
  type: "Concat"
  bottom: "conv4_3_norm_mbox_loc_flat"
  bottom: "fc7_mbox_loc_flat"
  bottom: "conv6_2_mbox_loc_flat"
  bottom: "conv7_2_mbox_loc_flat"
  bottom: "conv8_2_mbox_loc_flat"
  bottom: "conv9_2_mbox_loc_flat"
  top: "mbox_loc"
  concat_param {
    axis: 1
  }
}
layer {
  name: "mbox_conf"
  type: "Concat"
  bottom: "conv4_3_norm_mbox_conf_flat"
  bottom: "fc7_mbox_conf_flat"
  bottom: "conv6_2_mbox_conf_flat"
  bottom: "conv7_2_mbox_conf_flat"
  bottom: "conv8_2_mbox_conf_flat"
  bottom: "conv9_2_mbox_conf_flat"
  top: "mbox_conf"
  concat_param {
    axis: 1
  }
}
layer {
  name: "mbox_priorbox"
  type: "Concat"
  bottom: "conv4_3_norm_mbox_priorbox"
  bottom: "fc7_mbox_priorbox"
  bottom: "conv6_2_mbox_priorbox"
  bottom: "conv7_2_mbox_priorbox"
  bottom: "conv8_2_mbox_priorbox"
  bottom: "conv9_2_mbox_priorbox"
  top: "mbox_priorbox"
  concat_param {
    axis: 2
  }
}
layer {
  name: "mbox_loss"
  type: "MultiBoxLoss"
  bottom: "mbox_loc"
  bottom: "mbox_conf"
  bottom: "mbox_priorbox"
  bottom: "label"
  top: "mbox_loss"
  include {
    phase: TRAIN
  }
  propagate_down: true
  propagate_down: true
  propagate_down: false
  propagate_down: false
  loss_param {
    normalization: VALID
  }
  multibox_loss_param {
    loc_loss_type: SMOOTH_L1
    conf_loss_type: SOFTMAX
    loc_weight: 1
    num_classes: 21
    share_location: true
    match_type: PER_PREDICTION
    overlap_threshold: 0.5
    use_prior_for_matching: true
    background_label_id: 0
    use_difficult_gt: true
    neg_pos_ratio: 3
    neg_overlap: 0.5
    code_type: CENTER_SIZE
    ignore_cross_boundary_bbox: false
    mining_type: MAX_NEGATIVE
  }
}
I0411 05:36:43.128878 16639 layer_factory.hpp:77] Creating layer data
I0411 05:36:43.128990 16639 net.cpp:100] Creating Layer data
I0411 05:36:43.129001 16639 net.cpp:408] data -> data
I0411 05:36:43.129025 16639 net.cpp:408] data -> label
I0411 05:36:43.129626 16655 db_lmdb.cpp:35] Opened lmdb examples/VOC0712/VOC0712_trainval_lmdb
I0411 05:36:45.001489 16639 annotated_data_layer.cpp:62] output data size: 16,3,300,300
I0411 05:36:45.022513 16639 net.cpp:150] Setting up data
I0411 05:36:45.022541 16639 net.cpp:157] Top shape: 16 3 300 300 (4320000)
I0411 05:36:45.022547 16639 net.cpp:157] Top shape: 1 1 2 8 (16)
I0411 05:36:45.022548 16639 net.cpp:165] Memory required for data: 17280064
I0411 05:36:45.022578 16639 layer_factory.hpp:77] Creating layer data_data_0_split
I0411 05:36:45.022588 16639 net.cpp:100] Creating Layer data_data_0_split
I0411 05:36:45.022608 16639 net.cpp:434] data_data_0_split <- data
I0411 05:36:45.022624 16639 net.cpp:408] data_data_0_split -> data_data_0_split_0
I0411 05:36:45.022634 16639 net.cpp:408] data_data_0_split -> data_data_0_split_1
I0411 05:36:45.022642 16639 net.cpp:408] data_data_0_split -> data_data_0_split_2
I0411 05:36:45.022647 16639 net.cpp:408] data_data_0_split -> data_data_0_split_3
I0411 05:36:45.022651 16639 net.cpp:408] data_data_0_split -> data_data_0_split_4
I0411 05:36:45.022655 16639 net.cpp:408] data_data_0_split -> data_data_0_split_5
I0411 05:36:45.022658 16639 net.cpp:408] data_data_0_split -> data_data_0_split_6
I0411 05:36:45.022727 16639 net.cpp:150] Setting up data_data_0_split
I0411 05:36:45.022733 16639 net.cpp:157] Top shape: 16 3 300 300 (4320000)
I0411 05:36:45.022738 16639 net.cpp:157] Top shape: 16 3 300 300 (4320000)
I0411 05:36:45.022742 16639 net.cpp:157] Top shape: 16 3 300 300 (4320000)
I0411 05:36:45.022747 16639 net.cpp:157] Top shape: 16 3 300 300 (4320000)
I0411 05:36:45.022752 16639 net.cpp:157] Top shape: 16 3 300 300 (4320000)
I0411 05:36:45.022756 16639 net.cpp:157] Top shape: 16 3 300 300 (4320000)
I0411 05:36:45.022761 16639 net.cpp:157] Top shape: 16 3 300 300 (4320000)
I0411 05:36:45.022766 16639 net.cpp:165] Memory required for data: 138240064
I0411 05:36:45.022768 16639 layer_factory.hpp:77] Creating layer conv1_1
I0411 05:36:45.022783 16639 net.cpp:100] Creating Layer conv1_1
I0411 05:36:45.022788 16639 net.cpp:434] conv1_1 <- data_data_0_split_0
I0411 05:36:45.022794 16639 net.cpp:408] conv1_1 -> conv1_1
I0411 05:36:45.024154 16639 net.cpp:150] Setting up conv1_1
I0411 05:36:45.024168 16639 net.cpp:157] Top shape: 16 64 300 300 (92160000)
I0411 05:36:45.024170 16639 net.cpp:165] Memory required for data: 506880064
I0411 05:36:45.024188 16639 layer_factory.hpp:77] Creating layer relu1_1
I0411 05:36:45.024194 16639 net.cpp:100] Creating Layer relu1_1
I0411 05:36:45.024197 16639 net.cpp:434] relu1_1 <- conv1_1
I0411 05:36:45.024201 16639 net.cpp:395] relu1_1 -> conv1_1 (in-place)
I0411 05:36:45.024209 16639 net.cpp:150] Setting up relu1_1
I0411 05:36:45.024214 16639 net.cpp:157] Top shape: 16 64 300 300 (92160000)
I0411 05:36:45.024216 16639 net.cpp:165] Memory required for data: 875520064
I0411 05:36:45.024220 16639 layer_factory.hpp:77] Creating layer conv1_2
I0411 05:36:45.024227 16639 net.cpp:100] Creating Layer conv1_2
I0411 05:36:45.024230 16639 net.cpp:434] conv1_2 <- conv1_1
I0411 05:36:45.024235 16639 net.cpp:408] conv1_2 -> conv1_2
I0411 05:36:45.025120 16639 net.cpp:150] Setting up conv1_2
I0411 05:36:45.025130 16639 net.cpp:157] Top shape: 16 64 300 300 (92160000)
I0411 05:36:45.025132 16639 net.cpp:165] Memory required for data: 1244160064
I0411 05:36:45.025138 16639 layer_factory.hpp:77] Creating layer relu1_2
I0411 05:36:45.025143 16639 net.cpp:100] Creating Layer relu1_2
I0411 05:36:45.025146 16639 net.cpp:434] relu1_2 <- conv1_2
I0411 05:36:45.025151 16639 net.cpp:395] relu1_2 -> conv1_2 (in-place)
I0411 05:36:45.025154 16639 net.cpp:150] Setting up relu1_2
I0411 05:36:45.025158 16639 net.cpp:157] Top shape: 16 64 300 300 (92160000)
I0411 05:36:45.025163 16639 net.cpp:165] Memory required for data: 1612800064
I0411 05:36:45.025166 16639 layer_factory.hpp:77] Creating layer pool1
I0411 05:36:45.025169 16639 net.cpp:100] Creating Layer pool1
I0411 05:36:45.025171 16639 net.cpp:434] pool1 <- conv1_2
I0411 05:36:45.025176 16639 net.cpp:408] pool1 -> pool1
I0411 05:36:45.025207 16639 net.cpp:150] Setting up pool1
I0411 05:36:45.025212 16639 net.cpp:157] Top shape: 16 64 150 150 (23040000)
I0411 05:36:45.025213 16639 net.cpp:165] Memory required for data: 1704960064
I0411 05:36:45.025215 16639 layer_factory.hpp:77] Creating layer conv2_1
I0411 05:36:45.025220 16639 net.cpp:100] Creating Layer conv2_1
I0411 05:36:45.025224 16639 net.cpp:434] conv2_1 <- pool1
I0411 05:36:45.025230 16639 net.cpp:408] conv2_1 -> conv2_1
I0411 05:36:45.025671 16639 net.cpp:150] Setting up conv2_1
I0411 05:36:45.025676 16639 net.cpp:157] Top shape: 16 128 150 150 (46080000)
I0411 05:36:45.025681 16639 net.cpp:165] Memory required for data: 1889280064
I0411 05:36:45.025688 16639 layer_factory.hpp:77] Creating layer relu2_1
I0411 05:36:45.025694 16639 net.cpp:100] Creating Layer relu2_1
I0411 05:36:45.025699 16639 net.cpp:434] relu2_1 <- conv2_1
I0411 05:36:45.025703 16639 net.cpp:395] relu2_1 -> conv2_1 (in-place)
I0411 05:36:45.025708 16639 net.cpp:150] Setting up relu2_1
I0411 05:36:45.025713 16639 net.cpp:157] Top shape: 16 128 150 150 (46080000)
I0411 05:36:45.025718 16639 net.cpp:165] Memory required for data: 2073600064
I0411 05:36:45.025722 16639 layer_factory.hpp:77] Creating layer conv2_2
I0411 05:36:45.025728 16639 net.cpp:100] Creating Layer conv2_2
I0411 05:36:45.025732 16639 net.cpp:434] conv2_2 <- conv2_1
I0411 05:36:45.025735 16639 net.cpp:408] conv2_2 -> conv2_2
I0411 05:36:45.026461 16639 net.cpp:150] Setting up conv2_2
I0411 05:36:45.026468 16639 net.cpp:157] Top shape: 16 128 150 150 (46080000)
I0411 05:36:45.026470 16639 net.cpp:165] Memory required for data: 2257920064
I0411 05:36:45.026474 16639 layer_factory.hpp:77] Creating layer relu2_2
I0411 05:36:45.026477 16639 net.cpp:100] Creating Layer relu2_2
I0411 05:36:45.026480 16639 net.cpp:434] relu2_2 <- conv2_2
I0411 05:36:45.026484 16639 net.cpp:395] relu2_2 -> conv2_2 (in-place)
I0411 05:36:45.026487 16639 net.cpp:150] Setting up relu2_2
I0411 05:36:45.026490 16639 net.cpp:157] Top shape: 16 128 150 150 (46080000)
I0411 05:36:45.026492 16639 net.cpp:165] Memory required for data: 2442240064
I0411 05:36:45.026494 16639 layer_factory.hpp:77] Creating layer pool2
I0411 05:36:45.026499 16639 net.cpp:100] Creating Layer pool2
I0411 05:36:45.026500 16639 net.cpp:434] pool2 <- conv2_2
I0411 05:36:45.026502 16639 net.cpp:408] pool2 -> pool2
I0411 05:36:45.026525 16639 net.cpp:150] Setting up pool2
I0411 05:36:45.026531 16639 net.cpp:157] Top shape: 16 128 75 75 (11520000)
I0411 05:36:45.026535 16639 net.cpp:165] Memory required for data: 2488320064
I0411 05:36:45.026538 16639 layer_factory.hpp:77] Creating layer conv3_1
I0411 05:36:45.026546 16639 net.cpp:100] Creating Layer conv3_1
I0411 05:36:45.026551 16639 net.cpp:434] conv3_1 <- pool2
I0411 05:36:45.026556 16639 net.cpp:408] conv3_1 -> conv3_1
I0411 05:36:45.029628 16639 net.cpp:150] Setting up conv3_1
I0411 05:36:45.029644 16639 net.cpp:157] Top shape: 16 256 75 75 (23040000)
I0411 05:36:45.029646 16639 net.cpp:165] Memory required for data: 2580480064
I0411 05:36:45.029659 16639 layer_factory.hpp:77] Creating layer relu3_1
I0411 05:36:45.029665 16639 net.cpp:100] Creating Layer relu3_1
I0411 05:36:45.029670 16639 net.cpp:434] relu3_1 <- conv3_1
I0411 05:36:45.029677 16639 net.cpp:395] relu3_1 -> conv3_1 (in-place)
I0411 05:36:45.029685 16639 net.cpp:150] Setting up relu3_1
I0411 05:36:45.029691 16639 net.cpp:157] Top shape: 16 256 75 75 (23040000)
I0411 05:36:45.029693 16639 net.cpp:165] Memory required for data: 2672640064
I0411 05:36:45.029698 16639 layer_factory.hpp:77] Creating layer conv3_2
I0411 05:36:45.029706 16639 net.cpp:100] Creating Layer conv3_2
I0411 05:36:45.029708 16639 net.cpp:434] conv3_2 <- conv3_1
I0411 05:36:45.029712 16639 net.cpp:408] conv3_2 -> conv3_2
I0411 05:36:45.032768 16639 net.cpp:150] Setting up conv3_2
I0411 05:36:45.032785 16639 net.cpp:157] Top shape: 16 256 75 75 (23040000)
I0411 05:36:45.032788 16639 net.cpp:165] Memory required for data: 2764800064
I0411 05:36:45.032793 16639 layer_factory.hpp:77] Creating layer relu3_2
I0411 05:36:45.032797 16639 net.cpp:100] Creating Layer relu3_2
I0411 05:36:45.032801 16639 net.cpp:434] relu3_2 <- conv3_2
I0411 05:36:45.032804 16639 net.cpp:395] relu3_2 -> conv3_2 (in-place)
I0411 05:36:45.032810 16639 net.cpp:150] Setting up relu3_2
I0411 05:36:45.032814 16639 net.cpp:157] Top shape: 16 256 75 75 (23040000)
I0411 05:36:45.032815 16639 net.cpp:165] Memory required for data: 2856960064
I0411 05:36:45.032817 16639 layer_factory.hpp:77] Creating layer conv3_3
I0411 05:36:45.032841 16639 net.cpp:100] Creating Layer conv3_3
I0411 05:36:45.032845 16639 net.cpp:434] conv3_3 <- conv3_2
I0411 05:36:45.032850 16639 net.cpp:408] conv3_3 -> conv3_3
I0411 05:36:45.036005 16639 net.cpp:150] Setting up conv3_3
I0411 05:36:45.036018 16639 net.cpp:157] Top shape: 16 256 75 75 (23040000)
I0411 05:36:45.036021 16639 net.cpp:165] Memory required for data: 2949120064
I0411 05:36:45.036031 16639 layer_factory.hpp:77] Creating layer relu3_3
I0411 05:36:45.036039 16639 net.cpp:100] Creating Layer relu3_3
I0411 05:36:45.036044 16639 net.cpp:434] relu3_3 <- conv3_3
I0411 05:36:45.036051 16639 net.cpp:395] relu3_3 -> conv3_3 (in-place)
I0411 05:36:45.036056 16639 net.cpp:150] Setting up relu3_3
I0411 05:36:45.036061 16639 net.cpp:157] Top shape: 16 256 75 75 (23040000)
I0411 05:36:45.036062 16639 net.cpp:165] Memory required for data: 3041280064
I0411 05:36:45.036064 16639 layer_factory.hpp:77] Creating layer pool3
I0411 05:36:45.036069 16639 net.cpp:100] Creating Layer pool3
I0411 05:36:45.036072 16639 net.cpp:434] pool3 <- conv3_3
I0411 05:36:45.036077 16639 net.cpp:408] pool3 -> pool3
I0411 05:36:45.036103 16639 net.cpp:150] Setting up pool3
I0411 05:36:45.036108 16639 net.cpp:157] Top shape: 16 256 38 38 (5914624)
I0411 05:36:45.036110 16639 net.cpp:165] Memory required for data: 3064938560
I0411 05:36:45.036113 16639 layer_factory.hpp:77] Creating layer conv4_1
I0411 05:36:45.036118 16639 net.cpp:100] Creating Layer conv4_1
I0411 05:36:45.036121 16639 net.cpp:434] conv4_1 <- pool3
I0411 05:36:45.036125 16639 net.cpp:408] conv4_1 -> conv4_1
I0411 05:36:45.042542 16639 net.cpp:150] Setting up conv4_1
I0411 05:36:45.042562 16639 net.cpp:157] Top shape: 16 512 38 38 (11829248)
I0411 05:36:45.042564 16639 net.cpp:165] Memory required for data: 3112255552
I0411 05:36:45.042572 16639 layer_factory.hpp:77] Creating layer relu4_1
I0411 05:36:45.042579 16639 net.cpp:100] Creating Layer relu4_1
I0411 05:36:45.042585 16639 net.cpp:434] relu4_1 <- conv4_1
I0411 05:36:45.042593 16639 net.cpp:395] relu4_1 -> conv4_1 (in-place)
I0411 05:36:45.042603 16639 net.cpp:150] Setting up relu4_1
I0411 05:36:45.042608 16639 net.cpp:157] Top shape: 16 512 38 38 (11829248)
I0411 05:36:45.042610 16639 net.cpp:165] Memory required for data: 3159572544
I0411 05:36:45.042616 16639 layer_factory.hpp:77] Creating layer conv4_2
I0411 05:36:45.042626 16639 net.cpp:100] Creating Layer conv4_2
I0411 05:36:45.042629 16639 net.cpp:434] conv4_2 <- conv4_1
I0411 05:36:45.042635 16639 net.cpp:408] conv4_2 -> conv4_2
I0411 05:36:45.054460 16639 net.cpp:150] Setting up conv4_2
I0411 05:36:45.054484 16639 net.cpp:157] Top shape: 16 512 38 38 (11829248)
I0411 05:36:45.054486 16639 net.cpp:165] Memory required for data: 3206889536
I0411 05:36:45.054497 16639 layer_factory.hpp:77] Creating layer relu4_2
I0411 05:36:45.054503 16639 net.cpp:100] Creating Layer relu4_2
I0411 05:36:45.054507 16639 net.cpp:434] relu4_2 <- conv4_2
I0411 05:36:45.054512 16639 net.cpp:395] relu4_2 -> conv4_2 (in-place)
I0411 05:36:45.054520 16639 net.cpp:150] Setting up relu4_2
I0411 05:36:45.054525 16639 net.cpp:157] Top shape: 16 512 38 38 (11829248)
I0411 05:36:45.054527 16639 net.cpp:165] Memory required for data: 3254206528
I0411 05:36:45.054532 16639 layer_factory.hpp:77] Creating layer conv4_3
I0411 05:36:45.054543 16639 net.cpp:100] Creating Layer conv4_3
I0411 05:36:45.054548 16639 net.cpp:434] conv4_3 <- conv4_2
I0411 05:36:45.054553 16639 net.cpp:408] conv4_3 -> conv4_3
I0411 05:36:45.066246 16639 net.cpp:150] Setting up conv4_3
I0411 05:36:45.066267 16639 net.cpp:157] Top shape: 16 512 38 38 (11829248)
I0411 05:36:45.066269 16639 net.cpp:165] Memory required for data: 3301523520
I0411 05:36:45.066277 16639 layer_factory.hpp:77] Creating layer relu4_3
I0411 05:36:45.066282 16639 net.cpp:100] Creating Layer relu4_3
I0411 05:36:45.066285 16639 net.cpp:434] relu4_3 <- conv4_3
I0411 05:36:45.066290 16639 net.cpp:395] relu4_3 -> conv4_3 (in-place)
I0411 05:36:45.066296 16639 net.cpp:150] Setting up relu4_3
I0411 05:36:45.066299 16639 net.cpp:157] Top shape: 16 512 38 38 (11829248)
I0411 05:36:45.066326 16639 net.cpp:165] Memory required for data: 3348840512
I0411 05:36:45.066331 16639 layer_factory.hpp:77] Creating layer conv4_3_relu4_3_0_split
I0411 05:36:45.066337 16639 net.cpp:100] Creating Layer conv4_3_relu4_3_0_split
I0411 05:36:45.066341 16639 net.cpp:434] conv4_3_relu4_3_0_split <- conv4_3
I0411 05:36:45.066345 16639 net.cpp:408] conv4_3_relu4_3_0_split -> conv4_3_relu4_3_0_split_0
I0411 05:36:45.066354 16639 net.cpp:408] conv4_3_relu4_3_0_split -> conv4_3_relu4_3_0_split_1
I0411 05:36:45.066378 16639 net.cpp:150] Setting up conv4_3_relu4_3_0_split
I0411 05:36:45.066383 16639 net.cpp:157] Top shape: 16 512 38 38 (11829248)
I0411 05:36:45.066386 16639 net.cpp:157] Top shape: 16 512 38 38 (11829248)
I0411 05:36:45.066388 16639 net.cpp:165] Memory required for data: 3443474496
I0411 05:36:45.066390 16639 layer_factory.hpp:77] Creating layer pool4
I0411 05:36:45.066395 16639 net.cpp:100] Creating Layer pool4
I0411 05:36:45.066396 16639 net.cpp:434] pool4 <- conv4_3_relu4_3_0_split_0
I0411 05:36:45.066401 16639 net.cpp:408] pool4 -> pool4
I0411 05:36:45.066423 16639 net.cpp:150] Setting up pool4
I0411 05:36:45.066427 16639 net.cpp:157] Top shape: 16 512 19 19 (2957312)
I0411 05:36:45.066429 16639 net.cpp:165] Memory required for data: 3455303744
I0411 05:36:45.066433 16639 layer_factory.hpp:77] Creating layer conv5_1
I0411 05:36:45.066443 16639 net.cpp:100] Creating Layer conv5_1
I0411 05:36:45.066447 16639 net.cpp:434] conv5_1 <- pool4
I0411 05:36:45.066449 16639 net.cpp:408] conv5_1 -> conv5_1
I0411 05:36:45.078032 16639 net.cpp:150] Setting up conv5_1
I0411 05:36:45.078047 16639 net.cpp:157] Top shape: 16 512 19 19 (2957312)
I0411 05:36:45.078049 16639 net.cpp:165] Memory required for data: 3467132992
I0411 05:36:45.078058 16639 layer_factory.hpp:77] Creating layer relu5_1
I0411 05:36:45.078068 16639 net.cpp:100] Creating Layer relu5_1
I0411 05:36:45.078071 16639 net.cpp:434] relu5_1 <- conv5_1
I0411 05:36:45.078076 16639 net.cpp:395] relu5_1 -> conv5_1 (in-place)
I0411 05:36:45.078084 16639 net.cpp:150] Setting up relu5_1
I0411 05:36:45.078088 16639 net.cpp:157] Top shape: 16 512 19 19 (2957312)
I0411 05:36:45.078090 16639 net.cpp:165] Memory required for data: 3478962240
I0411 05:36:45.078092 16639 layer_factory.hpp:77] Creating layer conv5_2
I0411 05:36:45.078099 16639 net.cpp:100] Creating Layer conv5_2
I0411 05:36:45.078102 16639 net.cpp:434] conv5_2 <- conv5_1
I0411 05:36:45.078106 16639 net.cpp:408] conv5_2 -> conv5_2
I0411 05:36:45.089630 16639 net.cpp:150] Setting up conv5_2
I0411 05:36:45.089648 16639 net.cpp:157] Top shape: 16 512 19 19 (2957312)
I0411 05:36:45.089650 16639 net.cpp:165] Memory required for data: 3490791488
I0411 05:36:45.089655 16639 layer_factory.hpp:77] Creating layer relu5_2
I0411 05:36:45.089661 16639 net.cpp:100] Creating Layer relu5_2
I0411 05:36:45.089664 16639 net.cpp:434] relu5_2 <- conv5_2
I0411 05:36:45.089668 16639 net.cpp:395] relu5_2 -> conv5_2 (in-place)
I0411 05:36:45.089674 16639 net.cpp:150] Setting up relu5_2
I0411 05:36:45.089678 16639 net.cpp:157] Top shape: 16 512 19 19 (2957312)
I0411 05:36:45.089679 16639 net.cpp:165] Memory required for data: 3502620736
I0411 05:36:45.089681 16639 layer_factory.hpp:77] Creating layer conv5_3
I0411 05:36:45.089689 16639 net.cpp:100] Creating Layer conv5_3
I0411 05:36:45.089694 16639 net.cpp:434] conv5_3 <- conv5_2
I0411 05:36:45.089699 16639 net.cpp:408] conv5_3 -> conv5_3
I0411 05:36:45.101518 16639 net.cpp:150] Setting up conv5_3
I0411 05:36:45.101536 16639 net.cpp:157] Top shape: 16 512 19 19 (2957312)
I0411 05:36:45.101538 16639 net.cpp:165] Memory required for data: 3514449984
I0411 05:36:45.101546 16639 layer_factory.hpp:77] Creating layer relu5_3
I0411 05:36:45.101557 16639 net.cpp:100] Creating Layer relu5_3
I0411 05:36:45.101562 16639 net.cpp:434] relu5_3 <- conv5_3
I0411 05:36:45.101565 16639 net.cpp:395] relu5_3 -> conv5_3 (in-place)
I0411 05:36:45.101573 16639 net.cpp:150] Setting up relu5_3
I0411 05:36:45.101579 16639 net.cpp:157] Top shape: 16 512 19 19 (2957312)
I0411 05:36:45.101600 16639 net.cpp:165] Memory required for data: 3526279232
I0411 05:36:45.101605 16639 layer_factory.hpp:77] Creating layer pool5
I0411 05:36:45.101611 16639 net.cpp:100] Creating Layer pool5
I0411 05:36:45.101616 16639 net.cpp:434] pool5 <- conv5_3
I0411 05:36:45.101621 16639 net.cpp:408] pool5 -> pool5
I0411 05:36:45.101651 16639 net.cpp:150] Setting up pool5
I0411 05:36:45.101656 16639 net.cpp:157] Top shape: 16 512 19 19 (2957312)
I0411 05:36:45.101660 16639 net.cpp:165] Memory required for data: 3538108480
I0411 05:36:45.101663 16639 layer_factory.hpp:77] Creating layer fc6
I0411 05:36:45.101673 16639 net.cpp:100] Creating Layer fc6
I0411 05:36:45.101677 16639 net.cpp:434] fc6 <- pool5
I0411 05:36:45.101683 16639 net.cpp:408] fc6 -> fc6
I0411 05:36:45.124614 16639 net.cpp:150] Setting up fc6
I0411 05:36:45.124649 16639 net.cpp:157] Top shape: 16 1024 19 19 (5914624)
I0411 05:36:45.124652 16639 net.cpp:165] Memory required for data: 3561766976
I0411 05:36:45.124667 16639 layer_factory.hpp:77] Creating layer relu6
I0411 05:36:45.124683 16639 net.cpp:100] Creating Layer relu6
I0411 05:36:45.124701 16639 net.cpp:434] relu6 <- fc6
I0411 05:36:45.124709 16639 net.cpp:395] relu6 -> fc6 (in-place)
I0411 05:36:45.124721 16639 net.cpp:150] Setting up relu6
I0411 05:36:45.124725 16639 net.cpp:157] Top shape: 16 1024 19 19 (5914624)
I0411 05:36:45.124729 16639 net.cpp:165] Memory required for data: 3585425472
I0411 05:36:45.124732 16639 layer_factory.hpp:77] Creating layer fc7
I0411 05:36:45.124744 16639 net.cpp:100] Creating Layer fc7
I0411 05:36:45.124747 16639 net.cpp:434] fc7 <- fc6
I0411 05:36:45.124753 16639 net.cpp:408] fc7 -> fc7
I0411 05:36:45.130018 16639 net.cpp:150] Setting up fc7
I0411 05:36:45.130046 16639 net.cpp:157] Top shape: 16 1024 19 19 (5914624)
I0411 05:36:45.130049 16639 net.cpp:165] Memory required for data: 3609083968
I0411 05:36:45.130061 16639 layer_factory.hpp:77] Creating layer relu7
I0411 05:36:45.130071 16639 net.cpp:100] Creating Layer relu7
I0411 05:36:45.130076 16639 net.cpp:434] relu7 <- fc7
I0411 05:36:45.130084 16639 net.cpp:395] relu7 -> fc7 (in-place)
I0411 05:36:45.130092 16639 net.cpp:150] Setting up relu7
I0411 05:36:45.130098 16639 net.cpp:157] Top shape: 16 1024 19 19 (5914624)
I0411 05:36:45.130102 16639 net.cpp:165] Memory required for data: 3632742464
I0411 05:36:45.130105 16639 layer_factory.hpp:77] Creating layer fc7_relu7_0_split
I0411 05:36:45.130112 16639 net.cpp:100] Creating Layer fc7_relu7_0_split
I0411 05:36:45.130116 16639 net.cpp:434] fc7_relu7_0_split <- fc7
I0411 05:36:45.130122 16639 net.cpp:408] fc7_relu7_0_split -> fc7_relu7_0_split_0
I0411 05:36:45.130131 16639 net.cpp:408] fc7_relu7_0_split -> fc7_relu7_0_split_1
I0411 05:36:45.130141 16639 net.cpp:408] fc7_relu7_0_split -> fc7_relu7_0_split_2
I0411 05:36:45.130149 16639 net.cpp:408] fc7_relu7_0_split -> fc7_relu7_0_split_3
I0411 05:36:45.130192 16639 net.cpp:150] Setting up fc7_relu7_0_split
I0411 05:36:45.130198 16639 net.cpp:157] Top shape: 16 1024 19 19 (5914624)
I0411 05:36:45.130203 16639 net.cpp:157] Top shape: 16 1024 19 19 (5914624)
I0411 05:36:45.130208 16639 net.cpp:157] Top shape: 16 1024 19 19 (5914624)
I0411 05:36:45.130213 16639 net.cpp:157] Top shape: 16 1024 19 19 (5914624)
I0411 05:36:45.130218 16639 net.cpp:165] Memory required for data: 3727376448
I0411 05:36:45.130220 16639 layer_factory.hpp:77] Creating layer conv6_1
I0411 05:36:45.130230 16639 net.cpp:100] Creating Layer conv6_1
I0411 05:36:45.130234 16639 net.cpp:434] conv6_1 <- fc7_relu7_0_split_0
I0411 05:36:45.130241 16639 net.cpp:408] conv6_1 -> conv6_1
I0411 05:36:45.132019 16639 net.cpp:150] Setting up conv6_1
I0411 05:36:45.132027 16639 net.cpp:157] Top shape: 16 256 19 19 (1478656)
I0411 05:36:45.132031 16639 net.cpp:165] Memory required for data: 3733291072
I0411 05:36:45.132038 16639 layer_factory.hpp:77] Creating layer conv6_1_relu
I0411 05:36:45.132045 16639 net.cpp:100] Creating Layer conv6_1_relu
I0411 05:36:45.132050 16639 net.cpp:434] conv6_1_relu <- conv6_1
I0411 05:36:45.132055 16639 net.cpp:395] conv6_1_relu -> conv6_1 (in-place)
I0411 05:36:45.132076 16639 net.cpp:150] Setting up conv6_1_relu
I0411 05:36:45.132082 16639 net.cpp:157] Top shape: 16 256 19 19 (1478656)
I0411 05:36:45.132086 16639 net.cpp:165] Memory required for data: 3739205696
I0411 05:36:45.132091 16639 layer_factory.hpp:77] Creating layer conv6_2
I0411 05:36:45.132099 16639 net.cpp:100] Creating Layer conv6_2
I0411 05:36:45.132103 16639 net.cpp:434] conv6_2 <- conv6_1
I0411 05:36:45.132109 16639 net.cpp:408] conv6_2 -> conv6_2
I0411 05:36:45.137965 16639 net.cpp:150] Setting up conv6_2
I0411 05:36:45.137984 16639 net.cpp:157] Top shape: 16 512 10 10 (819200)
I0411 05:36:45.137987 16639 net.cpp:165] Memory required for data: 3742482496
I0411 05:36:45.138006 16639 layer_factory.hpp:77] Creating layer conv6_2_relu
I0411 05:36:45.138015 16639 net.cpp:100] Creating Layer conv6_2_relu
I0411 05:36:45.138020 16639 net.cpp:434] conv6_2_relu <- conv6_2
I0411 05:36:45.138027 16639 net.cpp:395] conv6_2_relu -> conv6_2 (in-place)
I0411 05:36:45.138036 16639 net.cpp:150] Setting up conv6_2_relu
I0411 05:36:45.138042 16639 net.cpp:157] Top shape: 16 512 10 10 (819200)
I0411 05:36:45.138046 16639 net.cpp:165] Memory required for data: 3745759296
I0411 05:36:45.138049 16639 layer_factory.hpp:77] Creating layer conv6_2_conv6_2_relu_0_split
I0411 05:36:45.138056 16639 net.cpp:100] Creating Layer conv6_2_conv6_2_relu_0_split
I0411 05:36:45.138059 16639 net.cpp:434] conv6_2_conv6_2_relu_0_split <- conv6_2
I0411 05:36:45.138067 16639 net.cpp:408] conv6_2_conv6_2_relu_0_split -> conv6_2_conv6_2_relu_0_split_0
I0411 05:36:45.138074 16639 net.cpp:408] conv6_2_conv6_2_relu_0_split -> conv6_2_conv6_2_relu_0_split_1
I0411 05:36:45.138082 16639 net.cpp:408] conv6_2_conv6_2_relu_0_split -> conv6_2_conv6_2_relu_0_split_2
I0411 05:36:45.138087 16639 net.cpp:408] conv6_2_conv6_2_relu_0_split -> conv6_2_conv6_2_relu_0_split_3
I0411 05:36:45.138134 16639 net.cpp:150] Setting up conv6_2_conv6_2_relu_0_split
I0411 05:36:45.138139 16639 net.cpp:157] Top shape: 16 512 10 10 (819200)
I0411 05:36:45.138144 16639 net.cpp:157] Top shape: 16 512 10 10 (819200)
I0411 05:36:45.138149 16639 net.cpp:157] Top shape: 16 512 10 10 (819200)
I0411 05:36:45.138154 16639 net.cpp:157] Top shape: 16 512 10 10 (819200)
I0411 05:36:45.138157 16639 net.cpp:165] Memory required for data: 3758866496
I0411 05:36:45.138160 16639 layer_factory.hpp:77] Creating layer conv7_1
I0411 05:36:45.138170 16639 net.cpp:100] Creating Layer conv7_1
I0411 05:36:45.138175 16639 net.cpp:434] conv7_1 <- conv6_2_conv6_2_relu_0_split_0
I0411 05:36:45.138180 16639 net.cpp:408] conv7_1 -> conv7_1
I0411 05:36:45.138607 16639 net.cpp:150] Setting up conv7_1
I0411 05:36:45.138613 16639 net.cpp:157] Top shape: 16 128 10 10 (204800)
I0411 05:36:45.138617 16639 net.cpp:165] Memory required for data: 3759685696
I0411 05:36:45.138620 16639 layer_factory.hpp:77] Creating layer conv7_1_relu
I0411 05:36:45.138624 16639 net.cpp:100] Creating Layer conv7_1_relu
I0411 05:36:45.138628 16639 net.cpp:434] conv7_1_relu <- conv7_1
I0411 05:36:45.138631 16639 net.cpp:395] conv7_1_relu -> conv7_1 (in-place)
I0411 05:36:45.138635 16639 net.cpp:150] Setting up conv7_1_relu
I0411 05:36:45.138639 16639 net.cpp:157] Top shape: 16 128 10 10 (204800)
I0411 05:36:45.138641 16639 net.cpp:165] Memory required for data: 3760504896
I0411 05:36:45.138644 16639 layer_factory.hpp:77] Creating layer conv7_2
I0411 05:36:45.138653 16639 net.cpp:100] Creating Layer conv7_2
I0411 05:36:45.138656 16639 net.cpp:434] conv7_2 <- conv7_1
I0411 05:36:45.138664 16639 net.cpp:408] conv7_2 -> conv7_2
I0411 05:36:45.140588 16639 net.cpp:150] Setting up conv7_2
I0411 05:36:45.140597 16639 net.cpp:157] Top shape: 16 256 5 5 (102400)
I0411 05:36:45.140599 16639 net.cpp:165] Memory required for data: 3760914496
I0411 05:36:45.140605 16639 layer_factory.hpp:77] Creating layer conv7_2_relu
I0411 05:36:45.140611 16639 net.cpp:100] Creating Layer conv7_2_relu
I0411 05:36:45.140616 16639 net.cpp:434] conv7_2_relu <- conv7_2
I0411 05:36:45.140621 16639 net.cpp:395] conv7_2_relu -> conv7_2 (in-place)
I0411 05:36:45.140638 16639 net.cpp:150] Setting up conv7_2_relu
I0411 05:36:45.140643 16639 net.cpp:157] Top shape: 16 256 5 5 (102400)
I0411 05:36:45.140648 16639 net.cpp:165] Memory required for data: 3761324096
I0411 05:36:45.140651 16639 layer_factory.hpp:77] Creating layer conv7_2_conv7_2_relu_0_split
I0411 05:36:45.140656 16639 net.cpp:100] Creating Layer conv7_2_conv7_2_relu_0_split
I0411 05:36:45.140661 16639 net.cpp:434] conv7_2_conv7_2_relu_0_split <- conv7_2
I0411 05:36:45.140666 16639 net.cpp:408] conv7_2_conv7_2_relu_0_split -> conv7_2_conv7_2_relu_0_split_0
I0411 05:36:45.140673 16639 net.cpp:408] conv7_2_conv7_2_relu_0_split -> conv7_2_conv7_2_relu_0_split_1
I0411 05:36:45.140679 16639 net.cpp:408] conv7_2_conv7_2_relu_0_split -> conv7_2_conv7_2_relu_0_split_2
I0411 05:36:45.140686 16639 net.cpp:408] conv7_2_conv7_2_relu_0_split -> conv7_2_conv7_2_relu_0_split_3
I0411 05:36:45.140727 16639 net.cpp:150] Setting up conv7_2_conv7_2_relu_0_split
I0411 05:36:45.140732 16639 net.cpp:157] Top shape: 16 256 5 5 (102400)
I0411 05:36:45.140736 16639 net.cpp:157] Top shape: 16 256 5 5 (102400)
I0411 05:36:45.140741 16639 net.cpp:157] Top shape: 16 256 5 5 (102400)
I0411 05:36:45.140745 16639 net.cpp:157] Top shape: 16 256 5 5 (102400)
I0411 05:36:45.140749 16639 net.cpp:165] Memory required for data: 3762962496
I0411 05:36:45.140753 16639 layer_factory.hpp:77] Creating layer conv8_1
I0411 05:36:45.140759 16639 net.cpp:100] Creating Layer conv8_1
I0411 05:36:45.140763 16639 net.cpp:434] conv8_1 <- conv7_2_conv7_2_relu_0_split_0
I0411 05:36:45.140769 16639 net.cpp:408] conv8_1 -> conv8_1
I0411 05:36:45.141046 16639 net.cpp:150] Setting up conv8_1
I0411 05:36:45.141052 16639 net.cpp:157] Top shape: 16 128 5 5 (51200)
I0411 05:36:45.141055 16639 net.cpp:165] Memory required for data: 3763167296
I0411 05:36:45.141060 16639 layer_factory.hpp:77] Creating layer conv8_1_relu
I0411 05:36:45.141065 16639 net.cpp:100] Creating Layer conv8_1_relu
I0411 05:36:45.141068 16639 net.cpp:434] conv8_1_relu <- conv8_1
I0411 05:36:45.141089 16639 net.cpp:395] conv8_1_relu -> conv8_1 (in-place)
I0411 05:36:45.141094 16639 net.cpp:150] Setting up conv8_1_relu
I0411 05:36:45.141113 16639 net.cpp:157] Top shape: 16 128 5 5 (51200)
I0411 05:36:45.141115 16639 net.cpp:165] Memory required for data: 3763372096
I0411 05:36:45.141119 16639 layer_factory.hpp:77] Creating layer conv8_2
I0411 05:36:45.141125 16639 net.cpp:100] Creating Layer conv8_2
I0411 05:36:45.141129 16639 net.cpp:434] conv8_2 <- conv8_1
I0411 05:36:45.141134 16639 net.cpp:408] conv8_2 -> conv8_2
I0411 05:36:45.143090 16639 net.cpp:150] Setting up conv8_2
I0411 05:36:45.143105 16639 net.cpp:157] Top shape: 16 256 3 3 (36864)
I0411 05:36:45.143107 16639 net.cpp:165] Memory required for data: 3763519552
I0411 05:36:45.143113 16639 layer_factory.hpp:77] Creating layer conv8_2_relu
I0411 05:36:45.143120 16639 net.cpp:100] Creating Layer conv8_2_relu
I0411 05:36:45.143123 16639 net.cpp:434] conv8_2_relu <- conv8_2
I0411 05:36:45.143128 16639 net.cpp:395] conv8_2_relu -> conv8_2 (in-place)
I0411 05:36:45.143134 16639 net.cpp:150] Setting up conv8_2_relu
I0411 05:36:45.143139 16639 net.cpp:157] Top shape: 16 256 3 3 (36864)
I0411 05:36:45.143143 16639 net.cpp:165] Memory required for data: 3763667008
I0411 05:36:45.143146 16639 layer_factory.hpp:77] Creating layer conv8_2_conv8_2_relu_0_split
I0411 05:36:45.143154 16639 net.cpp:100] Creating Layer conv8_2_conv8_2_relu_0_split
I0411 05:36:45.143159 16639 net.cpp:434] conv8_2_conv8_2_relu_0_split <- conv8_2
I0411 05:36:45.143163 16639 net.cpp:408] conv8_2_conv8_2_relu_0_split -> conv8_2_conv8_2_relu_0_split_0
I0411 05:36:45.143170 16639 net.cpp:408] conv8_2_conv8_2_relu_0_split -> conv8_2_conv8_2_relu_0_split_1
I0411 05:36:45.143177 16639 net.cpp:408] conv8_2_conv8_2_relu_0_split -> conv8_2_conv8_2_relu_0_split_2
I0411 05:36:45.143184 16639 net.cpp:408] conv8_2_conv8_2_relu_0_split -> conv8_2_conv8_2_relu_0_split_3
I0411 05:36:45.143235 16639 net.cpp:150] Setting up conv8_2_conv8_2_relu_0_split
I0411 05:36:45.143259 16639 net.cpp:157] Top shape: 16 256 3 3 (36864)
I0411 05:36:45.143262 16639 net.cpp:157] Top shape: 16 256 3 3 (36864)
I0411 05:36:45.143267 16639 net.cpp:157] Top shape: 16 256 3 3 (36864)
I0411 05:36:45.143271 16639 net.cpp:157] Top shape: 16 256 3 3 (36864)
I0411 05:36:45.143275 16639 net.cpp:165] Memory required for data: 3764256832
I0411 05:36:45.143278 16639 layer_factory.hpp:77] Creating layer conv9_1
I0411 05:36:45.143288 16639 net.cpp:100] Creating Layer conv9_1
I0411 05:36:45.143292 16639 net.cpp:434] conv9_1 <- conv8_2_conv8_2_relu_0_split_0
I0411 05:36:45.143297 16639 net.cpp:408] conv9_1 -> conv9_1
I0411 05:36:45.143577 16639 net.cpp:150] Setting up conv9_1
I0411 05:36:45.143584 16639 net.cpp:157] Top shape: 16 128 3 3 (18432)
I0411 05:36:45.143585 16639 net.cpp:165] Memory required for data: 3764330560
I0411 05:36:45.143589 16639 layer_factory.hpp:77] Creating layer conv9_1_relu
I0411 05:36:45.143592 16639 net.cpp:100] Creating Layer conv9_1_relu
I0411 05:36:45.143596 16639 net.cpp:434] conv9_1_relu <- conv9_1
I0411 05:36:45.143599 16639 net.cpp:395] conv9_1_relu -> conv9_1 (in-place)
I0411 05:36:45.143604 16639 net.cpp:150] Setting up conv9_1_relu
I0411 05:36:45.143606 16639 net.cpp:157] Top shape: 16 128 3 3 (18432)
I0411 05:36:45.143610 16639 net.cpp:165] Memory required for data: 3764404288
I0411 05:36:45.143611 16639 layer_factory.hpp:77] Creating layer conv9_2
I0411 05:36:45.143615 16639 net.cpp:100] Creating Layer conv9_2
I0411 05:36:45.143618 16639 net.cpp:434] conv9_2 <- conv9_1
I0411 05:36:45.143622 16639 net.cpp:408] conv9_2 -> conv9_2
I0411 05:36:45.145555 16639 net.cpp:150] Setting up conv9_2
I0411 05:36:45.145570 16639 net.cpp:157] Top shape: 16 256 1 1 (4096)
I0411 05:36:45.145571 16639 net.cpp:165] Memory required for data: 3764420672
I0411 05:36:45.145581 16639 layer_factory.hpp:77] Creating layer conv9_2_relu
I0411 05:36:45.145591 16639 net.cpp:100] Creating Layer conv9_2_relu
I0411 05:36:45.145596 16639 net.cpp:434] conv9_2_relu <- conv9_2
I0411 05:36:45.145601 16639 net.cpp:395] conv9_2_relu -> conv9_2 (in-place)
I0411 05:36:45.145609 16639 net.cpp:150] Setting up conv9_2_relu
I0411 05:36:45.145613 16639 net.cpp:157] Top shape: 16 256 1 1 (4096)
I0411 05:36:45.145617 16639 net.cpp:165] Memory required for data: 3764437056
I0411 05:36:45.145619 16639 layer_factory.hpp:77] Creating layer conv9_2_conv9_2_relu_0_split
I0411 05:36:45.145625 16639 net.cpp:100] Creating Layer conv9_2_conv9_2_relu_0_split
I0411 05:36:45.145629 16639 net.cpp:434] conv9_2_conv9_2_relu_0_split <- conv9_2
I0411 05:36:45.145634 16639 net.cpp:408] conv9_2_conv9_2_relu_0_split -> conv9_2_conv9_2_relu_0_split_0
I0411 05:36:45.145642 16639 net.cpp:408] conv9_2_conv9_2_relu_0_split -> conv9_2_conv9_2_relu_0_split_1
I0411 05:36:45.145648 16639 net.cpp:408] conv9_2_conv9_2_relu_0_split -> conv9_2_conv9_2_relu_0_split_2
I0411 05:36:45.145684 16639 net.cpp:150] Setting up conv9_2_conv9_2_relu_0_split
I0411 05:36:45.145689 16639 net.cpp:157] Top shape: 16 256 1 1 (4096)
I0411 05:36:45.145694 16639 net.cpp:157] Top shape: 16 256 1 1 (4096)
I0411 05:36:45.145699 16639 net.cpp:157] Top shape: 16 256 1 1 (4096)
I0411 05:36:45.145700 16639 net.cpp:165] Memory required for data: 3764486208
I0411 05:36:45.145704 16639 layer_factory.hpp:77] Creating layer conv4_3_norm
I0411 05:36:45.145710 16639 net.cpp:100] Creating Layer conv4_3_norm
I0411 05:36:45.145715 16639 net.cpp:434] conv4_3_norm <- conv4_3_relu4_3_0_split_1
I0411 05:36:45.145721 16639 net.cpp:408] conv4_3_norm -> conv4_3_norm
I0411 05:36:45.145823 16639 net.cpp:150] Setting up conv4_3_norm
I0411 05:36:45.145828 16639 net.cpp:157] Top shape: 16 512 38 38 (11829248)
I0411 05:36:45.145828 16639 net.cpp:165] Memory required for data: 3811803200
I0411 05:36:45.145833 16639 layer_factory.hpp:77] Creating layer conv4_3_norm_conv4_3_norm_0_split
I0411 05:36:45.145838 16639 net.cpp:100] Creating Layer conv4_3_norm_conv4_3_norm_0_split
I0411 05:36:45.145840 16639 net.cpp:434] conv4_3_norm_conv4_3_norm_0_split <- conv4_3_norm
I0411 05:36:45.145843 16639 net.cpp:408] conv4_3_norm_conv4_3_norm_0_split -> conv4_3_norm_conv4_3_norm_0_split_0
I0411 05:36:45.145859 16639 net.cpp:408] conv4_3_norm_conv4_3_norm_0_split -> conv4_3_norm_conv4_3_norm_0_split_1
I0411 05:36:45.145866 16639 net.cpp:408] conv4_3_norm_conv4_3_norm_0_split -> conv4_3_norm_conv4_3_norm_0_split_2
I0411 05:36:45.145897 16639 net.cpp:150] Setting up conv4_3_norm_conv4_3_norm_0_split
I0411 05:36:45.145902 16639 net.cpp:157] Top shape: 16 512 38 38 (11829248)
I0411 05:36:45.145908 16639 net.cpp:157] Top shape: 16 512 38 38 (11829248)
I0411 05:36:45.145913 16639 net.cpp:157] Top shape: 16 512 38 38 (11829248)
I0411 05:36:45.145915 16639 net.cpp:165] Memory required for data: 3953754176
I0411 05:36:45.145918 16639 layer_factory.hpp:77] Creating layer conv4_3_norm_mbox_loc
I0411 05:36:45.145927 16639 net.cpp:100] Creating Layer conv4_3_norm_mbox_loc
I0411 05:36:45.145931 16639 net.cpp:434] conv4_3_norm_mbox_loc <- conv4_3_norm_conv4_3_norm_0_split_0
I0411 05:36:45.145937 16639 net.cpp:408] conv4_3_norm_mbox_loc -> conv4_3_norm_mbox_loc
I0411 05:36:45.146399 16639 net.cpp:150] Setting up conv4_3_norm_mbox_loc
I0411 05:36:45.146406 16639 net.cpp:157] Top shape: 16 16 38 38 (369664)
I0411 05:36:45.146410 16639 net.cpp:165] Memory required for data: 3955232832
I0411 05:36:45.146417 16639 layer_factory.hpp:77] Creating layer conv4_3_norm_mbox_loc_perm
I0411 05:36:45.146425 16639 net.cpp:100] Creating Layer conv4_3_norm_mbox_loc_perm
I0411 05:36:45.146428 16639 net.cpp:434] conv4_3_norm_mbox_loc_perm <- conv4_3_norm_mbox_loc
I0411 05:36:45.146433 16639 net.cpp:408] conv4_3_norm_mbox_loc_perm -> conv4_3_norm_mbox_loc_perm
I0411 05:36:45.146498 16639 net.cpp:150] Setting up conv4_3_norm_mbox_loc_perm
I0411 05:36:45.146503 16639 net.cpp:157] Top shape: 16 38 38 16 (369664)
I0411 05:36:45.146507 16639 net.cpp:165] Memory required for data: 3956711488
I0411 05:36:45.146512 16639 layer_factory.hpp:77] Creating layer conv4_3_norm_mbox_loc_flat
I0411 05:36:45.146518 16639 net.cpp:100] Creating Layer conv4_3_norm_mbox_loc_flat
I0411 05:36:45.146522 16639 net.cpp:434] conv4_3_norm_mbox_loc_flat <- conv4_3_norm_mbox_loc_perm
I0411 05:36:45.146528 16639 net.cpp:408] conv4_3_norm_mbox_loc_flat -> conv4_3_norm_mbox_loc_flat
I0411 05:36:45.146554 16639 net.cpp:150] Setting up conv4_3_norm_mbox_loc_flat
I0411 05:36:45.146559 16639 net.cpp:157] Top shape: 16 23104 (369664)
I0411 05:36:45.146561 16639 net.cpp:165] Memory required for data: 3958190144
I0411 05:36:45.146564 16639 layer_factory.hpp:77] Creating layer conv4_3_norm_mbox_conf
I0411 05:36:45.146574 16639 net.cpp:100] Creating Layer conv4_3_norm_mbox_conf
I0411 05:36:45.146576 16639 net.cpp:434] conv4_3_norm_mbox_conf <- conv4_3_norm_conv4_3_norm_0_split_1
I0411 05:36:45.146580 16639 net.cpp:408] conv4_3_norm_mbox_conf -> conv4_3_norm_mbox_conf
I0411 05:36:45.148869 16639 net.cpp:150] Setting up conv4_3_norm_mbox_conf
I0411 05:36:45.148879 16639 net.cpp:157] Top shape: 16 84 38 38 (1940736)
I0411 05:36:45.148881 16639 net.cpp:165] Memory required for data: 3965953088
I0411 05:36:45.148886 16639 layer_factory.hpp:77] Creating layer conv4_3_norm_mbox_conf_perm
I0411 05:36:45.148892 16639 net.cpp:100] Creating Layer conv4_3_norm_mbox_conf_perm
I0411 05:36:45.148896 16639 net.cpp:434] conv4_3_norm_mbox_conf_perm <- conv4_3_norm_mbox_conf
I0411 05:36:45.148900 16639 net.cpp:408] conv4_3_norm_mbox_conf_perm -> conv4_3_norm_mbox_conf_perm
I0411 05:36:45.148960 16639 net.cpp:150] Setting up conv4_3_norm_mbox_conf_perm
I0411 05:36:45.148965 16639 net.cpp:157] Top shape: 16 38 38 84 (1940736)
I0411 05:36:45.148968 16639 net.cpp:165] Memory required for data: 3973716032
I0411 05:36:45.148970 16639 layer_factory.hpp:77] Creating layer conv4_3_norm_mbox_conf_flat
I0411 05:36:45.148974 16639 net.cpp:100] Creating Layer conv4_3_norm_mbox_conf_flat
I0411 05:36:45.148977 16639 net.cpp:434] conv4_3_norm_mbox_conf_flat <- conv4_3_norm_mbox_conf_perm
I0411 05:36:45.148982 16639 net.cpp:408] conv4_3_norm_mbox_conf_flat -> conv4_3_norm_mbox_conf_flat
I0411 05:36:45.148996 16639 net.cpp:150] Setting up conv4_3_norm_mbox_conf_flat
I0411 05:36:45.149008 16639 net.cpp:157] Top shape: 16 121296 (1940736)
I0411 05:36:45.149010 16639 net.cpp:165] Memory required for data: 3981478976
I0411 05:36:45.149013 16639 layer_factory.hpp:77] Creating layer conv4_3_norm_mbox_priorbox
I0411 05:36:45.149019 16639 net.cpp:100] Creating Layer conv4_3_norm_mbox_priorbox
I0411 05:36:45.149020 16639 net.cpp:434] conv4_3_norm_mbox_priorbox <- conv4_3_norm_conv4_3_norm_0_split_2
I0411 05:36:45.149024 16639 net.cpp:434] conv4_3_norm_mbox_priorbox <- data_data_0_split_1
I0411 05:36:45.149029 16639 net.cpp:408] conv4_3_norm_mbox_priorbox -> conv4_3_norm_mbox_priorbox
I0411 05:36:45.149047 16639 net.cpp:150] Setting up conv4_3_norm_mbox_priorbox
I0411 05:36:45.149052 16639 net.cpp:157] Top shape: 1 2 23104 (46208)
I0411 05:36:45.149054 16639 net.cpp:165] Memory required for data: 3981663808
I0411 05:36:45.149056 16639 layer_factory.hpp:77] Creating layer fc7_mbox_loc
I0411 05:36:45.149061 16639 net.cpp:100] Creating Layer fc7_mbox_loc
I0411 05:36:45.149065 16639 net.cpp:434] fc7_mbox_loc <- fc7_relu7_0_split_1
I0411 05:36:45.149070 16639 net.cpp:408] fc7_mbox_loc -> fc7_mbox_loc
I0411 05:36:45.150102 16639 net.cpp:150] Setting up fc7_mbox_loc
I0411 05:36:45.150108 16639 net.cpp:157] Top shape: 16 24 19 19 (138624)
I0411 05:36:45.150110 16639 net.cpp:165] Memory required for data: 3982218304
I0411 05:36:45.150115 16639 layer_factory.hpp:77] Creating layer fc7_mbox_loc_perm
I0411 05:36:45.150120 16639 net.cpp:100] Creating Layer fc7_mbox_loc_perm
I0411 05:36:45.150122 16639 net.cpp:434] fc7_mbox_loc_perm <- fc7_mbox_loc
I0411 05:36:45.150126 16639 net.cpp:408] fc7_mbox_loc_perm -> fc7_mbox_loc_perm
I0411 05:36:45.150183 16639 net.cpp:150] Setting up fc7_mbox_loc_perm
I0411 05:36:45.150188 16639 net.cpp:157] Top shape: 16 19 19 24 (138624)
I0411 05:36:45.150190 16639 net.cpp:165] Memory required for data: 3982772800
I0411 05:36:45.150192 16639 layer_factory.hpp:77] Creating layer fc7_mbox_loc_flat
I0411 05:36:45.150195 16639 net.cpp:100] Creating Layer fc7_mbox_loc_flat
I0411 05:36:45.150198 16639 net.cpp:434] fc7_mbox_loc_flat <- fc7_mbox_loc_perm
I0411 05:36:45.150202 16639 net.cpp:408] fc7_mbox_loc_flat -> fc7_mbox_loc_flat
I0411 05:36:45.150214 16639 net.cpp:150] Setting up fc7_mbox_loc_flat
I0411 05:36:45.150218 16639 net.cpp:157] Top shape: 16 8664 (138624)
I0411 05:36:45.150220 16639 net.cpp:165] Memory required for data: 3983327296
I0411 05:36:45.150223 16639 layer_factory.hpp:77] Creating layer fc7_mbox_conf
I0411 05:36:45.150228 16639 net.cpp:100] Creating Layer fc7_mbox_conf
I0411 05:36:45.150231 16639 net.cpp:434] fc7_mbox_conf <- fc7_relu7_0_split_2
I0411 05:36:45.150235 16639 net.cpp:408] fc7_mbox_conf -> fc7_mbox_conf
I0411 05:36:45.155932 16639 net.cpp:150] Setting up fc7_mbox_conf
I0411 05:36:45.155951 16639 net.cpp:157] Top shape: 16 126 19 19 (727776)
I0411 05:36:45.155952 16639 net.cpp:165] Memory required for data: 3986238400
I0411 05:36:45.155959 16639 layer_factory.hpp:77] Creating layer fc7_mbox_conf_perm
I0411 05:36:45.155966 16639 net.cpp:100] Creating Layer fc7_mbox_conf_perm
I0411 05:36:45.155972 16639 net.cpp:434] fc7_mbox_conf_perm <- fc7_mbox_conf
I0411 05:36:45.155977 16639 net.cpp:408] fc7_mbox_conf_perm -> fc7_mbox_conf_perm
I0411 05:36:45.156044 16639 net.cpp:150] Setting up fc7_mbox_conf_perm
I0411 05:36:45.156047 16639 net.cpp:157] Top shape: 16 19 19 126 (727776)
I0411 05:36:45.156049 16639 net.cpp:165] Memory required for data: 3989149504
I0411 05:36:45.156051 16639 layer_factory.hpp:77] Creating layer fc7_mbox_conf_flat
I0411 05:36:45.156056 16639 net.cpp:100] Creating Layer fc7_mbox_conf_flat
I0411 05:36:45.156059 16639 net.cpp:434] fc7_mbox_conf_flat <- fc7_mbox_conf_perm
I0411 05:36:45.156061 16639 net.cpp:408] fc7_mbox_conf_flat -> fc7_mbox_conf_flat
I0411 05:36:45.156076 16639 net.cpp:150] Setting up fc7_mbox_conf_flat
I0411 05:36:45.156080 16639 net.cpp:157] Top shape: 16 45486 (727776)
I0411 05:36:45.156082 16639 net.cpp:165] Memory required for data: 3992060608
I0411 05:36:45.156085 16639 layer_factory.hpp:77] Creating layer fc7_mbox_priorbox
I0411 05:36:45.156101 16639 net.cpp:100] Creating Layer fc7_mbox_priorbox
I0411 05:36:45.156106 16639 net.cpp:434] fc7_mbox_priorbox <- fc7_relu7_0_split_3
I0411 05:36:45.156111 16639 net.cpp:434] fc7_mbox_priorbox <- data_data_0_split_2
I0411 05:36:45.156113 16639 net.cpp:408] fc7_mbox_priorbox -> fc7_mbox_priorbox
I0411 05:36:45.156131 16639 net.cpp:150] Setting up fc7_mbox_priorbox
I0411 05:36:45.156136 16639 net.cpp:157] Top shape: 1 2 8664 (17328)
I0411 05:36:45.156136 16639 net.cpp:165] Memory required for data: 3992129920
I0411 05:36:45.156138 16639 layer_factory.hpp:77] Creating layer conv6_2_mbox_loc
I0411 05:36:45.156144 16639 net.cpp:100] Creating Layer conv6_2_mbox_loc
I0411 05:36:45.156148 16639 net.cpp:434] conv6_2_mbox_loc <- conv6_2_conv6_2_relu_0_split_1
I0411 05:36:45.156152 16639 net.cpp:408] conv6_2_mbox_loc -> conv6_2_mbox_loc
I0411 05:36:45.156740 16639 net.cpp:150] Setting up conv6_2_mbox_loc
I0411 05:36:45.156746 16639 net.cpp:157] Top shape: 16 24 10 10 (38400)
I0411 05:36:45.156749 16639 net.cpp:165] Memory required for data: 3992283520
I0411 05:36:45.156752 16639 layer_factory.hpp:77] Creating layer conv6_2_mbox_loc_perm
I0411 05:36:45.156756 16639 net.cpp:100] Creating Layer conv6_2_mbox_loc_perm
I0411 05:36:45.156759 16639 net.cpp:434] conv6_2_mbox_loc_perm <- conv6_2_mbox_loc
I0411 05:36:45.156762 16639 net.cpp:408] conv6_2_mbox_loc_perm -> conv6_2_mbox_loc_perm
I0411 05:36:45.156822 16639 net.cpp:150] Setting up conv6_2_mbox_loc_perm
I0411 05:36:45.156826 16639 net.cpp:157] Top shape: 16 10 10 24 (38400)
I0411 05:36:45.156828 16639 net.cpp:165] Memory required for data: 3992437120
I0411 05:36:45.156831 16639 layer_factory.hpp:77] Creating layer conv6_2_mbox_loc_flat
I0411 05:36:45.156834 16639 net.cpp:100] Creating Layer conv6_2_mbox_loc_flat
I0411 05:36:45.156836 16639 net.cpp:434] conv6_2_mbox_loc_flat <- conv6_2_mbox_loc_perm
I0411 05:36:45.156839 16639 net.cpp:408] conv6_2_mbox_loc_flat -> conv6_2_mbox_loc_flat
I0411 05:36:45.156853 16639 net.cpp:150] Setting up conv6_2_mbox_loc_flat
I0411 05:36:45.156857 16639 net.cpp:157] Top shape: 16 2400 (38400)
I0411 05:36:45.156859 16639 net.cpp:165] Memory required for data: 3992590720
I0411 05:36:45.156862 16639 layer_factory.hpp:77] Creating layer conv6_2_mbox_conf
I0411 05:36:45.156867 16639 net.cpp:100] Creating Layer conv6_2_mbox_conf
I0411 05:36:45.156869 16639 net.cpp:434] conv6_2_mbox_conf <- conv6_2_conv6_2_relu_0_split_2
I0411 05:36:45.156873 16639 net.cpp:408] conv6_2_mbox_conf -> conv6_2_mbox_conf
I0411 05:36:45.160120 16639 net.cpp:150] Setting up conv6_2_mbox_conf
I0411 05:36:45.160140 16639 net.cpp:157] Top shape: 16 126 10 10 (201600)
I0411 05:36:45.160142 16639 net.cpp:165] Memory required for data: 3993397120
I0411 05:36:45.160148 16639 layer_factory.hpp:77] Creating layer conv6_2_mbox_conf_perm
I0411 05:36:45.160156 16639 net.cpp:100] Creating Layer conv6_2_mbox_conf_perm
I0411 05:36:45.160158 16639 net.cpp:434] conv6_2_mbox_conf_perm <- conv6_2_mbox_conf
I0411 05:36:45.160163 16639 net.cpp:408] conv6_2_mbox_conf_perm -> conv6_2_mbox_conf_perm
I0411 05:36:45.160236 16639 net.cpp:150] Setting up conv6_2_mbox_conf_perm
I0411 05:36:45.160240 16639 net.cpp:157] Top shape: 16 10 10 126 (201600)
I0411 05:36:45.160243 16639 net.cpp:165] Memory required for data: 3994203520
I0411 05:36:45.160245 16639 layer_factory.hpp:77] Creating layer conv6_2_mbox_conf_flat
I0411 05:36:45.160249 16639 net.cpp:100] Creating Layer conv6_2_mbox_conf_flat
I0411 05:36:45.160251 16639 net.cpp:434] conv6_2_mbox_conf_flat <- conv6_2_mbox_conf_perm
I0411 05:36:45.160256 16639 net.cpp:408] conv6_2_mbox_conf_flat -> conv6_2_mbox_conf_flat
I0411 05:36:45.160277 16639 net.cpp:150] Setting up conv6_2_mbox_conf_flat
I0411 05:36:45.160280 16639 net.cpp:157] Top shape: 16 12600 (201600)
I0411 05:36:45.160282 16639 net.cpp:165] Memory required for data: 3995009920
I0411 05:36:45.160284 16639 layer_factory.hpp:77] Creating layer conv6_2_mbox_priorbox
I0411 05:36:45.160291 16639 net.cpp:100] Creating Layer conv6_2_mbox_priorbox
I0411 05:36:45.160312 16639 net.cpp:434] conv6_2_mbox_priorbox <- conv6_2_conv6_2_relu_0_split_3
I0411 05:36:45.160318 16639 net.cpp:434] conv6_2_mbox_priorbox <- data_data_0_split_3
I0411 05:36:45.160326 16639 net.cpp:408] conv6_2_mbox_priorbox -> conv6_2_mbox_priorbox
I0411 05:36:45.160348 16639 net.cpp:150] Setting up conv6_2_mbox_priorbox
I0411 05:36:45.160353 16639 net.cpp:157] Top shape: 1 2 2400 (4800)
I0411 05:36:45.160354 16639 net.cpp:165] Memory required for data: 3995029120
I0411 05:36:45.160357 16639 layer_factory.hpp:77] Creating layer conv7_2_mbox_loc
I0411 05:36:45.160363 16639 net.cpp:100] Creating Layer conv7_2_mbox_loc
I0411 05:36:45.160365 16639 net.cpp:434] conv7_2_mbox_loc <- conv7_2_conv7_2_relu_0_split_1
I0411 05:36:45.160369 16639 net.cpp:408] conv7_2_mbox_loc -> conv7_2_mbox_loc
I0411 05:36:45.160748 16639 net.cpp:150] Setting up conv7_2_mbox_loc
I0411 05:36:45.160754 16639 net.cpp:157] Top shape: 16 24 5 5 (9600)
I0411 05:36:45.160756 16639 net.cpp:165] Memory required for data: 3995067520
I0411 05:36:45.160760 16639 layer_factory.hpp:77] Creating layer conv7_2_mbox_loc_perm
I0411 05:36:45.160764 16639 net.cpp:100] Creating Layer conv7_2_mbox_loc_perm
I0411 05:36:45.160768 16639 net.cpp:434] conv7_2_mbox_loc_perm <- conv7_2_mbox_loc
I0411 05:36:45.160770 16639 net.cpp:408] conv7_2_mbox_loc_perm -> conv7_2_mbox_loc_perm
I0411 05:36:45.160832 16639 net.cpp:150] Setting up conv7_2_mbox_loc_perm
I0411 05:36:45.160837 16639 net.cpp:157] Top shape: 16 5 5 24 (9600)
I0411 05:36:45.160840 16639 net.cpp:165] Memory required for data: 3995105920
I0411 05:36:45.160841 16639 layer_factory.hpp:77] Creating layer conv7_2_mbox_loc_flat
I0411 05:36:45.160845 16639 net.cpp:100] Creating Layer conv7_2_mbox_loc_flat
I0411 05:36:45.160847 16639 net.cpp:434] conv7_2_mbox_loc_flat <- conv7_2_mbox_loc_perm
I0411 05:36:45.160851 16639 net.cpp:408] conv7_2_mbox_loc_flat -> conv7_2_mbox_loc_flat
I0411 05:36:45.160864 16639 net.cpp:150] Setting up conv7_2_mbox_loc_flat
I0411 05:36:45.160871 16639 net.cpp:157] Top shape: 16 600 (9600)
I0411 05:36:45.160873 16639 net.cpp:165] Memory required for data: 3995144320
I0411 05:36:45.160876 16639 layer_factory.hpp:77] Creating layer conv7_2_mbox_conf
I0411 05:36:45.160883 16639 net.cpp:100] Creating Layer conv7_2_mbox_conf
I0411 05:36:45.160888 16639 net.cpp:434] conv7_2_mbox_conf <- conv7_2_conv7_2_relu_0_split_2
I0411 05:36:45.160894 16639 net.cpp:408] conv7_2_mbox_conf -> conv7_2_mbox_conf
I0411 05:36:45.162801 16639 net.cpp:150] Setting up conv7_2_mbox_conf
I0411 05:36:45.162811 16639 net.cpp:157] Top shape: 16 126 5 5 (50400)
I0411 05:36:45.162814 16639 net.cpp:165] Memory required for data: 3995345920
I0411 05:36:45.162822 16639 layer_factory.hpp:77] Creating layer conv7_2_mbox_conf_perm
I0411 05:36:45.162828 16639 net.cpp:100] Creating Layer conv7_2_mbox_conf_perm
I0411 05:36:45.162832 16639 net.cpp:434] conv7_2_mbox_conf_perm <- conv7_2_mbox_conf
I0411 05:36:45.162839 16639 net.cpp:408] conv7_2_mbox_conf_perm -> conv7_2_mbox_conf_perm
I0411 05:36:45.162907 16639 net.cpp:150] Setting up conv7_2_mbox_conf_perm
I0411 05:36:45.162912 16639 net.cpp:157] Top shape: 16 5 5 126 (50400)
I0411 05:36:45.162916 16639 net.cpp:165] Memory required for data: 3995547520
I0411 05:36:45.162919 16639 layer_factory.hpp:77] Creating layer conv7_2_mbox_conf_flat
I0411 05:36:45.162925 16639 net.cpp:100] Creating Layer conv7_2_mbox_conf_flat
I0411 05:36:45.162930 16639 net.cpp:434] conv7_2_mbox_conf_flat <- conv7_2_mbox_conf_perm
I0411 05:36:45.162935 16639 net.cpp:408] conv7_2_mbox_conf_flat -> conv7_2_mbox_conf_flat
I0411 05:36:45.162952 16639 net.cpp:150] Setting up conv7_2_mbox_conf_flat
I0411 05:36:45.162957 16639 net.cpp:157] Top shape: 16 3150 (50400)
I0411 05:36:45.162961 16639 net.cpp:165] Memory required for data: 3995749120
I0411 05:36:45.162963 16639 layer_factory.hpp:77] Creating layer conv7_2_mbox_priorbox
I0411 05:36:45.162968 16639 net.cpp:100] Creating Layer conv7_2_mbox_priorbox
I0411 05:36:45.162973 16639 net.cpp:434] conv7_2_mbox_priorbox <- conv7_2_conv7_2_relu_0_split_3
I0411 05:36:45.162977 16639 net.cpp:434] conv7_2_mbox_priorbox <- data_data_0_split_4
I0411 05:36:45.162992 16639 net.cpp:408] conv7_2_mbox_priorbox -> conv7_2_mbox_priorbox
I0411 05:36:45.163010 16639 net.cpp:150] Setting up conv7_2_mbox_priorbox
I0411 05:36:45.163015 16639 net.cpp:157] Top shape: 1 2 600 (1200)
I0411 05:36:45.163017 16639 net.cpp:165] Memory required for data: 3995753920
I0411 05:36:45.163018 16639 layer_factory.hpp:77] Creating layer conv8_2_mbox_loc
I0411 05:36:45.163024 16639 net.cpp:100] Creating Layer conv8_2_mbox_loc
I0411 05:36:45.163028 16639 net.cpp:434] conv8_2_mbox_loc <- conv8_2_conv8_2_relu_0_split_1
I0411 05:36:45.163033 16639 net.cpp:408] conv8_2_mbox_loc -> conv8_2_mbox_loc
I0411 05:36:45.163336 16639 net.cpp:150] Setting up conv8_2_mbox_loc
I0411 05:36:45.163341 16639 net.cpp:157] Top shape: 16 16 3 3 (2304)
I0411 05:36:45.163344 16639 net.cpp:165] Memory required for data: 3995763136
I0411 05:36:45.163354 16639 layer_factory.hpp:77] Creating layer conv8_2_mbox_loc_perm
I0411 05:36:45.163358 16639 net.cpp:100] Creating Layer conv8_2_mbox_loc_perm
I0411 05:36:45.163362 16639 net.cpp:434] conv8_2_mbox_loc_perm <- conv8_2_mbox_loc
I0411 05:36:45.163367 16639 net.cpp:408] conv8_2_mbox_loc_perm -> conv8_2_mbox_loc_perm
I0411 05:36:45.163429 16639 net.cpp:150] Setting up conv8_2_mbox_loc_perm
I0411 05:36:45.163434 16639 net.cpp:157] Top shape: 16 3 3 16 (2304)
I0411 05:36:45.163437 16639 net.cpp:165] Memory required for data: 3995772352
I0411 05:36:45.163441 16639 layer_factory.hpp:77] Creating layer conv8_2_mbox_loc_flat
I0411 05:36:45.163445 16639 net.cpp:100] Creating Layer conv8_2_mbox_loc_flat
I0411 05:36:45.163450 16639 net.cpp:434] conv8_2_mbox_loc_flat <- conv8_2_mbox_loc_perm
I0411 05:36:45.163456 16639 net.cpp:408] conv8_2_mbox_loc_flat -> conv8_2_mbox_loc_flat
I0411 05:36:45.163475 16639 net.cpp:150] Setting up conv8_2_mbox_loc_flat
I0411 05:36:45.163478 16639 net.cpp:157] Top shape: 16 144 (2304)
I0411 05:36:45.163480 16639 net.cpp:165] Memory required for data: 3995781568
I0411 05:36:45.163483 16639 layer_factory.hpp:77] Creating layer conv8_2_mbox_conf
I0411 05:36:45.163489 16639 net.cpp:100] Creating Layer conv8_2_mbox_conf
I0411 05:36:45.163492 16639 net.cpp:434] conv8_2_mbox_conf <- conv8_2_conv8_2_relu_0_split_2
I0411 05:36:45.163496 16639 net.cpp:408] conv8_2_mbox_conf -> conv8_2_mbox_conf
I0411 05:36:45.164398 16639 net.cpp:150] Setting up conv8_2_mbox_conf
I0411 05:36:45.164404 16639 net.cpp:157] Top shape: 16 84 3 3 (12096)
I0411 05:36:45.164407 16639 net.cpp:165] Memory required for data: 3995829952
I0411 05:36:45.164410 16639 layer_factory.hpp:77] Creating layer conv8_2_mbox_conf_perm
I0411 05:36:45.164414 16639 net.cpp:100] Creating Layer conv8_2_mbox_conf_perm
I0411 05:36:45.164418 16639 net.cpp:434] conv8_2_mbox_conf_perm <- conv8_2_mbox_conf
I0411 05:36:45.164422 16639 net.cpp:408] conv8_2_mbox_conf_perm -> conv8_2_mbox_conf_perm
I0411 05:36:45.164481 16639 net.cpp:150] Setting up conv8_2_mbox_conf_perm
I0411 05:36:45.164486 16639 net.cpp:157] Top shape: 16 3 3 84 (12096)
I0411 05:36:45.164489 16639 net.cpp:165] Memory required for data: 3995878336
I0411 05:36:45.164491 16639 layer_factory.hpp:77] Creating layer conv8_2_mbox_conf_flat
I0411 05:36:45.164494 16639 net.cpp:100] Creating Layer conv8_2_mbox_conf_flat
I0411 05:36:45.164497 16639 net.cpp:434] conv8_2_mbox_conf_flat <- conv8_2_mbox_conf_perm
I0411 05:36:45.164501 16639 net.cpp:408] conv8_2_mbox_conf_flat -> conv8_2_mbox_conf_flat
I0411 05:36:45.164515 16639 net.cpp:150] Setting up conv8_2_mbox_conf_flat
I0411 05:36:45.164520 16639 net.cpp:157] Top shape: 16 756 (12096)
I0411 05:36:45.164521 16639 net.cpp:165] Memory required for data: 3995926720
I0411 05:36:45.164523 16639 layer_factory.hpp:77] Creating layer conv8_2_mbox_priorbox
I0411 05:36:45.164527 16639 net.cpp:100] Creating Layer conv8_2_mbox_priorbox
I0411 05:36:45.164530 16639 net.cpp:434] conv8_2_mbox_priorbox <- conv8_2_conv8_2_relu_0_split_3
I0411 05:36:45.164532 16639 net.cpp:434] conv8_2_mbox_priorbox <- data_data_0_split_5
I0411 05:36:45.164536 16639 net.cpp:408] conv8_2_mbox_priorbox -> conv8_2_mbox_priorbox
I0411 05:36:45.164558 16639 net.cpp:150] Setting up conv8_2_mbox_priorbox
I0411 05:36:45.164562 16639 net.cpp:157] Top shape: 1 2 144 (288)
I0411 05:36:45.164564 16639 net.cpp:165] Memory required for data: 3995927872
I0411 05:36:45.164567 16639 layer_factory.hpp:77] Creating layer conv9_2_mbox_loc
I0411 05:36:45.164572 16639 net.cpp:100] Creating Layer conv9_2_mbox_loc
I0411 05:36:45.164574 16639 net.cpp:434] conv9_2_mbox_loc <- conv9_2_conv9_2_relu_0_split_0
I0411 05:36:45.164578 16639 net.cpp:408] conv9_2_mbox_loc -> conv9_2_mbox_loc
I0411 05:36:45.164875 16639 net.cpp:150] Setting up conv9_2_mbox_loc
I0411 05:36:45.164880 16639 net.cpp:157] Top shape: 16 16 1 1 (256)
I0411 05:36:45.164882 16639 net.cpp:165] Memory required for data: 3995928896
I0411 05:36:45.164886 16639 layer_factory.hpp:77] Creating layer conv9_2_mbox_loc_perm
I0411 05:36:45.164891 16639 net.cpp:100] Creating Layer conv9_2_mbox_loc_perm
I0411 05:36:45.164896 16639 net.cpp:434] conv9_2_mbox_loc_perm <- conv9_2_mbox_loc
I0411 05:36:45.164901 16639 net.cpp:408] conv9_2_mbox_loc_perm -> conv9_2_mbox_loc_perm
I0411 05:36:45.164963 16639 net.cpp:150] Setting up conv9_2_mbox_loc_perm
I0411 05:36:45.164968 16639 net.cpp:157] Top shape: 16 1 1 16 (256)
I0411 05:36:45.164969 16639 net.cpp:165] Memory required for data: 3995929920
I0411 05:36:45.164970 16639 layer_factory.hpp:77] Creating layer conv9_2_mbox_loc_flat
I0411 05:36:45.164973 16639 net.cpp:100] Creating Layer conv9_2_mbox_loc_flat
I0411 05:36:45.164978 16639 net.cpp:434] conv9_2_mbox_loc_flat <- conv9_2_mbox_loc_perm
I0411 05:36:45.164983 16639 net.cpp:408] conv9_2_mbox_loc_flat -> conv9_2_mbox_loc_flat
I0411 05:36:45.164999 16639 net.cpp:150] Setting up conv9_2_mbox_loc_flat
I0411 05:36:45.165004 16639 net.cpp:157] Top shape: 16 16 (256)
I0411 05:36:45.165005 16639 net.cpp:165] Memory required for data: 3995930944
I0411 05:36:45.165007 16639 layer_factory.hpp:77] Creating layer conv9_2_mbox_conf
I0411 05:36:45.165012 16639 net.cpp:100] Creating Layer conv9_2_mbox_conf
I0411 05:36:45.165015 16639 net.cpp:434] conv9_2_mbox_conf <- conv9_2_conv9_2_relu_0_split_1
I0411 05:36:45.165019 16639 net.cpp:408] conv9_2_mbox_conf -> conv9_2_mbox_conf
I0411 05:36:45.165936 16639 net.cpp:150] Setting up conv9_2_mbox_conf
I0411 05:36:45.165942 16639 net.cpp:157] Top shape: 16 84 1 1 (1344)
I0411 05:36:45.165944 16639 net.cpp:165] Memory required for data: 3995936320
I0411 05:36:45.165948 16639 layer_factory.hpp:77] Creating layer conv9_2_mbox_conf_perm
I0411 05:36:45.165951 16639 net.cpp:100] Creating Layer conv9_2_mbox_conf_perm
I0411 05:36:45.165956 16639 net.cpp:434] conv9_2_mbox_conf_perm <- conv9_2_mbox_conf
I0411 05:36:45.165958 16639 net.cpp:408] conv9_2_mbox_conf_perm -> conv9_2_mbox_conf_perm
I0411 05:36:45.166028 16639 net.cpp:150] Setting up conv9_2_mbox_conf_perm
I0411 05:36:45.166034 16639 net.cpp:157] Top shape: 16 1 1 84 (1344)
I0411 05:36:45.166038 16639 net.cpp:165] Memory required for data: 3995941696
I0411 05:36:45.166040 16639 layer_factory.hpp:77] Creating layer conv9_2_mbox_conf_flat
I0411 05:36:45.166045 16639 net.cpp:100] Creating Layer conv9_2_mbox_conf_flat
I0411 05:36:45.166048 16639 net.cpp:434] conv9_2_mbox_conf_flat <- conv9_2_mbox_conf_perm
I0411 05:36:45.166051 16639 net.cpp:408] conv9_2_mbox_conf_flat -> conv9_2_mbox_conf_flat
I0411 05:36:45.166065 16639 net.cpp:150] Setting up conv9_2_mbox_conf_flat
I0411 05:36:45.166069 16639 net.cpp:157] Top shape: 16 84 (1344)
I0411 05:36:45.166071 16639 net.cpp:165] Memory required for data: 3995947072
I0411 05:36:45.166074 16639 layer_factory.hpp:77] Creating layer conv9_2_mbox_priorbox
I0411 05:36:45.166077 16639 net.cpp:100] Creating Layer conv9_2_mbox_priorbox
I0411 05:36:45.166080 16639 net.cpp:434] conv9_2_mbox_priorbox <- conv9_2_conv9_2_relu_0_split_2
I0411 05:36:45.166084 16639 net.cpp:434] conv9_2_mbox_priorbox <- data_data_0_split_6
I0411 05:36:45.166087 16639 net.cpp:408] conv9_2_mbox_priorbox -> conv9_2_mbox_priorbox
I0411 05:36:45.166103 16639 net.cpp:150] Setting up conv9_2_mbox_priorbox
I0411 05:36:45.166115 16639 net.cpp:157] Top shape: 1 2 16 (32)
I0411 05:36:45.166119 16639 net.cpp:165] Memory required for data: 3995947200
I0411 05:36:45.166122 16639 layer_factory.hpp:77] Creating layer mbox_loc
I0411 05:36:45.166128 16639 net.cpp:100] Creating Layer mbox_loc
I0411 05:36:45.166134 16639 net.cpp:434] mbox_loc <- conv4_3_norm_mbox_loc_flat
I0411 05:36:45.166139 16639 net.cpp:434] mbox_loc <- fc7_mbox_loc_flat
I0411 05:36:45.166144 16639 net.cpp:434] mbox_loc <- conv6_2_mbox_loc_flat
I0411 05:36:45.166149 16639 net.cpp:434] mbox_loc <- conv7_2_mbox_loc_flat
I0411 05:36:45.166154 16639 net.cpp:434] mbox_loc <- conv8_2_mbox_loc_flat
I0411 05:36:45.166158 16639 net.cpp:434] mbox_loc <- conv9_2_mbox_loc_flat
I0411 05:36:45.166164 16639 net.cpp:408] mbox_loc -> mbox_loc
I0411 05:36:45.166188 16639 net.cpp:150] Setting up mbox_loc
I0411 05:36:45.166193 16639 net.cpp:157] Top shape: 16 34928 (558848)
I0411 05:36:45.166196 16639 net.cpp:165] Memory required for data: 3998182592
I0411 05:36:45.166200 16639 layer_factory.hpp:77] Creating layer mbox_conf
I0411 05:36:45.166205 16639 net.cpp:100] Creating Layer mbox_conf
I0411 05:36:45.166210 16639 net.cpp:434] mbox_conf <- conv4_3_norm_mbox_conf_flat
I0411 05:36:45.166215 16639 net.cpp:434] mbox_conf <- fc7_mbox_conf_flat
I0411 05:36:45.166220 16639 net.cpp:434] mbox_conf <- conv6_2_mbox_conf_flat
I0411 05:36:45.166224 16639 net.cpp:434] mbox_conf <- conv7_2_mbox_conf_flat
I0411 05:36:45.166229 16639 net.cpp:434] mbox_conf <- conv8_2_mbox_conf_flat
I0411 05:36:45.166232 16639 net.cpp:434] mbox_conf <- conv9_2_mbox_conf_flat
I0411 05:36:45.166239 16639 net.cpp:408] mbox_conf -> mbox_conf
I0411 05:36:45.166255 16639 net.cpp:150] Setting up mbox_conf
I0411 05:36:45.166260 16639 net.cpp:157] Top shape: 16 183372 (2933952)
I0411 05:36:45.166261 16639 net.cpp:165] Memory required for data: 4009918400
I0411 05:36:45.166263 16639 layer_factory.hpp:77] Creating layer mbox_priorbox
I0411 05:36:45.166267 16639 net.cpp:100] Creating Layer mbox_priorbox
I0411 05:36:45.166271 16639 net.cpp:434] mbox_priorbox <- conv4_3_norm_mbox_priorbox
I0411 05:36:45.166275 16639 net.cpp:434] mbox_priorbox <- fc7_mbox_priorbox
I0411 05:36:45.166276 16639 net.cpp:434] mbox_priorbox <- conv6_2_mbox_priorbox
I0411 05:36:45.166280 16639 net.cpp:434] mbox_priorbox <- conv7_2_mbox_priorbox
I0411 05:36:45.166281 16639 net.cpp:434] mbox_priorbox <- conv8_2_mbox_priorbox
I0411 05:36:45.166285 16639 net.cpp:434] mbox_priorbox <- conv9_2_mbox_priorbox
I0411 05:36:45.166288 16639 net.cpp:408] mbox_priorbox -> mbox_priorbox
I0411 05:36:45.166304 16639 net.cpp:150] Setting up mbox_priorbox
I0411 05:36:45.166309 16639 net.cpp:157] Top shape: 1 2 34928 (69856)
I0411 05:36:45.166311 16639 net.cpp:165] Memory required for data: 4010197824
I0411 05:36:45.166313 16639 layer_factory.hpp:77] Creating layer mbox_loss
I0411 05:36:45.166321 16639 net.cpp:100] Creating Layer mbox_loss
I0411 05:36:45.166323 16639 net.cpp:434] mbox_loss <- mbox_loc
I0411 05:36:45.166326 16639 net.cpp:434] mbox_loss <- mbox_conf
I0411 05:36:45.166329 16639 net.cpp:434] mbox_loss <- mbox_priorbox
…
state {
  phase: TEST
}
layer {
  name: "data"
  type: "AnnotatedData"
  top: "data"
  top: "label"
  include {
    phase: TEST
  }
  transform_param {
    mean_value: 104
    mean_value: 117
    mean_value: 123
    resize_param {
      prob: 1
      resize_mode: WARP
      height: 300
      width: 300
      interp_mode: LINEAR
    }
  }
  data_param {
    source: "examples/VOC0712/VOC0712_test_lmdb"
    batch_size: 8
    backend: LMDB
  }
  annotated_data_param {
    batch_sampler {
    }
    label_map_file: "data/VOC0712/labelmap_voc.prototxt"
  }
}
layer {
  name: "conv1_1"
  type: "Convolution"
  bottom: "data"
  top: "conv1_1"
  param {
    lr_mult: 1
    decay_mult: 1
  }
  param {
    lr_mult: 2
    decay_mult: 0
  }
  convolution_param {
    num_output: 64
    pad: 1
    kernel_size: 3
    weight_filler {
      type: "xavier"
    }
    bias_filler {
      type: "constant"
      value: 0
    }
  }
}
layer {
  name: "relu1_1"
  type: "ReLU"
  bottom: "conv1_1"
  top: "conv1_1"
}
layer {
  name: "conv1_2"
  type: "Convolution"
  bottom: "conv1_1"
  top: "conv1_2"
  param {
    lr_mult: 1
    decay_mult: 1
  }
  param {
    lr_mult: 2
    decay_mult: 0
  }
  convolution_param {
    num_output: 64
    pad: 1
    kernel_size: 3
    weight_filler {
      type: "xavier"
    }
    bias_filler {
      type: "constant"
      value: 0
    }
  }
}
layer {
  name: "relu1_2"
  type: "ReLU"
  bottom: "conv1_2"
  top: "conv1_2"
}
layer {
  name: "pool1"
  type: "Pooling"
  bottom: "conv1_2"
  top: "pool1"
  pooling_param {
    pool: MAX
    kernel_size: 2
    stride: 2
  }
}
layer {
  name: "conv2_1"
  type: "Convolution"
  bottom: "pool1"
  top: "conv2_1"
  param {
    lr_mult: 1
    decay_mult: 1
  }
  param {
    lr_mult: 2
    decay_mult: 0
  }
  convolution_param {
    num_output: 128
    pad: 1
    kernel_size: 3
    weight_filler {
      type: "xavier"
    }
    bias_filler {
      type: "constant"
      value: 0
    }
  }
}
layer {
  name: "relu2_1"
  type: "ReLU"
  bottom: "conv2_1"
  top: "conv2_1"
}
layer {
  name: "conv2_2"
  type: "Convolution"
  bottom: "conv2_1"
  top: "conv2_2"
  param {
    lr_mult: 1
    decay_mult: 1
  }
  param {
    lr_mult: 2
    decay_mult: 0
  }
  convolution_param {
    num_output: 128
    pad: 1
    kernel_size: 3
    weight_filler {
      type: "xavier"
    }
    bias_filler {
      type: "constant"
      value: 0
    }
  }
}
layer {
  name: "relu2_2"
  type: "ReLU"
  bottom: "conv2_2"
  top: "conv2_2"
}
layer {
  name: "pool2"
  type: "Pooling"
  bottom: "conv2_2"
  top: "pool2"
  pooling_param {
    pool: MAX
    kernel_size: 2
    stride: 2
  }
}
layer {
  name: "conv3_1"
  type: "Convolution"
  bottom: "pool2"
  top: "conv3_1"
  param {
    lr_mult: 1
    decay_mult: 1
  }
  param {
    lr_mult: 2
    decay_mult: 0
  }
  convolution_param {
    num_output: 256
    pad: 1
    kernel_size: 3
    weight_filler {
      type: "xavier"
    }
    bias_filler {
      type: "constant"
      value: 0
    }
  }
}
layer {
  name: "relu3_1"
  type: "ReLU"
  bottom: "conv3_1"
  top: "conv3_1"
}
layer {
  name: "conv3_2"
  type: "Convolution"
  bottom: "conv3_1"
  top: "conv3_2"
  param {
    lr_mult: 1
    decay_mult: 1
  }
  param {
    lr_mult: 2
    decay_mult: 0
  }
  convolution_param {
    num_output: 256
    pad: 1
    kernel_size: 3
    weight_filler {
      type: "xavier"
    }
    bias_filler {
      type: "constant"
      value: 0
    }
  }
}
layer {
  name: "relu3_2"
  type: "ReLU"
  bottom: "conv3_2"
  top: "conv3_2"
}
layer {
  name: "conv3_3"
  type: "Convolution"
  bottom: "conv3_2"
  top: "conv3_3"
  param {
    lr_mult: 1
    decay_mult: 1
  }
  param {
    lr_mult: 2
    decay_mult: 0
  }
  convolution_param {
    num_output: 256
    pad: 1
    kernel_size: 3
    weight_filler {
      type: "xavier"
    }
    bias_filler {
      type: "constant"
      value: 0
    }
  }
}
layer {
  name: "relu3_3"
  type: "ReLU"
  bottom: "conv3_3"
  top: "conv3_3"
}
layer {
  name: "pool3"
  type: "Pooling"
  bottom: "conv3_3"
  top: "pool3"
  pooling_param {
    pool: MAX
    kernel_size: 2
    stride: 2
  }
}
layer {
  name: "conv4_1"
  type: "Convolution"
  bottom: "pool3"
  top: "conv4_1"
  param {
    lr_mult: 1
    decay_mult: 1
  }
  param {
    lr_mult: 2
    decay_mult: 0
  }
  convolution_param {
    num_output: 512
    pad: 1
    kernel_size: 3
    weight_filler {
      type: "xavier"
    }
    bias_filler {
      type: "constant"
      value: 0
    }
  }
}
layer {
  name: "relu4_1"
  type: "ReLU"
  bottom: "conv4_1"
  top: "conv4_1"
}
layer {
  name: "conv4_2"
  type: "Convolution"
  bottom: "conv4_1"
  top: "conv4_2"
  param {
    lr_mult: 1
    decay_mult: 1
  }
  param {
    lr_mult: 2
    decay_mult: 0
  }
  convolution_param {
    num_output: 512
    pad: 1
    kernel_size: 3
    weight_filler {
      type: "xavier"
    }
    bias_filler {
      type: "constant"
      value: 0
    }
  }
}
layer {
  name: "relu4_2"
  type: "ReLU"
  bottom: "conv4_2"
  top: "conv4_2"
}
layer {
  name: "conv4_3"
  type: "Convolution"
  bottom: "conv4_2"
  top: "conv4_3"
  param {
    lr_mult: 1
    decay_mult: 1
  }
  param {
    lr_mult: 2
    decay_mult: 0
  }
  convolution_param {
    num_output: 512
    pad: 1
    kernel_size: 3
    weight_filler {
      type: "xavier"
    }
    bias_filler {
      type: "constant"
      value: 0
    }
  }
}
layer {
  name: "relu4_3"
  type: "ReLU"
  bottom: "conv4_3"
  top: "conv4_3"
}
layer {
  name: "pool4"
  type: "Pooling"
  bottom: "conv4_3"
  top: "pool4"
  pooling_param {
    pool: MAX
    kernel_size: 2
    stride: 2
  }
}
layer {
  name: "conv5_1"
  type: "Convolution"
  bottom: "pool4"
  top: "conv5_1"
  param {
    lr_mult: 1
    decay_mult: 1
  }
  param {
    lr_mult: 2
    decay_mult: 0
  }
  convolution_param {
    num_output: 512
    pad: 1
    kernel_size: 3
    weight_filler {
      type: "xavier"
    }
    bias_filler {
      type: "constant"
      value: 0
    }
    dilation: 1
  }
}
layer {
  name: "relu5_1"
  type: "ReLU"
  bottom: "conv5_1"
  top: "conv5_1"
}
layer {
  name: "conv5_2"
  type: "Convolution"
  bottom: "conv5_1"
  top: "conv5_2"
  param {
    lr_mult: 1
    decay_mult: 1
  }
  param {
    lr_mult: 2
    decay_mult: 0
  }
  convolution_param {
    num_output: 512
    pad: 1
    kernel_size: 3
    weight_filler {
      type: "xavier"
    }
    bias_filler {
      type: "constant"
      value: 0
    }
    dilation: 1
  }
}
layer {
  name: "relu5_2"
  type: "ReLU"
  bottom: "conv5_2"
  top: "conv5_2"
}
layer {
  name: "conv5_3"
  type: "Convolution"
  bottom: "conv5_2"
  top: "conv5_3"
  param {
    lr_mult: 1
    decay_mult: 1
  }
  param {
    lr_mult: 2
    decay_mult: 0
  }
  convolution_param {
    num_output: 512
    pad: 1
    kernel_size: 3
    weight_filler {
      type: "xavier"
    }
    bias_filler {
      type: "constant"
      value: 0
    }
    dilation: 1
  }
}
layer {
  name: "relu5_3"
  type: "ReLU"
  bottom: "conv5_3"
  top: "conv5_3"
}
layer {
  name: "pool5"
  type: "Pooling"
  bottom: "conv5_3"
  top: "pool5"
  pooling_param {
    pool: MAX
    kernel_size: 3
    stride: 1
    pad: 1
  }
}
layer {
  name: "fc6"
  type: "Convolution"
  bottom: "pool5"
  top: "fc6"
  param {
    lr_mult: 1
    decay_mult: 1
  }
  param {
    lr_mult: 2
    decay_mult: 0
  }
  convolution_param {
    num_output: 1024
    pad: 6
    kernel_size: 3
    weight_filler {
      type: "xavier"
    }
    bias_filler {
      type: "constant"
      value: 0
    }
    dilation: 6
  }
}
layer {
  name: "relu6"
  type: "ReLU"
  bottom: "fc6"
  top: "fc6"
}
layer {
  name: "fc7"
  type: "Convolution"
  bottom: "fc6"
  top: "fc7"
  param {
    lr_mult: 1
    decay_mult: 1
  }
  param {
    lr_mult: 2
    decay_mult: 0
  }
  convolution_param {
    num_output: 1024
    kernel_size: 1
    weight_filler {
      type: "xavier"
    }
    bias_filler {
      type: "constant"
      value: 0
    }
  }
}
layer {
  name: "relu7"
  type: "ReLU"
  bottom: "fc7"
  top: "fc7"
}
layer {
  name: "conv6_1"
  type: "Convolution"
  bottom: "fc7"
  top: "conv6_1"
  param {
    lr_mult: 1
    decay_mult: 1
  }
  param {
    lr_mult: 2
    decay_mult: 0
  }
  convolution_param {
    num_output: 256
    pad: 0
    kernel_size: 1
    stride: 1
    weight_filler {
      type: "xavier"
    }
    bias_filler {
      type: "constant"
      value: 0
    }
  }
}
layer {
  name: "conv6_1_relu"
  type: "ReLU"
  bottom: "conv6_1"
  top: "conv6_1"
}
layer {
  name: "conv6_2"
  type: "Convolution"
  bottom: "conv6_1"
  top: "conv6_2"
  param {
    lr_mult: 1
    decay_mult: 1
  }
  param {
    lr_mult: 2
    decay_mult: 0
  }
  convolution_param {
    num_output: 512
    pad: 1
    kernel_size: 3
    stride: 2
    weight_filler {
      type: "xavier"
    }
    bias_filler {
      type: "constant"
      value: 0
    }
  }
}
layer {
  name: "conv6_2_relu"
  type: "ReLU"
  bottom: "conv6_2"
  top: "conv6_2"
}
layer {
  name: "conv7_1"
  type: "Convolution"
  bottom: "conv6_2"
  top: "conv7_1"
  param {
    lr_mult: 1
    decay_mult: 1
  }
  param {
    lr_mult: 2
    decay_mult: 0
  }
  convolution_param {
    num_output: 128
    pad: 0
    kernel_size: 1
    stride: 1
    weight_filler {
      type: "xavier"
    }
    bias_filler {
      type: "constant"
      value: 0
    }
  }
}
layer {
  name: "conv7_1_relu"
  type: "ReLU"
  bottom: "conv7_1"
  top: "conv7_1"
}
layer {
  name: "conv7_2"
  type: "Convolution"
  bottom: "conv7_1"
  top: "conv7_2"
  param {
    lr_mult: 1
    decay_mult: 1
  }
  param {
    lr_mult: 2
    decay_mult: 0
  }
  convolution_param {
    num_output: 256
    pad: 1
    kernel_size: 3
    stride: 2
    weight_filler {
      type: "xavier"
    }
    bias_filler {
      type: "constant"
      value: 0
    }
  }
}
layer {
  name: "conv7_2_relu"
  type: "ReLU"
  bottom: "conv7_2"
  top: "conv7_2"
}
layer {
  name: "conv8_1"
  type: "Convolution"
  bottom: "conv7_2"
  top: "conv8_1"
  param {
    lr_mult: 1
    decay_mult: 1
  }
  param {
    lr_mult: 2
    decay_mult: 0
  }
  convolution_param {
    num_output: 128
    pad: 0
    kernel_size: 1
    stride: 1
    weight_filler {
      type: "xavier"
    }
    bias_filler {
      type: "constant"
      value: 0
    }
  }
}
layer {
  name: "conv8_1_relu"
  type: "ReLU"
  bottom: "conv8_1"
  top: "conv8_1"
}
layer {
  name: "conv8_2"
  type: "Convolution"
  bottom: "conv8_1"
  top: "conv8_2"
  param {
    lr_mult: 1
    decay_mult: 1
  }
  param {
    lr_mult: 2
    decay_mult: 0
  }
  convolution_param {
    num_output: 256
    pad: 0
    kernel_size: 3
    stride: 1
    weight_filler {
      type: "xavier"
    }
    bias_filler {
      type: "constant"
      value: 0
    }
  }
}
layer {
  name: "conv8_2_relu"
  type: "ReLU"
  bottom: "conv8_2"
  top: "conv8_2"
}
layer {
  name: "conv9_1"
  type: "Convolution"
  bottom: "conv8_2"
  top: "conv9_1"
  param {
    lr_mult: 1
    decay_mult: 1
  }
  param {
    lr_mult: 2
    decay_mult: 0
  }
  convolution_param {
    num_output: 128
    pad: 0
    kernel_size: 1
    stride: 1
    weight_filler {
      type: "xavier"
    }
    bias_filler {
      type: "constant"
      value: 0
    }
  }
}
layer {
  name: "conv9_1_relu"
  type: "ReLU"
  bottom: "conv9_1"
  top: "conv9_1"
}
layer {
  name: "conv9_2"
  type: "Convolution"
  bottom: "conv9_1"
  top: "conv9_2"
  param {
    lr_mult: 1
    decay_mult: 1
  }
  param {
    lr_mult: 2
    decay_mult: 0
  }
  convolution_param {
    num_output: 256
    pad: 0
    kernel_size: 3
    stride: 1
    weight_filler {
      type: "xavier"
    }
    bias_filler {
      type: "constant"
      value: 0
    }
  }
}
layer {
  name: "conv9_2_relu"
  type: "ReLU"
  bottom: "conv9_2"
  top: "conv9_2"
}
layer {
  name: "conv4_3_norm"
  type: "Normalize"
  bottom: "conv4_3"
  top: "conv4_3_norm"
  norm_param {
    across_spatial: false
    scale_filler {
      type: "constant"
      value: 20
    }
    channel_shared: false
  }
}
layer {
  name: "conv4_3_norm_mbox_loc"
  type: "Convolution"
  bottom: "conv4_3_norm"
  top: "conv4_3_norm_mbox_loc"
  param {
    lr_mult: 1
    decay_mult: 1
  }
  param {
    lr_mult: 2
    decay_mult: 0
  }
  convolution_param {
    num_output: 16
    pad: 1
    kernel_size: 3
    stride: 1
    weight_filler {
      type: "xavier"
    }
    bias_filler {
      type: "constant"
      value: 0
    }
  }
}
layer {
  name: "conv4_3_norm_mbox_loc_perm"
  type: "Permute"
  bottom: "conv4_3_norm_mbox_loc"
  top: "conv4_3_norm_mbox_loc_perm"
  permute_param {
    order: 0
    order: 2
    order: 3
    order: 1
  }
}
layer {
  name: "conv4_3_norm_mbox_loc_flat"
  type: "Flatten"
  bottom: "conv4_3_norm_mbox_loc_perm"
  top: "conv4_3_norm_mbox_loc_flat"
  flatten_param {
    axis: 1
  }
}
layer {
  name: "conv4_3_norm_mbox_conf"
  type: "Convolution"
  bottom: "conv4_3_norm"
  top: "conv4_3_norm_mbox_conf"
  param {
    lr_mult: 1
    decay_mult: 1
  }
  param {
    lr_mult: 2
    decay_mult: 0
  }
  convolution_param {
    num_output: 84
    pad: 1
    kernel_size: 3
    stride: 1
    weight_filler {
      type: "xavier"
    }
    bias_filler {
      type: "constant"
      value: 0
    }
  }
}
layer {
  name: "conv4_3_norm_mbox_conf_perm"
  type: "Permute"
  bottom: "conv4_3_norm_mbox_conf"
  top: "conv4_3_norm_mbox_conf_perm"
  permute_param {
    order: 0
    order: 2
    order: 3
    order: 1
  }
}
layer {
  name: "conv4_3_norm_mbox_conf_flat"
  type: "Flatten"
  bottom: "conv4_3_norm_mbox_conf_perm"
  top: "conv4_3_norm_mbox_conf_flat"
  flatten_param {
    axis: 1
  }
}
layer {
  name: "conv4_3_norm_mbox_priorbox"
  type: "PriorBox"
  bottom: "conv4_3_norm"
  bottom: "data"
  top: "conv4_3_norm_mbox_priorbox"
  prior_box_param {
    min_size: 30
    max_size: 60
    aspect_ratio: 2
    flip: true
    clip: false
    variance: 0.1
    variance: 0.1
    variance: 0.2
    variance: 0.2
    step: 8
    offset: 0.5
  }
}
layer {
  name: "fc7_mbox_loc"
  type: "Convolution"
  bottom: "fc7"
  top: "fc7_mbox_loc"
  param {
    lr_mult: 1
    decay_mult: 1
  }
  param {
    lr_mult: 2
    decay_mult: 0
  }
  convolution_param {
    num_output: 24
    pad: 1
    kernel_size: 3
    stride: 1
    weight_filler {
      type: "xavier"
    }
    bias_filler {
      type: "constant"
      value: 0
    }
  }
}
layer {
  name: "fc7_mbox_loc_perm"
  type: "Permute"
  bottom: "fc7_mbox_loc"
  top: "fc7_mbox_loc_perm"
  permute_param {
    order: 0
    order: 2
    order: 3
    order: 1
  }
}
layer {
  name: "fc7_mbox_loc_flat"
  type: "Flatten"
  bottom: "fc7_mbox_loc_perm"
  top: "fc7_mbox_loc_flat"
  flatten_param {
    axis: 1
  }
}
layer {
  name: "fc7_mbox_conf"
  type: "Convolution"
  bottom: "fc7"
  top: "fc7_mbox_conf"
  param {
    lr_mult: 1
    decay_mult: 1
  }
  param {
    lr_mult: 2
    decay_mult: 0
  }
  convolution_param {
    num_output: 126
    pad: 1
    kernel_size: 3
    stride: 1
    weight_filler {
      type: "xavier"
    }
    bias_filler {
      type: "constant"
      value: 0
    }
  }
}
layer {
  name: "fc7_mbox_conf_perm"
  type: "Permute"
  bottom: "fc7_mbox_conf"
  top: "fc7_mbox_conf_perm"
  permute_param {
    order: 0
    order: 2
    order: 3
    order: 1
  }
}
layer {
  name: "fc7_mbox_conf_flat"
  type: "Flatten"
  bottom: "fc7_mbox_conf_perm"
  top: "fc7_mbox_conf_flat"
  flatten_param {
    axis: 1
  }
}
layer {
  name: "fc7_mbox_priorbox"
  type: "PriorBox"
  bottom: "fc7"
  bottom: "data"
  top: "fc7_mbox_priorbox"
  prior_box_param {
    min_size: 60
    max_size: 111
    aspect_ratio: 2
    aspect_ratio: 3
    flip: true
    clip: false
    variance: 0.1
    variance: 0.1
    variance: 0.2
    variance: 0.2
    step: 16
    offset: 0.5
  }
}
layer {
  name: "conv6_2_mbox_loc"
  type: "Convolution"
  bottom: "conv6_2"
  top: "conv6_2_mbox_loc"
  param {
    lr_mult: 1
    decay_mult: 1
  }
  param {
    lr_mult: 2
    decay_mult: 0
  }
  convolution_param {
    num_output: 24
    pad: 1
    kernel_size: 3
    stride: 1
    weight_filler {
      type: "xavier"
    }
    bias_filler {
      type: "constant"
      value: 0
    }
  }
}
layer {
  name: "conv6_2_mbox_loc_perm"
  type: "Permute"
  bottom: "conv6_2_mbox_loc"
  top: "conv6_2_mbox_loc_perm"
  permute_param {
    order: 0
    order: 2
    order: 3
    order: 1
  }
}
layer {
  name: "conv6_2_mbox_loc_flat"
  type: "Flatten"
  bottom: "conv6_2_mbox_loc_perm"
  top: "conv6_2_mbox_loc_flat"
  flatten_param {
    axis: 1
  }
}
layer {
  name: "conv6_2_mbox_conf"
  type: "Convolution"
  bottom: "conv6_2"
  top: "conv6_2_mbox_conf"
  param {
    lr_mult: 1
    decay_mult: 1
  }
  param {
    lr_mult: 2
    decay_mult: 0
  }
  convolution_param {
    num_output: 126
    pad: 1
    kernel_size: 3
    stride: 1
    weight_filler {
      type: "xavier"
    }
    bias_filler {
      type: "constant"
      value: 0
    }
  }
}
layer {
  name: "conv6_2_mbox_conf_perm"
  type: "Permute"
  bottom: "conv6_2_mbox_conf"
  top: "conv6_2_mbox_conf_perm"
  permute_param {
    order: 0
    order: 2
    order: 3
    order: 1
  }
}
layer {
  name: "conv6_2_mbox_conf_flat"
  type: "Flatten"
  bottom: "conv6_2_mbox_conf_perm"
  top: "conv6_2_mbox_conf_flat"
  flatten_param {
    axis: 1
  }
}
layer {
  name: "conv6_2_mbox_priorbox"
  type: "PriorBox"
  bottom: "conv6_2"
  bottom: "data"
  top: "conv6_2_mbox_priorbox"
  prior_box_param {
    min_size: 111
    max_size: 162
    aspect_ratio: 2
    aspect_ratio: 3
    flip: true
    clip: false
    variance: 0.1
    variance: 0.1
    variance: 0.2
    variance: 0.2
    step: 32
    offset: 0.5
  }
}
layer {
  name: "conv7_2_mbox_loc"
  type: "Convolution"
  bottom: "conv7_2"
  top: "conv7_2_mbox_loc"
  param {
    lr_mult: 1
    decay_mult: 1
  }
  param {
    lr_mult: 2
    decay_mult: 0
  }
  convolution_param {
    num_output: 24
    pad: 1
    kernel_size: 3
    stride: 1
    weight_filler {
      type: "xavier"
    }
    bias_filler {
      type: "constant"
      value: 0
    }
  }
}
layer {
  name: "conv7_2_mbox_loc_perm"
  type: "Permute"
  bottom: "conv7_2_mbox_loc"
  top: "conv7_2_mbox_loc_perm"
  permute_param {
    order: 0
    order: 2
    order: 3
    order: 1
  }
}
layer {
  name: "conv7_2_mbox_loc_flat"
  type: "Flatten"
  bottom: "conv7_2_mbox_loc_perm"
  top: "conv7_2_mbox_loc_flat"
  flatten_param {
    axis: 1
  }
}
layer {
  name: "conv7_2_mbox_conf"
  type: "Convolution"
  bottom: "conv7_2"
  top: "conv7_2_mbox_conf"
  param {
    lr_mult: 1
    decay_mult: 1
  }
  param {
    lr_mult: 2
    decay_mult: 0
  }
  convolution_param {
    num_output: 126
    pad: 1
    kernel_size: 3
    stride: 1
    weight_filler {
      type: "xavier"
    }
    bias_filler {
      type: "constant"
      value: 0
    }
  }
}
layer {
  name: "conv7_2_mbox_conf_perm"
  type: "Permute"
  bottom: "conv7_2_mbox_conf"
  top: "conv7_2_mbox_conf_perm"
  permute_param {
    order: 0
    order: 2
    order: 3
    order: 1
  }
}
layer {
  name: "conv7_2_mbox_conf_flat"
  type: "Flatten"
  bottom: "conv7_2_mbox_conf_perm"
  top: "conv7_2_mbox_conf_flat"
  flatten_param {
    axis: 1
  }
}
layer {
  name: "conv7_2_mbox_priorbox"
  type: "PriorBox"
  bottom: "conv7_2"
  bottom: "data"
  top: "conv7_2_mbox_priorbox"
  prior_box_param {
    min_size: 162
    max_size: 213
    aspect_ratio: 2
    aspect_ratio: 3
    flip: true
    clip: false
    variance: 0.1
    variance: 0.1
    variance: 0.2
    variance: 0.2
    step: 64
    offset: 0.5
  }
}
layer {
  name: "conv8_2_mbox_loc"
  type: "Convolution"
  bottom: "conv8_2"
  top: "conv8_2_mbox_loc"
  param {
    lr_mult: 1
    decay_mult: 1
  }
  param {
    lr_mult: 2
    decay_mult: 0
  }
  convolution_param {
    num_output: 16
    pad: 1
    kernel_size: 3
    stride: 1
    weight_filler {
      type: "xavier"
    }
    bias_filler {
      type: "constant"
      value: 0
    }
  }
}
layer {
  name: "conv8_2_mbox_loc_perm"
  type: "Permute"
  bottom: "conv8_2_mbox_loc"
  top: "conv8_2_mbox_loc_perm"
  permute_param {
    order: 0
    order: 2
    order: 3
    order: 1
  }
}
layer {
  name: "conv8_2_mbox_loc_flat"
  type: "Flatten"
  bottom: "conv8_2_mbox_loc_perm"
  top: "conv8_2_mbox_loc_flat"
  flatten_param {
    axis: 1
  }
}
layer {
  name: "conv8_2_mbox_conf"
  type: "Convolution"
  bottom: "conv8_2"
  top: "conv8_2_mbox_conf"
  param {
    lr_mult: 1
    decay_mult: 1
  }
  param {
    lr_mult: 2
    decay_mult: 0
  }
  convolution_param {
    num_output: 84
    pad: 1
    kernel_size: 3
    stride: 1
    weight_filler {
      type: "xavier"
    }
    bias_filler {
      type: "constant"
      value: 0
    }
  }
}
layer {
  name: "conv8_2_mbox_conf_perm"
  type: "Permute"
  bottom: "conv8_2_mbox_conf"
  top: "conv8_2_mbox_conf_perm"
  permute_param {
    order: 0
    order: 2
    order: 3
    order: 1
  }
}
layer {
  name: "conv8_2_mbox_conf_flat"
  type: "Flatten"
  bottom: "conv8_2_mbox_conf_perm"
  top: "conv8_2_mbox_conf_flat"
  flatten_param {
    axis: 1
  }
}
layer {
  name: "conv8_2_mbox_priorbox"
  type: "PriorBox"
  bottom: "conv8_2"
  bottom: "data"
  top: "conv8_2_mbox_priorbox"
  prior_box_param {
    min_size: 213
    max_size: 264
    aspect_ratio: 2
    flip: true
    clip: false
    variance: 0.1
    variance: 0.1
    variance: 0.2
    variance: 0.2
    step: 100
    offset: 0.5
  }
}
layer {
  name: "conv9_2_mbox_loc"
  type: "Convolution"
  bottom: "conv9_2"
  top: "conv9_2_mbox_loc"
  param {
    lr_mult: 1
    decay_mult: 1
  }
  param {
    lr_mult: 2
    decay_mult: 0
  }
  convolution_param {
    num_output: 16
    pad: 1
    kernel_size: 3
    stride: 1
    weight_filler {
      type: "xavier"
    }
    bias_filler {
      type: "constant"
      value: 0
    }
  }
}
layer {
  name: "conv9_2_mbox_loc_perm"
  type: "Permute"
  bottom: "conv9_2_mbox_loc"
  top: "conv9_2_mbox_loc_perm"
  permute_param {
    order: 0
    order: 2
    order: 3
    order: 1
  }
}
layer {
  name: "conv9_2_mbox_loc_flat"
  type: "Flatten"
  bottom: "conv9_2_mbox_loc_perm"
  top: "conv9_2_mbox_loc_flat"
  flatten_param {
    axis: 1
  }
}
layer {
  name: "conv9_2_mbox_conf"
  type: "Convolution"
  bottom: "conv9_2"
  top: "conv9_2_mbox_conf"
  param {
    lr_mult: 1
    decay_mult: 1
  }
  param {
    lr_mult: 2
    decay_mult: 0
  }
  convolution_param {
    num_output: 84
    pad: 1
    kernel_size: 3
    stride: 1
    weight_filler {
      type: "xavier"
    }
    bias_filler {
      type: "constant"
      value: 0
    }
  }
}
layer {
  name: "conv9_2_mbox_conf_perm"
  type: "Permute"
  bottom: "conv9_2_mbox_conf"
  top: "conv9_2_mbox_conf_perm"
  permute_param {
    order: 0
    order: 2
    order: 3
    order: 1
  }
}
layer {
  name: "conv9_2_mbox_conf_flat"
  type: "Flatten"
  bottom: "conv9_2_mbox_conf_perm"
  top: "conv9_2_mbox_conf_flat"
  flatten_param {
    axis: 1
  }
}
layer {
  name: "conv9_2_mbox_priorbox"
  type: "PriorBox"
  bottom: "conv9_2"
  bottom: "data"
  top: "conv9_2_mbox_priorbox"
  prior_box_param {
    min_size: 264
    max_size: 315
    aspect_ratio: 2
    flip: true
    clip: false
    variance: 0.1
    variance: 0.1
    variance: 0.2
    variance: 0.2
    step: 300
    offset: 0.5
  }
}
layer {
  name: "mbox_loc"
  type: "Concat"
  bottom: "conv4_3_norm_mbox_loc_flat"
  bottom: "fc7_mbox_loc_flat"
  bottom: "conv6_2_mbox_loc_flat"
  bottom: "conv7_2_mbox_loc_flat"
  bottom: "conv8_2_mbox_loc_flat"
  bottom: "conv9_2_mbox_loc_flat"
  top: "mbox_loc"
  concat_param {
    axis: 1
  }
}
layer {
  name: "mbox_conf"
  type: "Concat"
  bottom: "conv4_3_norm_mbox_conf_flat"
  bottom: "fc7_mbox_conf_flat"
  bottom: "conv6_2_mbox_conf_flat"
  bottom: "conv7_2_mbox_conf_flat"
  bottom: "conv8_2_mbox_conf_flat"
  bottom: "conv9_2_mbox_conf_flat"
  top: "mbox_conf"
  concat_param {
    axis: 1
  }
}
layer {
  name: "mbox_priorbox"
  type: "Concat"
  bottom: "conv4_3_norm_mbox_priorbox"
  bottom: "fc7_mbox_priorbox"
  bottom: "conv6_2_mbox_priorbox"
  bottom: "conv7_2_mbox_priorbox"
  bottom: "conv8_2_mbox_priorbox"
  bottom: "conv9_2_mbox_priorbox"
  top: "mbox_priorbox"
  concat_param {
    axis: 2
  }
}
layer {
  name: "mbox_conf_reshape"
  type: "Reshape"
  bottom: "mbox_conf"
  top: "mbox_conf_reshape"
  reshape_param {
    shape {
      dim: 0
      dim: -1
      dim: 21
    }
  }
}
layer {
  name: "mbox_conf_softmax"
  type: "Softmax"
  bottom: "mbox_conf_reshape"
  top: "mbox_conf_softmax"
  softmax_param {
    axis: 2
  }
}
layer {
  name: "mbox_conf_flatten"
  type: "Flatten"
  bottom: "mbox_conf_softmax"
  top: "mbox_conf_flatten"
  flatten_param {
    axis: 1
  }
}
layer {
  name: "detection_out"
  type: "DetectionOutput"
  bottom: "mbox_loc"
  bottom: "mbox_conf_flatten"
  bottom: "mbox_priorbox"
  top: "detection_out"
  include {
    phase: TEST
  }
  detection_output_param {
    num_classes: 21
    share_location: true
    background_label_id: 0
    nms_param {
      nms_threshold: 0.45
      top_k: 400
    }
    save_output_param {
      output_directory: "/home/zoson/data/VOCdevkit/results/VOC2007/SSD_300x300/Main"
      output_name_prefix: "comp4_det_test_"
      output_format: "VOC"
      label_map_file: "data/VOC0712/labelmap_voc.prototxt"
      name_size_file: "data/VOC0712/test_name_size.txt"
      num_test_image: 4952
    }
    code_type: CENTER_SIZE
    keep_top_k: 200
    confidence_threshold: 0.01
  }
}
layer {
  name: "detection_eval"
  type: "DetectionEvaluate"
  bottom: "detection_out"
  bottom: "label"
  top: "detection_eval"
  include {
    phase: TEST
  }
  detection_evaluate_param {
    num_classes: 21
    background_label_id: 0
    overlap_threshold: 0.5
    evaluate_difficult_gt: false
    name_size_file: "data/VOC0712/test_name_size.txt"
  }
}
I0411 05:36:45.168458 16639 layer_factory.hpp:77] Creating layer data
I0411 05:36:45.168524 16639 net.cpp:100] Creating Layer data
I0411 05:36:45.168531 16639 net.cpp:408] data -> data
I0411 05:36:45.168540 16639 net.cpp:408] data -> label
I0411 05:36:45.169070 16664 db_lmdb.cpp:35] Opened lmdb examples/VOC0712/VOC0712_test_lmdb
I0411 05:36:45.171017 16639 annotated_data_layer.cpp:62] output data size: 8,3,300,300
I0411 05:36:45.182937 16639 net.cpp:150] Setting up data
I0411 05:36:45.182955 16639 net.cpp:157] Top shape: 8 3 300 300 (2160000)
I0411 05:36:45.182960 16639 net.cpp:157] Top shape: 1 1 2 8 (16)
I0411 05:36:45.182961 16639 net.cpp:165] Memory required for data: 8640064
I0411 05:36:45.182965 16639 layer_factory.hpp:77] Creating layer data_data_0_split
I0411 05:36:45.182974 16639 net.cpp:100] Creating Layer data_data_0_split
I0411 05:36:45.182977 16639 net.cpp:434] data_data_0_split <- data
I0411 05:36:45.182982 16639 net.cpp:408] data_data_0_split -> data_data_0_split_0
I0411 05:36:45.182989 16639 net.cpp:408] data_data_0_split -> data_data_0_split_1
I0411 05:36:45.182994 16639 net.cpp:408] data_data_0_split -> data_data_0_split_2
I0411 05:36:45.182999 16639 net.cpp:408] data_data_0_split -> data_data_0_split_3
I0411 05:36:45.183003 16639 net.cpp:408] data_data_0_split -> data_data_0_split_4
I0411 05:36:45.183007 16639 net.cpp:408] data_data_0_split -> data_data_0_split_5
I0411 05:36:45.183012 16639 net.cpp:408] data_data_0_split -> data_data_0_split_6
I0411 05:36:45.183125 16639 net.cpp:150] Setting up data_data_0_split
I0411 05:36:45.183133 16639 net.cpp:157] Top shape: 8 3 300 300 (2160000)
I0411 05:36:45.183138 16639 net.cpp:157] Top shape: 8 3 300 300 (2160000)
I0411 05:36:45.183156 16639 net.cpp:157] Top shape: 8 3 300 300 (2160000)
I0411 05:36:45.183161 16639 net.cpp:157] Top shape: 8 3 300 300 (2160000)
I0411 05:36:45.183164 16639 net.cpp:157] Top shape: 8 3 300 300 (2160000)
I0411 05:36:45.183167 16639 net.cpp:157] Top shape: 8 3 300 300 (2160000)
I0411 05:36:45.183172 16639 net.cpp:157] Top shape: 8 3 300 300 (2160000)
I0411 05:36:45.183176 16639 net.cpp:165] Memory required for data: 69120064
I0411 05:36:45.183184 16639 layer_factory.hpp:77] Creating layer conv1_1
I0411 05:36:45.183197 16639 net.cpp:100] Creating Layer conv1_1
I0411 05:36:45.183202 16639 net.cpp:434] conv1_1 <- data_data_0_split_0
I0411 05:36:45.183207 16639 net.cpp:408] conv1_1 -> conv1_1
I0411 05:36:45.183535 16639 net.cpp:150] Setting up conv1_1
I0411 05:36:45.183545 16639 net.cpp:157] Top shape: 8 64 300 300 (46080000)
I0411 05:36:45.183550 16639 net.cpp:165] Memory required for data: 253440064
I0411 05:36:45.183559 16639 layer_factory.hpp:77] Creating layer relu1_1
I0411 05:36:45.183565 16639 net.cpp:100] Creating Layer relu1_1
I0411 05:36:45.183568 16639 net.cpp:434] relu1_1 <- conv1_1
I0411 05:36:45.183574 16639 net.cpp:395] relu1_1 -> conv1_1 (in-place)
I0411 05:36:45.183580 16639 net.cpp:150] Setting up relu1_1
I0411 05:36:45.183584 16639 net.cpp:157] Top shape: 8 64 300 300 (46080000)
I0411 05:36:45.183593 16639 net.cpp:165] Memory required for data: 437760064
I0411 05:36:45.183601 16639 layer_factory.hpp:77] Creating layer conv1_2
I0411 05:36:45.183609 16639 net.cpp:100] Creating Layer conv1_2
I0411 05:36:45.183614 16639 net.cpp:434] conv1_2 <- conv1_1
I0411 05:36:45.183619 16639 net.cpp:408] conv1_2 -> conv1_2
I0411 05:36:45.184167 16639 net.cpp:150] Setting up conv1_2
I0411 05:36:45.184175 16639 net.cpp:157] Top shape: 8 64 300 300 (46080000)
I0411 05:36:45.184178 16639 net.cpp:165] Memory required for data: 622080064
I0411 05:36:45.184185 16639 layer_factory.hpp:77] Creating layer relu1_2
I0411 05:36:45.184190 16639 net.cpp:100] Creating Layer relu1_2
I0411 05:36:45.184195 16639 net.cpp:434] relu1_2 <- conv1_2
I0411 05:36:45.184198 16639 net.cpp:395] relu1_2 -> conv1_2 (in-place)
I0411 05:36:45.184203 16639 net.cpp:150] Setting up relu1_2
I0411 05:36:45.184208 16639 net.cpp:157] Top shape: 8 64 300 300 (46080000)
I0411 05:36:45.184211 16639 net.cpp:165] Memory required for data: 806400064
I0411 05:36:45.184214 16639 layer_factory.hpp:77] Creating layer pool1
I0411 05:36:45.184219 16639 net.cpp:100] Creating Layer pool1
I0411 05:36:45.184223 16639 net.cpp:434] pool1 <- conv1_2
I0411 05:36:45.184227 16639 net.cpp:408] pool1 -> pool1
I0411 05:36:45.184262 16639 net.cpp:150] Setting up pool1
I0411 05:36:45.184268 16639 net.cpp:157] Top shape: 8 64 150 150 (11520000)
I0411 05:36:45.184273 16639 net.cpp:165] Memory required for data: 852480064
I0411 05:36:45.184275 16639 layer_factory.hpp:77] Creating layer conv2_1
I0411 05:36:45.184281 16639 net.cpp:100] Creating Layer conv2_1
I0411 05:36:45.184285 16639 net.cpp:434] conv2_1 <- pool1
I0411 05:36:45.184291 16639 net.cpp:408] conv2_1 -> conv2_1
I0411 05:36:45.185075 16639 net.cpp:150] Setting up conv2_1
I0411 05:36:45.185082 16639 net.cpp:157] Top shape: 8 128 150 150 (23040000)
I0411 05:36:45.185086 16639 net.cpp:165] Memory required for data: 944640064
I0411 05:36:45.185093 16639 layer_factory.hpp:77] Creating layer relu2_1
I0411 05:36:45.185099 16639 net.cpp:100] Creating Layer relu2_1
I0411 05:36:45.185103 16639 net.cpp:434] relu2_1 <- conv2_1
I0411 05:36:45.185107 16639 net.cpp:395] relu2_1 -> conv2_1 (in-place)
I0411 05:36:45.185112 16639 net.cpp:150] Setting up relu2_1
I0411 05:36:45.185117 16639 net.cpp:157] Top shape: 8 128 150 150 (23040000)
I0411 05:36:45.185120 16639 net.cpp:165] Memory required for data: 1036800064
I0411 05:36:45.185123 16639 layer_factory.hpp:77] Creating layer conv2_2
I0411 05:36:45.185129 16639 net.cpp:100] Creating Layer conv2_2
I0411 05:36:45.185134 16639 net.cpp:434] conv2_2 <- conv2_1
I0411 05:36:45.185140 16639 net.cpp:408] conv2_2 -> conv2_2
I0411 05:36:45.186636 16639 net.cpp:150] Setting up conv2_2
I0411 05:36:45.186658 16639 net.cpp:157] Top shape: 8 128 150 150 (23040000)
I0411 05:36:45.186663 16639 net.cpp:165] Memory required for data: 1128960064
I0411 05:36:45.186671 16639 layer_factory.hpp:77] Creating layer relu2_2
I0411 05:36:45.186676 16639 net.cpp:100] Creating Layer relu2_2
I0411 05:36:45.186679 16639 net.cpp:434] relu2_2 <- conv2_2
I0411 05:36:45.186684 16639 net.cpp:395] relu2_2 -> conv2_2 (in-place)
I0411 05:36:45.186691 16639 net.cpp:150] Setting up relu2_2
I0411 05:36:45.186695 16639 net.cpp:157] Top shape: 8 128 150 150 (23040000)
I0411 05:36:45.186699 16639 net.cpp:165] Memory required for data: 1221120064
I0411 05:36:45.186703 16639 layer_factory.hpp:77] Creating layer pool2
I0411 05:36:45.186709 16639 net.cpp:100] Creating Layer pool2
I0411 05:36:45.186713 16639 net.cpp:434] pool2 <- conv2_2
I0411 05:36:45.186717 16639 net.cpp:408] pool2 -> pool2
I0411 05:36:45.186753 16639 net.cpp:150] Setting up pool2
I0411 05:36:45.186759 16639 net.cpp:157] Top shape: 8 128 75 75 (5760000)
I0411 05:36:45.186763 16639 net.cpp:165] Memory required for data: 1244160064
I0411 05:36:45.186766 16639 layer_factory.hpp:77] Creating layer conv3_1
I0411 05:36:45.186774 16639 net.cpp:100] Creating Layer conv3_1
I0411 05:36:45.186779 16639 net.cpp:434] conv3_1 <- pool2
I0411 05:36:45.186784 16639 net.cpp:408] conv3_1 -> conv3_1
I0411 05:36:45.190059 16639 net.cpp:150] Setting up conv3_1
I0411 05:36:45.190076 16639 net.cpp:157] Top shape: 8 256 75 75 (11520000)
I0411 05:36:45.190080 16639 net.cpp:165] Memory required for data: 1290240064
I0411 05:36:45.190091 16639 layer_factory.hpp:77] Creating layer relu3_1
I0411 05:36:45.190099 16639 net.cpp:100] Creating Layer relu3_1
I0411 05:36:45.190104 16639 net.cpp:434] relu3_1 <- conv3_1
I0411 05:36:45.190110 16639 net.cpp:395] relu3_1 -> conv3_1 (in-place)
I0411 05:36:45.190117 16639 net.cpp:150] Setting up relu3_1
I0411 05:36:45.190124 16639 net.cpp:157] Top shape: 8 256 75 75 (11520000)
I0411 05:36:45.190127 16639 net.cpp:165] Memory required for data: 1336320064
I0411 05:36:45.190130 16639 layer_factory.hpp:77] Creating layer conv3_2
I0411 05:36:45.190138 16639 net.cpp:100] Creating Layer conv3_2
I0411 05:36:45.190142 16639 net.cpp:434] conv3_2 <- conv3_1
I0411 05:36:45.190150 16639 net.cpp:408] conv3_2 -> conv3_2
I0411 05:36:45.195803 16639 net.cpp:150] Setting up conv3_2
I0411 05:36:45.195823 16639 net.cpp:157] Top shape: 8 256 75 75 (11520000)
I0411 05:36:45.195827 16639 net.cpp:165] Memory required for data: 1382400064
I0411 05:36:45.195837 16639 layer_factory.hpp:77] Creating layer relu3_2
I0411 05:36:45.195845 16639 net.cpp:100] Creating Layer relu3_2
I0411 05:36:45.195849 16639 net.cpp:434] relu3_2 <- conv3_2
I0411 05:36:45.195855 16639 net.cpp:395] relu3_2 -> conv3_2 (in-place)
I0411 05:36:45.195864 16639 net.cpp:150] Setting up relu3_2
I0411 05:36:45.195869 16639 net.cpp:157] Top shape: 8 256 75 75 (11520000)
I0411 05:36:45.195873 16639 net.cpp:165] Memory required for data: 1428480064
I0411 05:36:45.195875 16639 layer_factory.hpp:77] Creating layer conv3_3
I0411 05:36:45.195888 16639 net.cpp:100] Creating Layer conv3_3
I0411 05:36:45.195891 16639 net.cpp:434] conv3_3 <- conv3_2
I0411 05:36:45.195896 16639 net.cpp:408] conv3_3 -> conv3_3
I0411 05:36:45.201503 16639 net.cpp:150] Setting up conv3_3
I0411 05:36:45.201520 16639 net.cpp:157] Top shape: 8 256 75 75 (11520000)
I0411 05:36:45.201524 16639 net.cpp:165] Memory required for data: 1474560064
I0411 05:36:45.201532 16639 layer_factory.hpp:77] Creating layer relu3_3
I0411 05:36:45.201539 16639 net.cpp:100] Creating Layer relu3_3
I0411 05:36:45.201544 16639 net.cpp:434] relu3_3 <- conv3_3
I0411 05:36:45.201550 16639 net.cpp:395] relu3_3 -> conv3_3 (in-place)
I0411 05:36:45.201556 16639 net.cpp:150] Setting up relu3_3
I0411 05:36:45.201561 16639 net.cpp:157] Top shape: 8 256 75 75 (11520000)
I0411 05:36:45.201565 16639 net.cpp:165] Memory required for data: 1520640064
I0411 05:36:45.201570 16639 layer_factory.hpp:77] Creating layer pool3
I0411 05:36:45.201576 16639 net.cpp:100] Creating Layer pool3
I0411 05:36:45.201596 16639 net.cpp:434] pool3 <- conv3_3
I0411 05:36:45.201602 16639 net.cpp:408] pool3 -> pool3
I0411 05:36:45.201640 16639 net.cpp:150] Setting up pool3
I0411 05:36:45.201663 16639 net.cpp:157] Top shape: 8 256 38 38 (2957312)
I0411 05:36:45.201674 16639 net.cpp:165] Memory required for data: 1532469312
I0411 05:36:45.201686 16639 layer_factory.hpp:77] Creating layer conv4_1
I0411 05:36:45.201704 16639 net.cpp:100] Creating Layer conv4_1
I0411 05:36:45.201716 16639 net.cpp:434] conv4_1 <- pool3
I0411 05:36:45.201730 16639 net.cpp:408] conv4_1 -> conv4_1
I0411 05:36:45.212527 16639 net.cpp:150] Setting up conv4_1
I0411 05:36:45.212546 16639 net.cpp:157] Top shape: 8 512 38 38 (5914624)
I0411 05:36:45.212549 16639 net.cpp:165] Memory required for data: 1556127808
I0411 05:36:45.212558 16639 layer_factory.hpp:77] Creating layer relu4_1
I0411 05:36:45.212566 16639 net.cpp:100] Creating Layer relu4_1
I0411 05:36:45.212570 16639 net.cpp:434] relu4_1 <- conv4_1
I0411 05:36:45.212576 16639 net.cpp:395] relu4_1 -> conv4_1 (in-place)
I0411 05:36:45.212585 16639 net.cpp:150] Setting up relu4_1
I0411 05:36:45.212590 16639 net.cpp:157] Top shape: 8 512 38 38 (5914624)
I0411 05:36:45.212592 16639 net.cpp:165] Memory required for data: 1579786304
I0411 05:36:45.212595 16639 layer_factory.hpp:77] Creating layer conv4_2
I0411 05:36:45.212606 16639 net.cpp:100] Creating Layer conv4_2
I0411 05:36:45.212610 16639 net.cpp:434] conv4_2 <- conv4_1
I0411 05:36:45.212615 16639 net.cpp:408] conv4_2 -> conv4_2
I0411 05:36:45.233758 16639 net.cpp:150] Setting up conv4_2
I0411 05:36:45.233783 16639 net.cpp:157] Top shape: 8 512 38 38 (5914624)
I0411 05:36:45.233786 16639 net.cpp:165] Memory required for data: 1603444800
I0411 05:36:45.233800 16639 layer_factory.hpp:77] Creating layer relu4_2
I0411 05:36:45.233808 16639 net.cpp:100] Creating Layer relu4_2
I0411 05:36:45.233814 16639 net.cpp:434] relu4_2 <- conv4_2
I0411 05:36:45.233820 16639 net.cpp:395] relu4_2 -> conv4_2 (in-place)
I0411 05:36:45.233829 16639 net.cpp:150] Setting up relu4_2
I0411 05:36:45.233836 16639 net.cpp:157] Top shape: 8 512 38 38 (5914624)
I0411 05:36:45.233839 16639 net.cpp:165] Memory required for data: 1627103296
I0411 05:36:45.233844 16639 layer_factory.hpp:77] Creating layer conv4_3
I0411 05:36:45.233852 16639 net.cpp:100] Creating Layer conv4_3
I0411 05:36:45.233856 16639 net.cpp:434] conv4_3 <- conv4_2
I0411 05:36:45.233861 16639 net.cpp:408] conv4_3 -> conv4_3
I0411 05:36:45.255054 16639 net.cpp:150] Setting up conv4_3
I0411 05:36:45.255074 16639 net.cpp:157] Top shape: 8 512 38 38 (5914624)
I0411 05:36:45.255079 16639 net.cpp:165] Memory required for data: 1650761792
I0411 05:36:45.255086 16639 layer_factory.hpp:77] Creating layer relu4_3
I0411 05:36:45.255094 16639 net.cpp:100] Creating Layer relu4_3
I0411 05:36:45.255100 16639 net.cpp:434] relu4_3 <- conv4_3
I0411 05:36:45.255106 16639 net.cpp:395] relu4_3 -> conv4_3 (in-place)
I0411 05:36:45.255115 16639 net.cpp:150] Setting up relu4_3
I0411 05:36:45.255120 16639 net.cpp:157] Top shape: 8 512 38 38 (5914624)
I0411 05:36:45.255122 16639 net.cpp:165] Memory required for data: 1674420288
I0411 05:36:45.255125 16639 layer_factory.hpp:77] Creating layer conv4_3_relu4_3_0_split
I0411 05:36:45.255146 16639 net.cpp:100] Creating Layer conv4_3_relu4_3_0_split
I0411 05:36:45.255149 16639 net.cpp:434] conv4_3_relu4_3_0_split <- conv4_3
I0411 05:36:45.255167 16639 net.cpp:408] conv4_3_relu4_3_0_split -> conv4_3_relu4_3_0_split_0
I0411 05:36:45.255174 16639 net.cpp:408] conv4_3_relu4_3_0_split -> conv4_3_relu4_3_0_split_1
I0411 05:36:45.255210 16639 net.cpp:150] Setting up conv4_3_relu4_3_0_split
I0411 05:36:45.255216 16639 net.cpp:157] Top shape: 8 512 38 38 (5914624)
I0411 05:36:45.255234 16639 net.cpp:157] Top shape: 8 512 38 38 (5914624)
I0411 05:36:45.255236 16639 net.cpp:165] Memory required for data: 1721737280
I0411 05:36:45.255239 16639 layer_factory.hpp:77] Creating layer pool4
I0411 05:36:45.255245 16639 net.cpp:100] Creating Layer pool4
I0411 05:36:45.255249 16639 net.cpp:434] pool4 <- conv4_3_relu4_3_0_split_0
I0411 05:36:45.255270 16639 net.cpp:408] pool4 -> pool4
I0411 05:36:45.255333 16639 net.cpp:150] Setting up pool4
I0411 05:36:45.255339 16639 net.cpp:157] Top shape: 8 512 19 19 (1478656)
I0411 05:36:45.255344 16639 net.cpp:165] Memory required for data: 1727651904
I0411 05:36:45.255347 16639 layer_factory.hpp:77] Creating layer conv5_1
I0411 05:36:45.255370 16639 net.cpp:100] Creating Layer conv5_1
I0411 05:36:45.255374 16639 net.cpp:434] conv5_1 <- pool4
I0411 05:36:45.255381 16639 net.cpp:408] conv5_1 -> conv5_1
I0411 05:36:45.276988 16639 net.cpp:150] Setting up conv5_1
I0411 05:36:45.277006 16639 net.cpp:157] Top shape: 8 512 19 19 (1478656)
I0411 05:36:45.277010 16639 net.cpp:165] Memory required for data: 1733566528
I0411 05:36:45.277019 16639 layer_factory.hpp:77] Creating layer relu5_1
I0411 05:36:45.277026 16639 net.cpp:100] Creating Layer relu5_1
I0411 05:36:45.277032 16639 net.cpp:434] relu5_1 <- conv5_1
I0411 05:36:45.277040 16639 net.cpp:395] relu5_1 -> conv5_1 (in-place)
I0411 05:36:45.277050 16639 net.cpp:150] Setting up relu5_1
I0411 05:36:45.277055 16639 net.cpp:157] Top shape: 8 512 19 19 (1478656)
I0411 05:36:45.277072 16639 net.cpp:165] Memory required for data: 1739481152
I0411 05:36:45.277076 16639 layer_factory.hpp:77] Creating layer conv5_2
I0411 05:36:45.277086 16639 net.cpp:100] Creating Layer conv5_2
I0411 05:36:45.277104 16639 net.cpp:434] conv5_2 <- conv5_1
I0411 05:36:45.277109 16639 net.cpp:408] conv5_2 -> conv5_2
I0411 05:36:45.298866 16639 net.cpp:150] Setting up conv5_2
I0411 05:36:45.298889 16639 net.cpp:157] Top shape: 8 512 19 19 (1478656)
I0411 05:36:45.298893 16639 net.cpp:165] Memory required for data: 1745395776
I0411 05:36:45.298902 16639 layer_factory.hpp:77] Creating layer relu5_2
I0411 05:36:45.298908 16639 net.cpp:100] Creating Layer relu5_2
I0411 05:36:45.298913 16639 net.cpp:434] relu5_2 <- conv5_2
I0411 05:36:45.298919 16639 net.cpp:395] relu5_2 -> conv5_2 (in-place)
I0411 05:36:45.298926 16639 net.cpp:150] Setting up relu5_2
I0411 05:36:45.298931 16639 net.cpp:157] Top shape: 8 512 19 19 (1478656)
I0411 05:36:45.298934 16639 net.cpp:165] Memory required for data: 1751310400
I0411 05:36:45.298938 16639 layer_factory.hpp:77] Creating layer conv5_3
I0411 05:36:45.298946 16639 net.cpp:100] Creating Layer conv5_3
I0411 05:36:45.298950 16639 net.cpp:434] conv5_3 <- conv5_2
I0411 05:36:45.298957 16639 net.cpp:408] conv5_3 -> conv5_3
I0411 05:36:45.320264 16639 net.cpp:150] Setting up conv5_3
I0411 05:36:45.320292 16639 net.cpp:157] Top shape: 8 512 19 19 (1478656)
I0411 05:36:45.320296 16639 net.cpp:165] Memory required for data: 1757225024
I0411 05:36:45.320322 16639 layer_factory.hpp:77] Creating layer relu5_3
I0411 05:36:45.320341 16639 net.cpp:100] Creating Layer relu5_3
I0411 05:36:45.320363 16639 net.cpp:434] relu5_3 <- conv5_3
I0411 05:36:45.320370 16639 net.cpp:395] relu5_3 -> conv5_3 (in-place)
I0411 05:36:45.320385 16639 net.cpp:150] Setting up relu5_3
I0411 05:36:45.320390 16639 net.cpp:157] Top shape: 8 512 19 19 (1478656)
I0411 05:36:45.320394 16639 net.cpp:165] Memory required for data: 1763139648
I0411 05:36:45.320396 16639 layer_factory.hpp:77] Creating layer pool5
I0411 05:36:45.320405 16639 net.cpp:100] Creating Layer pool5
I0411 05:36:45.320408 16639 net.cpp:434] pool5 <- conv5_3
I0411 05:36:45.320413 16639 net.cpp:408] pool5 -> pool5
I0411 05:36:45.320451 16639 net.cpp:150] Setting up pool5
I0411 05:36:45.320458 16639 net.cpp:157] Top shape: 8 512 19 19 (1478656)
I0411 05:36:45.320461 16639 net.cpp:165] Memory required for data: 1769054272
I0411 05:36:45.320464 16639 layer_factory.hpp:77] Creating layer fc6
I0411 05:36:45.320473 16639 net.cpp:100] Creating Layer fc6
I0411 05:36:45.320477 16639 net.cpp:434] fc6 <- pool5
I0411 05:36:45.320482 16639 net.cpp:408] fc6 -> fc6
I0411 05:36:45.363286 16639 net.cpp:150] Setting up fc6
I0411 05:36:45.363314 16639 net.cpp:157] Top shape: 8 1024 19 19 (2957312)
I0411 05:36:45.363318 16639 net.cpp:165] Memory required for data: 1780883520
I0411 05:36:45.363327 16639 layer_factory.hpp:77] Creating layer relu6
I0411 05:36:45.363358 16639 net.cpp:100] Creating Layer relu6
I0411 05:36:45.363363 16639 net.cpp:434] relu6 <- fc6
I0411 05:36:45.363371 16639 net.cpp:395] relu6 -> fc6 (in-place)
I0411 05:36:45.363380 16639 net.cpp:150] Setting up relu6
I0411 05:36:45.363385 16639 net.cpp:157] Top shape: 8 1024 19 19 (2957312)
I0411 05:36:45.363389 16639 net.cpp:165] Memory required for data: 1792712768
I0411 05:36:45.363394 16639 layer_factory.hpp:77] Creating layer fc7
I0411 05:36:45.363404 16639 net.cpp:100] Creating Layer fc7
I0411 05:36:45.363407 16639 net.cpp:434] fc7 <- fc6
I0411 05:36:45.363414 16639 net.cpp:408] fc7 -> fc7
I0411 05:36:45.372882 16639 net.cpp:150] Setting up fc7
I0411 05:36:45.372906 16639 net.cpp:157] Top shape: 8 1024 19 19 (2957312)
I0411 05:36:45.372910 16639 net.cpp:165] Memory required for data: 1804542016
I0411 05:36:45.372920 16639 layer_factory.hpp:77] Creating layer relu7
I0411 05:36:45.372930 16639 net.cpp:100] Creating Layer relu7
I0411 05:36:45.372949 16639 net.cpp:434] relu7 <- fc7
I0411 05:36:45.372958 16639 net.cpp:395] relu7 -> fc7 (in-place)
I0411 05:36:45.372967 16639 net.cpp:150] Setting up relu7
I0411 05:36:45.372973 16639 net.cpp:157] Top shape: 8 1024 19 19 (2957312)
I0411 05:36:45.372977 16639 net.cpp:165] Memory required for data: 1816371264
I0411 05:36:45.372980 16639 layer_factory.hpp:77] Creating layer fc7_relu7_0_split
I0411 05:36:45.373003 16639 net.cpp:100] Creating Layer fc7_relu7_0_split
I0411 05:36:45.373006 16639 net.cpp:434] fc7_relu7_0_split <- fc7
I0411 05:36:45.373013 16639 net.cpp:408] fc7_relu7_0_split -> fc7_relu7_0_split_0
I0411 05:36:45.373018 16639 net.cpp:408] fc7_relu7_0_split -> fc7_relu7_0_split_1
I0411 05:36:45.373033 16639 net.cpp:408] fc7_relu7_0_split -> fc7_relu7_0_split_2
I0411 05:36:45.373040 16639 net.cpp:408] fc7_relu7_0_split -> fc7_relu7_0_split_3
I0411 05:36:45.373116 16639 net.cpp:150] Setting up fc7_relu7_0_split
I0411 05:36:45.373123 16639 net.cpp:157] Top shape: 8 1024 19 19 (2957312)
I0411 05:36:45.373128 16639 net.cpp:157] Top shape: 8 1024 19 19 (2957312)
I0411 05:36:45.373134 16639 net.cpp:157] Top shape: 8 1024 19 19 (2957312)
I0411 05:36:45.373139 16639 net.cpp:157] Top shape: 8 1024 19 19 (2957312)
I0411 05:36:45.373157 16639 net.cpp:165] Memory required for data: 1863688256
I0411 05:36:45.373160 16639 layer_factory.hpp:77] Creating layer conv6_1
I0411 05:36:45.373172 16639 net.cpp:100] Creating Layer conv6_1
I0411 05:36:45.373175 16639 net.cpp:434] conv6_1 <- fc7_relu7_0_split_0
I0411 05:36:45.373183 16639 net.cpp:408] conv6_1 -> conv6_1
I0411 05:36:45.376286 16639 net.cpp:150] Setting up conv6_1
I0411 05:36:45.376297 16639 net.cpp:157] Top shape: 8 256 19 19 (739328)
I0411 05:36:45.376302 16639 net.cpp:165] Memory required for data: 1866645568
I0411 05:36:45.376307 16639 layer_factory.hpp:77] Creating layer conv6_1_relu
I0411 05:36:45.376313 16639 net.cpp:100] Creating Layer conv6_1_relu
I0411 05:36:45.376332 16639 net.cpp:434] conv6_1_relu <- conv6_1
I0411 05:36:45.376353 16639 net.cpp:395] conv6_1_relu -> conv6_1 (in-place)
I0411 05:36:45.376359 16639 net.cpp:150] Setting up conv6_1_relu
I0411 05:36:45.376364 16639 net.cpp:157] Top shape: 8 256 19 19 (739328)
I0411 05:36:45.376369 16639 net.cpp:165] Memory required for data: 1869602880
I0411 05:36:45.376372 16639 layer_factory.hpp:77] Creating layer conv6_2
I0411 05:36:45.376379 16639 net.cpp:100] Creating Layer conv6_2
I0411 05:36:45.376384 16639 net.cpp:434] conv6_2 <- conv6_1
I0411 05:36:45.376390 16639 net.cpp:408] conv6_2 -> conv6_2
I0411 05:36:45.387078 16639 net.cpp:150] Setting up conv6_2
I0411 05:36:45.387101 16639 net.cpp:157] Top shape: 8 512 10 10 (409600)
I0411 05:36:45.387105 16639 net.cpp:165] Memory required for data: 1871241280
I0411 05:36:45.387130 16639 layer_factory.hpp:77] Creating layer conv6_2_relu
I0411 05:36:45.387150 16639 net.cpp:100] Creating Layer conv6_2_relu
I0411 05:36:45.387156 16639 net.cpp:434] conv6_2_relu <- conv6_2
I0411 05:36:45.387162 16639 net.cpp:395] conv6_2_relu -> conv6_2 (in-place)
I0411 05:36:45.387172 16639 net.cpp:150] Setting up conv6_2_relu
I0411 05:36:45.387194 16639 net.cpp:157] Top shape: 8 512 10 10 (409600)
I0411 05:36:45.387197 16639 net.cpp:165] Memory required for data: 1872879680
I0411 05:36:45.387202 16639 layer_factory.hpp:77] Creating layer conv6_2_conv6_2_relu_0_split
I0411 05:36:45.387210 16639 net.cpp:100] Creating Layer conv6_2_conv6_2_relu_0_split
I0411 05:36:45.387214 16639 net.cpp:434] conv6_2_conv6_2_relu_0_split <- conv6_2
I0411 05:36:45.387220 16639 net.cpp:408] conv6_2_conv6_2_relu_0_split -> conv6_2_conv6_2_relu_0_split_0
I0411 05:36:45.387228 16639 net.cpp:408] conv6_2_conv6_2_relu_0_split -> conv6_2_conv6_2_relu_0_split_1
I0411 05:36:45.387238 16639 net.cpp:408] conv6_2_conv6_2_relu_0_split -> conv6_2_conv6_2_relu_0_split_2
I0411 05:36:45.387244 16639 net.cpp:408] conv6_2_conv6_2_relu_0_split -> conv6_2_conv6_2_relu_0_split_3
I0411 05:36:45.387310 16639 net.cpp:150] Setting up conv6_2_conv6_2_relu_0_split
I0411 05:36:45.387316 16639 net.cpp:157] Top shape: 8 512 10 10 (409600)
I0411 05:36:45.387326 16639 net.cpp:157] Top shape: 8 512 10 10 (409600)
I0411 05:36:45.387332 16639 net.cpp:157] Top shape: 8 512 10 10 (409600)
I0411 05:36:45.387337 16639 net.cpp:157] Top shape: 8 512 10 10 (409600)
I0411 05:36:45.387341 16639 net.cpp:165] Memory required for data: 1879433280
I0411 05:36:45.387346 16639 layer_factory.hpp:77] Creating layer conv7_1
I0411 05:36:45.387354 16639 net.cpp:100] Creating Layer conv7_1
I0411 05:36:45.387359 16639 net.cpp:434] conv7_1 <- conv6_2_conv6_2_relu_0_split_0
I0411 05:36:45.387367 16639 net.cpp:408] conv7_1 -> conv7_1
I0411 05:36:45.388139 16639 net.cpp:150] Setting up conv7_1
I0411 05:36:45.388149 16639 net.cpp:157] Top shape: 8 128 10 10 (102400)
I0411 05:36:45.388154 16639 net.cpp:165] Memory required for data: 1879842880
I0411 05:36:45.388159 16639 layer_factory.hpp:77] Creating layer conv7_1_relu
I0411 05:36:45.388166 16639 net.cpp:100] Creating Layer conv7_1_relu
I0411 05:36:45.388171 16639 net.cpp:434] conv7_1_relu <- conv7_1
I0411 05:36:45.388177 16639 net.cpp:395] conv7_1_relu -> conv7_1 (in-place)
I0411 05:36:45.388183 16639 net.cpp:150] Setting up conv7_1_relu
I0411 05:36:45.388190 16639 net.cpp:157] Top shape: 8 128 10 10 (102400)
I0411 05:36:45.388193 16639 net.cpp:165] Memory required for data: 1880252480
I0411 05:36:45.388196 16639 layer_factory.hpp:77] Creating layer conv7_2
I0411 05:36:45.388203 16639 net.cpp:100] Creating Layer conv7_2
I0411 05:36:45.388208 16639 net.cpp:434] conv7_2 <- conv7_1
I0411 05:36:45.388214 16639 net.cpp:408] conv7_2 -> conv7_2
I0411 05:36:45.391630 16639 net.cpp:150] Setting up conv7_2
I0411 05:36:45.391644 16639 net.cpp:157] Top shape: 8 256 5 5 (51200)
I0411 05:36:45.391649 16639 net.cpp:165] Memory required for data: 1880457280
I0411 05:36:45.391656 16639 layer_factory.hpp:77] Creating layer conv7_2_relu
I0411 05:36:45.391662 16639 net.cpp:100] Creating Layer conv7_2_relu
I0411 05:36:45.391667 16639 net.cpp:434] conv7_2_relu <- conv7_2
I0411 05:36:45.391674 16639 net.cpp:395] conv7_2_relu -> conv7_2 (in-place)
I0411 05:36:45.391680 16639 net.cpp:150] Setting up conv7_2_relu
I0411 05:36:45.391685 16639 net.cpp:157] Top shape: 8 256 5 5 (51200)
I0411 05:36:45.391690 16639 net.cpp:165] Memory required for data: 1880662080
I0411 05:36:45.391692 16639 layer_factory.hpp:77] Creating layer conv7_2_conv7_2_relu_0_split
I0411 05:36:45.391697 16639 net.cpp:100] Creating Layer conv7_2_conv7_2_relu_0_split
I0411 05:36:45.391701 16639 net.cpp:434] conv7_2_conv7_2_relu_0_split <- conv7_2
I0411 05:36:45.391706 16639 net.cpp:408] conv7_2_conv7_2_relu_0_split -> conv7_2_conv7_2_relu_0_split_0
I0411 05:36:45.391715 16639 net.cpp:408] conv7_2_conv7_2_relu_0_split -> conv7_2_conv7_2_relu_0_split_1
I0411 05:36:45.391721 16639 net.cpp:408] conv7_2_conv7_2_relu_0_split -> conv7_2_conv7_2_relu_0_split_2
I0411 05:36:45.391727 16639 net.cpp:408] conv7_2_conv7_2_relu_0_split -> conv7_2_conv7_2_relu_0_split_3
I0411 05:36:45.391786 16639 net.cpp:150] Setting up conv7_2_conv7_2_relu_0_split
I0411 05:36:45.391793 16639 net.cpp:157] Top shape: 8 256 5 5 (51200)
I0411 05:36:45.391810 16639 net.cpp:157] Top shape: 8 256 5 5 (51200)
I0411 05:36:45.391814 16639 net.cpp:157] Top shape: 8 256 5 5 (51200)
I0411 05:36:45.391819 16639 net.cpp:157] Top shape: 8 256 5 5 (51200)
I0411 05:36:45.391822 16639 net.cpp:165] Memory required for data: 1881481280
I0411 05:36:45.391825 16639 layer_factory.hpp:77] Creating layer conv8_1
I0411 05:36:45.391834 16639 net.cpp:100] Creating Layer conv8_1
I0411 05:36:45.391839 16639 net.cpp:434] conv8_1 <- conv7_2_conv7_2_relu_0_split_0
I0411 05:36:45.391845 16639 net.cpp:408] conv8_1 -> conv8_1
I0411 05:36:45.392326 16639 net.cpp:150] Setting up conv8_1
I0411 05:36:45.392334 16639 net.cpp:157] Top shape: 8 128 5 5 (25600)
I0411 05:36:45.392338 16639 net.cpp:165] Memory required for data: 1881583680
I0411 05:36:45.392346 16639 layer_factory.hpp:77] Creating layer conv8_1_relu
I0411 05:36:45.392351 16639 net.cpp:100] Creating Layer conv8_1_relu
I0411 05:36:45.392355 16639 net.cpp:434] conv8_1_relu <- conv8_1
I0411 05:36:45.392359 16639 net.cpp:395] conv8_1_relu -> conv8_1 (in-place)
I0411 05:36:45.392366 16639 net.cpp:150] Setting up conv8_1_relu
I0411 05:36:45.392371 16639 net.cpp:157] Top shape: 8 128 5 5 (25600)
I0411 05:36:45.392375 16639 net.cpp:165] Memory required for data: 1881686080
I0411 05:36:45.392377 16639 layer_factory.hpp:77] Creating layer conv8_2
I0411 05:36:45.392386 16639 net.cpp:100] Creating Layer conv8_2
I0411 05:36:45.392390 16639 net.cpp:434] conv8_2 <- conv8_1
I0411 05:36:45.392395 16639 net.cpp:408] conv8_2 -> conv8_2
I0411 05:36:45.395700 16639 net.cpp:150] Setting up conv8_2
I0411 05:36:45.395715 16639 net.cpp:157] Top shape: 8 256 3 3 (18432)
I0411 05:36:45.395719 16639 net.cpp:165] Memory required for data: 1881759808
I0411 05:36:45.395726 16639 layer_factory.hpp:77] Creating layer conv8_2_relu
I0411 05:36:45.395735 16639 net.cpp:100] Creating Layer conv8_2_relu
I0411 05:36:45.395740 16639 net.cpp:434] conv8_2_relu <- conv8_2
I0411 05:36:45.395745 16639 net.cpp:395] conv8_2_relu -> conv8_2 (in-place)
I0411 05:36:45.395751 16639 net.cpp:150] Setting up conv8_2_relu
I0411 05:36:45.395756 16639 net.cpp:157] Top shape: 8 256 3 3 (18432)
I0411 05:36:45.395761 16639 net.cpp:165] Memory required for data: 1881833536
I0411 05:36:45.395763 16639 layer_factory.hpp:77] Creating layer conv8_2_conv8_2_relu_0_split
I0411 05:36:45.395768 16639 net.cpp:100] Creating Layer conv8_2_conv8_2_relu_0_split
I0411 05:36:45.395772 16639 net.cpp:434] conv8_2_conv8_2_relu_0_split <- conv8_2
I0411 05:36:45.395779 16639 net.cpp:408] conv8_2_conv8_2_relu_0_split -> conv8_2_conv8_2_relu_0_split_0
I0411 05:36:45.395787 16639 net.cpp:408] conv8_2_conv8_2_relu_0_split -> conv8_2_conv8_2_relu_0_split_1
I0411 05:36:45.395793 16639 net.cpp:408] conv8_2_conv8_2_relu_0_split -> conv8_2_conv8_2_relu_0_split_2
I0411 05:36:45.395799 16639 net.cpp:408] conv8_2_conv8_2_relu_0_split -> conv8_2_conv8_2_relu_0_split_3
I0411 05:36:45.395860 16639 net.cpp:150] Setting up conv8_2_conv8_2_relu_0_split
I0411 05:36:45.395866 16639 net.cpp:157] Top shape: 8 256 3 3 (18432)
I0411 05:36:45.395871 16639 net.cpp:157] Top shape: 8 256 3 3 (18432)
I0411 05:36:45.395876 16639 net.cpp:157] Top shape: 8 256 3 3 (18432)
I0411 05:36:45.395882 16639 net.cpp:157] Top shape: 8 256 3 3 (18432)
I0411 05:36:45.395885 16639 net.cpp:165] Memory required for data: 1882128448
I0411 05:36:45.395889 16639 layer_factory.hpp:77] Creating layer conv9_1
I0411 05:36:45.395896 16639 net.cpp:100] Creating Layer conv9_1
I0411 05:36:45.395901 16639 net.cpp:434] conv9_1 <- conv8_2_conv8_2_relu_0_split_0
I0411 05:36:45.395907 16639 net.cpp:408] conv9_1 -> conv9_1
I0411 05:36:45.397284 16639 net.cpp:150] Setting up conv9_1
I0411 05:36:45.397295 16639 net.cpp:157] Top shape: 8 128 3 3 (9216)
I0411 05:36:45.397300 16639 net.cpp:165] Memory required for data: 1882165312
I0411 05:36:45.397306 16639 layer_factory.hpp:77] Creating layer conv9_1_relu
I0411 05:36:45.397312 16639 net.cpp:100] Creating Layer conv9_1_relu
I0411 05:36:45.397316 16639 net.cpp:434] conv9_1_relu <- conv9_1
I0411 05:36:45.397323 16639 net.cpp:395] conv9_1_relu -> conv9_1 (in-place)
I0411 05:36:45.397343 16639 net.cpp:150] Setting up conv9_1_relu
I0411 05:36:45.397349 16639 net.cpp:157] Top shape: 8 128 3 3 (9216)
I0411 05:36:45.397353 16639 net.cpp:165] Memory required for data: 1882202176
I0411 05:36:45.397357 16639 layer_factory.hpp:77] Creating layer conv9_2
I0411 05:36:45.397367 16639 net.cpp:100] Creating Layer conv9_2
I0411 05:36:45.397370 16639 net.cpp:434] conv9_2 <- conv9_1
I0411 05:36:45.397377 16639 net.cpp:408] conv9_2 -> conv9_2
I0411 05:36:45.400718 16639 net.cpp:150] Setting up conv9_2
I0411 05:36:45.400732 16639 net.cpp:157] Top shape: 8 256 1 1 (2048)
I0411 05:36:45.400737 16639 net.cpp:165] Memory required for data: 1882210368
I0411 05:36:45.400743 16639 layer_factory.hpp:77] Creating layer conv9_2_relu
I0411 05:36:45.400749 16639 net.cpp:100] Creating Layer conv9_2_relu
I0411 05:36:45.400753 16639 net.cpp:434] conv9_2_relu <- conv9_2
I0411 05:36:45.400759 16639 net.cpp:395] conv9_2_relu -> conv9_2 (in-place)
I0411 05:36:45.400766 16639 net.cpp:150] Setting up conv9_2_relu
I0411 05:36:45.400771 16639 net.cpp:157] Top shape: 8 256 1 1 (2048)
I0411 05:36:45.400775 16639 net.cpp:165] Memory required for data: 1882218560
I0411 05:36:45.400779 16639 layer_factory.hpp:77] Creating layer conv9_2_conv9_2_relu_0_split
I0411 05:36:45.400784 16639 net.cpp:100] Creating Layer conv9_2_conv9_2_relu_0_split
I0411 05:36:45.400792 16639 net.cpp:434] conv9_2_conv9_2_relu_0_split <- conv9_2
I0411 05:36:45.400799 16639 net.cpp:408] conv9_2_conv9_2_relu_0_split -> conv9_2_conv9_2_relu_0_split_0
I0411 05:36:45.400805 16639 net.cpp:408] conv9_2_conv9_2_relu_0_split -> conv9_2_conv9_2_relu_0_split_1
I0411 05:36:45.400813 16639 net.cpp:408] conv9_2_conv9_2_relu_0_split -> conv9_2_conv9_2_relu_0_split_2
I0411 05:36:45.400862 16639 net.cpp:150] Setting up conv9_2_conv9_2_relu_0_split
I0411 05:36:45.400869 16639 net.cpp:157] Top shape: 8 256 1 1 (2048)
I0411 05:36:45.400873 16639 net.cpp:157] Top shape: 8 256 1 1 (2048)
I0411 05:36:45.400878 16639 net.cpp:157] Top shape: 8 256 1 1 (2048)
I0411 05:36:45.400882 16639 net.cpp:165] Memory required for data: 1882243136
I0411 05:36:45.400885 16639 layer_factory.hpp:77] Creating layer conv4_3_norm
I0411 05:36:45.400892 16639 net.cpp:100] Creating Layer conv4_3_norm
I0411 05:36:45.400895 16639 net.cpp:434] conv4_3_norm <- conv4_3_relu4_3_0_split_1
I0411 05:36:45.400902 16639 net.cpp:408] conv4_3_norm -> conv4_3_norm
I0411 05:36:45.401057 16639 net.cpp:150] Setting up conv4_3_norm
I0411 05:36:45.401065 16639 net.cpp:157] Top shape: 8 512 38 38 (5914624)
I0411 05:36:45.401069 16639 net.cpp:165] Memory required for data: 1905901632
I0411 05:36:45.401075 16639 layer_factory.hpp:77] Creating layer conv4_3_norm_conv4_3_norm_0_split
I0411 05:36:45.401082 16639 net.cpp:100] Creating Layer conv4_3_norm_conv4_3_norm_0_split
I0411 05:36:45.401087 16639 net.cpp:434] conv4_3_norm_conv4_3_norm_0_split <- conv4_3_norm
I0411 05:36:45.401091 16639 net.cpp:408] conv4_3_norm_conv4_3_norm_0_split -> conv4_3_norm_conv4_3_norm_0_split_0
I0411 05:36:45.401098 16639 net.cpp:408] conv4_3_norm_conv4_3_norm_0_split -> conv4_3_norm_conv4_3_norm_0_split_1
I0411 05:36:45.401104 16639 net.cpp:408] conv4_3_norm_conv4_3_norm_0_split -> conv4_3_norm_conv4_3_norm_0_split_2
I0411 05:36:45.401149 16639 net.cpp:150] Setting up conv4_3_norm_conv4_3_norm_0_split
I0411 05:36:45.401154 16639 net.cpp:157] Top shape: 8 512 38 38 (5914624)
I0411 05:36:45.401161 16639 net.cpp:157] Top shape: 8 512 38 38 (5914624)
I0411 05:36:45.401166 16639 net.cpp:157] Top shape: 8 512 38 38 (5914624)
I0411 05:36:45.401170 16639 net.cpp:165] Memory required for data: 1976877120
I0411 05:36:45.401172 16639 layer_factory.hpp:77] Creating layer conv4_3_norm_mbox_loc
I0411 05:36:45.401182 16639 net.cpp:100] Creating Layer conv4_3_norm_mbox_loc
I0411 05:36:45.401185 16639 net.cpp:434] conv4_3_norm_mbox_loc <- conv4_3_norm_conv4_3_norm_0_split_0
I0411 05:36:45.401192 16639 net.cpp:408] conv4_3_norm_mbox_loc -> conv4_3_norm_mbox_loc
I0411 05:36:45.402055 16639 net.cpp:150] Setting up conv4_3_norm_mbox_loc
I0411 05:36:45.402077 16639 net.cpp:157] Top shape: 8 16 38 38 (184832)
I0411 05:36:45.402081 16639 net.cpp:165] Memory required for data: 1977616448
I0411 05:36:45.402088 16639 layer_factory.hpp:77] Creating layer conv4_3_norm_mbox_loc_perm
I0411 05:36:45.402110 16639 net.cpp:100] Creating Layer conv4_3_norm_mbox_loc_perm
I0411 05:36:45.402117 16639 net.cpp:434] conv4_3_norm_mbox_loc_perm <- conv4_3_norm_mbox_loc
I0411 05:36:45.402137 16639 net.cpp:408] conv4_3_norm_mbox_loc_perm -> conv4_3_norm_mbox_loc_perm
I0411 05:36:45.402245 16639 net.cpp:150] Setting up conv4_3_norm_mbox_loc_perm
I0411 05:36:45.402251 16639 net.cpp:157] Top shape: 8 38 38 16 (184832)
I0411 05:36:45.402256 16639 net.cpp:165] Memory required for data: 1978355776
I0411 05:36:45.402259 16639 layer_factory.hpp:77] Creating layer conv4_3_norm_mbox_loc_flat
I0411 05:36:45.402281 16639 net.cpp:100] Creating Layer conv4_3_norm_mbox_loc_flat
I0411 05:36:45.402284 16639 net.cpp:434] conv4_3_norm_mbox_loc_flat <- conv4_3_norm_mbox_loc_perm
I0411 05:36:45.402305 16639 net.cpp:408] conv4_3_norm_mbox_loc_flat -> conv4_3_norm_mbox_loc_flat
I0411 05:36:45.402335 16639 net.cpp:150] Setting up conv4_3_norm_mbox_loc_flat
I0411 05:36:45.402343 16639 net.cpp:157] Top shape: 8 23104 (184832)
I0411 05:36:45.402346 16639 net.cpp:165] Memory required for data: 1979095104
I0411 05:36:45.402350 16639 layer_factory.hpp:77] Creating layer conv4_3_norm_mbox_conf
I0411 05:36:45.402364 16639 net.cpp:100] Creating Layer conv4_3_norm_mbox_conf
I0411 05:36:45.402387 16639 net.cpp:434] conv4_3_norm_mbox_conf <- conv4_3_norm_conv4_3_norm_0_split_1
I0411 05:36:45.402393 16639 net.cpp:408] conv4_3_norm_mbox_conf -> conv4_3_norm_mbox_conf
I0411 05:36:45.406342 16639 net.cpp:150] Setting up conv4_3_norm_mbox_conf
I0411 05:36:45.406355 16639 net.cpp:157] Top shape: 8 84 38 38 (970368)
I0411 05:36:45.406359 16639 net.cpp:165] Memory required for data: 1982976576
I0411 05:36:45.406368 16639 layer_factory.hpp:77] Creating layer conv4_3_norm_mbox_conf_perm
I0411 05:36:45.406391 16639 net.cpp:100] Creating Layer conv4_3_norm_mbox_conf_perm
I0411 05:36:45.406395 16639 net.cpp:434] conv4_3_norm_mbox_conf_perm <- conv4_3_norm_mbox_conf
I0411 05:36:45.406401 16639 net.cpp:408] conv4_3_norm_mbox_conf_perm -> conv4_3_norm_mbox_conf_perm
I0411 05:36:45.406507 16639 net.cpp:150] Setting up conv4_3_norm_mbox_conf_perm
I0411 05:36:45.406512 16639 net.cpp:157] Top shape: 8 38 38 84 (970368)
I0411 05:36:45.406517 16639 net.cpp:165] Memory required for data: 1986858048
I0411 05:36:45.406519 16639 layer_factory.hpp:77] Creating layer conv4_3_norm_mbox_conf_flat
I0411 05:36:45.406525 16639 net.cpp:100] Creating Layer conv4_3_norm_mbox_conf_flat
I0411 05:36:45.406545 16639 net.cpp:434] conv4_3_norm_mbox_conf_flat <- conv4_3_norm_mbox_conf_perm
I0411 05:36:45.406550 16639 net.cpp:408] conv4_3_norm_mbox_conf_flat -> conv4_3_norm_mbox_conf_flat
I0411 05:36:45.406599 16639 net.cpp:150] Setting up conv4_3_norm_mbox_conf_flat
I0411 05:36:45.406605 16639 net.cpp:157] Top shape: 8 121296 (970368)
I0411 05:36:45.406610 16639 net.cpp:165] Memory required for data: 1990739520
I0411 05:36:45.406612 16639 layer_factory.hpp:77] Creating layer conv4_3_norm_mbox_priorbox
I0411 05:36:45.406618 16639 net.cpp:100] Creating Layer conv4_3_norm_mbox_priorbox
I0411 05:36:45.406623 16639 net.cpp:434] conv4_3_norm_mbox_priorbox <- conv4_3_norm_conv4_3_norm_0_split_2
I0411 05:36:45.406628 16639 net.cpp:434] conv4_3_norm_mbox_priorbox <- data_data_0_split_1
I0411 05:36:45.406635 16639 net.cpp:408] conv4_3_norm_mbox_priorbox -> conv4_3_norm_mbox_priorbox
I0411 05:36:45.406672 16639 net.cpp:150] Setting up conv4_3_norm_mbox_priorbox
I0411 05:36:45.406677 16639 net.cpp:157] Top shape: 1 2 23104 (46208)
I0411 05:36:45.406682 16639 net.cpp:165] Memory required for data: 1990924352
I0411 05:36:45.406684 16639 layer_factory.hpp:77] Creating layer fc7_mbox_loc
I0411 05:36:45.406692 16639 net.cpp:100] Creating Layer fc7_mbox_loc
I0411 05:36:45.406697 16639 net.cpp:434] fc7_mbox_loc <- fc7_relu7_0_split_1
I0411 05:36:45.406703 16639 net.cpp:408] fc7_mbox_loc -> fc7_mbox_loc
I0411 05:36:45.408671 16639 net.cpp:150] Setting up fc7_mbox_loc
I0411 05:36:45.408681 16639 net.cpp:157] Top shape: 8 24 19 19 (69312)
I0411 05:36:45.408684 16639 net.cpp:165] Memory required for data: 1991201600
I0411 05:36:45.408691 16639 layer_factory.hpp:77] Creating layer fc7_mbox_loc_perm
I0411 05:36:45.408699 16639 net.cpp:100] Creating Layer fc7_mbox_loc_perm
I0411 05:36:45.408702 16639 net.cpp:434] fc7_mbox_loc_perm <- fc7_mbox_loc
I0411 05:36:45.408709 16639 net.cpp:408] fc7_mbox_loc_perm -> fc7_mbox_loc_perm
I0411 05:36:45.408802 16639 net.cpp:150] Setting up fc7_mbox_loc_perm
I0411 05:36:45.408809 16639 net.cpp:157] Top shape: 8 19 19 24 (69312)
I0411 05:36:45.408812 16639 net.cpp:165] Memory required for data: 1991478848
I0411 05:36:45.408816 16639 layer_factory.hpp:77] Creating layer fc7_mbox_loc_flat
I0411 05:36:45.408821 16639 net.cpp:100] Creating Layer fc7_mbox_loc_flat
I0411 05:36:45.408826 16639 net.cpp:434] fc7_mbox_loc_flat <- fc7_mbox_loc_perm
I0411 05:36:45.408831 16639 net.cpp:408] fc7_mbox_loc_flat -> fc7_mbox_loc_flat
I0411 05:36:45.408851 16639 net.cpp:150] Setting up fc7_mbox_loc_flat
I0411 05:36:45.408857 16639 net.cpp:157] Top shape: 8 8664 (69312)
I0411 05:36:45.408860 16639 net.cpp:165] Memory required for data: 1991756096
I0411 05:36:45.408864 16639 layer_factory.hpp:77] Creating layer fc7_mbox_conf
I0411 05:36:45.408870 16639 net.cpp:100] Creating Layer fc7_mbox_conf
I0411 05:36:45.408875 16639 net.cpp:434] fc7_mbox_conf <- fc7_relu7_0_split_2
I0411 05:36:45.408880 16639 net.cpp:408] fc7_mbox_conf -> fc7_mbox_conf
I0411 05:36:45.419870 16639 net.cpp:150] Setting up fc7_mbox_conf
I0411 05:36:45.419919 16639 net.cpp:157] Top shape: 8 126 19 19 (363888)
I0411 05:36:45.419924 16639 net.cpp:165] Memory required for data: 1993211648
I0411 05:36:45.419934 16639 layer_factory.hpp:77] Creating layer fc7_mbox_conf_perm
I0411 05:36:45.419944 16639 net.cpp:100] Creating Layer fc7_mbox_conf_perm
I0411 05:36:45.419965 16639 net.cpp:434] fc7_mbox_conf_perm <- fc7_mbox_conf
I0411 05:36:45.419986 16639 net.cpp:408] fc7_mbox_conf_perm -> fc7_mbox_conf_perm
I0411 05:36:45.420130 16639 net.cpp:150] Setting up fc7_mbox_conf_perm
I0411 05:36:45.420137 16639 net.cpp:157] Top shape: 8 19 19 126 (363888)
I0411 05:36:45.420140 16639 net.cpp:165] Memory required for data: 1994667200
I0411 05:36:45.420145 16639 layer_factory.hpp:77] Creating layer fc7_mbox_conf_flat
I0411 05:36:45.420150 16639 net.cpp:100] Creating Layer fc7_mbox_conf_flat
I0411 05:36:45.420155 16639 net.cpp:434] fc7_mbox_conf_flat <- fc7_mbox_conf_perm
I0411 05:36:45.420161 16639 net.cpp:408] fc7_mbox_conf_flat -> fc7_mbox_conf_flat
I0411 05:36:45.420205 16639 net.cpp:150] Setting up fc7_mbox_conf_flat
I0411 05:36:45.420212 16639 net.cpp:157] Top shape: 8 45486 (363888)
I0411 05:36:45.420215 16639 net.cpp:165] Memory required for data: 1996122752
I0411 05:36:45.420218 16639 layer_factory.hpp:77] Creating layer fc7_mbox_priorbox
I0411 05:36:45.420227 16639 net.cpp:100] Creating Layer fc7_mbox_priorbox
I0411 05:36:45.420230 16639 net.cpp:434] fc7_mbox_priorbox <- fc7_relu7_0_split_3
I0411 05:36:45.420235 16639 net.cpp:434] fc7_mbox_priorbox <- data_data_0_split_2
I0411 05:36:45.420241 16639 net.cpp:408] fc7_mbox_priorbox -> fc7_mbox_priorbox
I0411 05:36:45.420266 16639 net.cpp:150] Setting up fc7_mbox_priorbox
I0411 05:36:45.420272 16639 net.cpp:157] Top shape: 1 2 8664 (17328)
I0411 05:36:45.420274 16639 net.cpp:165] Memory required for data: 1996192064
I0411 05:36:45.420277 16639 layer_factory.hpp:77] Creating layer conv6_2_mbox_loc
I0411 05:36:45.420287 16639 net.cpp:100] Creating Layer conv6_2_mbox_loc
I0411 05:36:45.420292 16639 net.cpp:434] conv6_2_mbox_loc <- conv6_2_conv6_2_relu_0_split_1
I0411 05:36:45.420298 16639 net.cpp:408] conv6_2_mbox_loc -> conv6_2_mbox_loc
I0411 05:36:45.421383 16639 net.cpp:150] Setting up conv6_2_mbox_loc
I0411 05:36:45.421392 16639 net.cpp:157] Top shape: 8 24 10 10 (19200)
I0411 05:36:45.421396 16639 net.cpp:165] Memory required for data: 1996268864
I0411 05:36:45.421402 16639 layer_factory.hpp:77] Creating layer conv6_2_mbox_loc_perm
I0411 05:36:45.421422 16639 net.cpp:100] Creating Layer conv6_2_mbox_loc_perm
I0411 05:36:45.421428 16639 net.cpp:434] conv6_2_mbox_loc_perm <- conv6_2_mbox_loc
I0411 05:36:45.421434 16639 net.cpp:408] conv6_2_mbox_loc_perm -> conv6_2_mbox_loc_perm
I0411 05:36:45.421532 16639 net.cpp:150] Setting up conv6_2_mbox_loc_perm
I0411 05:36:45.421538 16639 net.cpp:157] Top shape: 8 10 10 24 (19200)
I0411 05:36:45.421543 16639 net.cpp:165] Memory required for data: 1996345664
I0411 05:36:45.421546 16639 layer_factory.hpp:77] Creating layer conv6_2_mbox_loc_flat
I0411 05:36:45.421552 16639 net.cpp:100] Creating Layer conv6_2_mbox_loc_flat
I0411 05:36:45.421556 16639 net.cpp:434] conv6_2_mbox_loc_flat <- conv6_2_mbox_loc_perm
I0411 05:36:45.421563 16639 net.cpp:408] conv6_2_mbox_loc_flat -> conv6_2_mbox_loc_flat
I0411 05:36:45.421584 16639 net.cpp:150] Setting up conv6_2_mbox_loc_flat
I0411 05:36:45.421591 16639 net.cpp:157] Top shape: 8 2400 (19200)
I0411 05:36:45.421594 16639 net.cpp:165] Memory required for data: 1996422464
I0411 05:36:45.421598 16639 layer_factory.hpp:77] Creating layer conv6_2_mbox_conf
I0411 05:36:45.421607 16639 net.cpp:100] Creating Layer conv6_2_mbox_conf
I0411 05:36:45.421612 16639 net.cpp:434] conv6_2_mbox_conf <- conv6_2_conv6_2_relu_0_split_2
I0411 05:36:45.421617 16639 net.cpp:408] conv6_2_mbox_conf -> conv6_2_mbox_conf
I0411 05:36:45.427289 16639 net.cpp:150] Setting up conv6_2_mbox_conf
I0411 05:36:45.427305 16639 net.cpp:157] Top shape: 8 126 10 10 (100800)
I0411 05:36:45.427309 16639 net.cpp:165] Memory required for data: 1996825664
I0411 05:36:45.427316 16639 layer_factory.hpp:77] Creating layer conv6_2_mbox_conf_perm
I0411 05:36:45.427325 16639 net.cpp:100] Creating Layer conv6_2_mbox_conf_perm
I0411 05:36:45.427330 16639 net.cpp:434] conv6_2_mbox_conf_perm <- conv6_2_mbox_conf
I0411 05:36:45.427336 16639 net.cpp:408] conv6_2_mbox_conf_perm -> conv6_2_mbox_conf_perm
I0411 05:36:45.427436 16639 net.cpp:150] Setting up conv6_2_mbox_conf_perm
I0411 05:36:45.427444 16639 net.cpp:157] Top shape: 8 10 10 126 (100800)
I0411 05:36:45.427448 16639 net.cpp:165] Memory required for data: 1997228864
I0411 05:36:45.427450 16639 layer_factory.hpp:77] Creating layer conv6_2_mbox_conf_flat
I0411 05:36:45.427456 16639 net.cpp:100] Creating Layer conv6_2_mbox_conf_flat
I0411 05:36:45.427461 16639 net.cpp:434] conv6_2_mbox_conf_flat <- conv6_2_mbox_conf_perm
I0411 05:36:45.427466 16639 net.cpp:408] conv6_2_mbox_conf_flat -> conv6_2_mbox_conf_flat
I0411 05:36:45.427487 16639 net.cpp:150] Setting up conv6_2_mbox_conf_flat
I0411 05:36:45.427494 16639 net.cpp:157] Top shape: 8 12600 (100800)
I0411 05:36:45.427500 16639 net.cpp:165] Memory required for data: 1997632064
I0411 05:36:45.427503 16639 layer_factory.hpp:77] Creating layer conv6_2_mbox_priorbox
I0411 05:36:45.427510 16639 net.cpp:100] Creating Layer conv6_2_mbox_priorbox
I0411 05:36:45.427513 16639 net.cpp:434] conv6_2_mbox_priorbox <- conv6_2_conv6_2_relu_0_split_3
I0411 05:36:45.427520 16639 net.cpp:434] conv6_2_mbox_priorbox <- data_data_0_split_3
I0411 05:36:45.427525 16639 net.cpp:408] conv6_2_mbox_priorbox -> conv6_2_mbox_priorbox
I0411 05:36:45.427547 16639 net.cpp:150] Setting up conv6_2_mbox_priorbox
I0411 05:36:45.427553 16639 net.cpp:157] Top shape: 1 2 2400 (4800)
I0411 05:36:45.427557 16639 net.cpp:165] Memory required for data: 1997651264
I0411 05:36:45.427561 16639 layer_factory.hpp:77] Creating layer conv7_2_mbox_loc
I0411 05:36:45.427569 16639 net.cpp:100] Creating Layer conv7_2_mbox_loc
I0411 05:36:45.427572 16639 net.cpp:434] conv7_2_mbox_loc <- conv7_2_conv7_2_relu_0_split_1
I0411 05:36:45.427579 16639 net.cpp:408] conv7_2_mbox_loc -> conv7_2_mbox_loc
I0411 05:36:45.428264 16639 net.cpp:150] Setting up conv7_2_mbox_loc
I0411 05:36:45.428272 16639 net.cpp:157] Top shape: 8 24 5 5 (4800)
I0411 05:36:45.428277 16639 net.cpp:165] Memory required for data: 1997670464
I0411 05:36:45.428282 16639 layer_factory.hpp:77] Creating layer conv7_2_mbox_loc_perm
I0411 05:36:45.428306 16639 net.cpp:100] Creating Layer conv7_2_mbox_loc_perm
I0411 05:36:45.428338 16639 net.cpp:434] conv7_2_mbox_loc_perm <- conv7_2_mbox_loc
I0411 05:36:45.428344 16639 net.cpp:408] conv7_2_mbox_loc_perm -> conv7_2_mbox_loc_perm
I0411 05:36:45.428467 16639 net.cpp:150] Setting up conv7_2_mbox_loc_perm
I0411 05:36:45.428473 16639 net.cpp:157] Top shape: 8 5 5 24 (4800)
I0411 05:36:45.428478 16639 net.cpp:165] Memory required for data: 1997689664
I0411 05:36:45.428480 16639 layer_factory.hpp:77] Creating layer conv7_2_mbox_loc_flat
I0411 05:36:45.428486 16639 net.cpp:100] Creating Layer conv7_2_mbox_loc_flat
I0411 05:36:45.428506 16639 net.cpp:434] conv7_2_mbox_loc_flat <- conv7_2_mbox_loc_perm
I0411 05:36:45.428511 16639 net.cpp:408] conv7_2_mbox_loc_flat -> conv7_2_mbox_loc_flat
I0411 05:36:45.428534 16639 net.cpp:150] Setting up conv7_2_mbox_loc_flat
I0411 05:36:45.428539 16639 net.cpp:157] Top shape: 8 600 (4800)
I0411 05:36:45.428557 16639 net.cpp:165] Memory required for data: 1997708864
I0411 05:36:45.428561 16639 layer_factory.hpp:77] Creating layer conv7_2_mbox_conf
I0411 05:36:45.428584 16639 net.cpp:100] Creating Layer conv7_2_mbox_conf
I0411 05:36:45.428588 16639 net.cpp:434] conv7_2_mbox_conf <- conv7_2_conv7_2_relu_0_split_2
I0411 05:36:45.428596 16639 net.cpp:408] conv7_2_mbox_conf -> conv7_2_mbox_conf
I0411 05:36:45.431999 16639 net.cpp:150] Setting up conv7_2_mbox_conf
I0411 05:36:45.432013 16639 net.cpp:157] Top shape: 8 126 5 5 (25200)
I0411 05:36:45.432016 16639 net.cpp:165] Memory required for data: 1997809664
I0411 05:36:45.432024 16639 layer_factory.hpp:77] Creating layer conv7_2_mbox_conf_perm
I0411 05:36:45.432046 16639 net.cpp:100] Creating Layer conv7_2_mbox_conf_perm
I0411 05:36:45.432063 16639 net.cpp:434] conv7_2_mbox_conf_perm <- conv7_2_mbox_conf
I0411 05:36:45.432068 16639 net.cpp:408] conv7_2_mbox_conf_perm -> conv7_2_mbox_conf_perm
I0411 05:36:45.432183 16639 net.cpp:150] Setting up conv7_2_mbox_conf_perm
I0411 05:36:45.432190 16639 net.cpp:157] Top shape: 8 5 5 126 (25200)
I0411 05:36:45.432193 16639 net.cpp:165] Memory required for data: 1997910464
I0411 05:36:45.432196 16639 layer_factory.hpp:77] Creating layer conv7_2_mbox_conf_flat
I0411 05:36:45.432216 16639 net.cpp:100] Creating Layer conv7_2_mbox_conf_flat
I0411 05:36:45.432220 16639 net.cpp:434] conv7_2_mbox_conf_flat <- conv7_2_mbox_conf_perm
I0411 05:36:45.432225 16639 net.cpp:408] conv7_2_mbox_conf_flat -> conv7_2_mbox_conf_flat
I0411 05:36:45.432246 16639 net.cpp:150] Setting up conv7_2_mbox_conf_flat
I0411 05:36:45.432266 16639 net.cpp:157] Top shape: 8 3150 (25200)
I0411 05:36:45.432268 16639 net.cpp:165] Memory required for data: 1998011264
I0411 05:36:45.432271 16639 layer_factory.hpp:77] Creating layer conv7_2_mbox_priorbox
I0411 05:36:45.432277 16639 net.cpp:100] Creating Layer conv7_2_mbox_priorbox
I0411 05:36:45.432296 16639 net.cpp:434] conv7_2_mbox_priorbox <- conv7_2_conv7_2_relu_0_split_3
I0411 05:36:45.432301 16639 net.cpp:434] conv7_2_mbox_priorbox <- data_data_0_split_4
I0411 05:36:45.432307 16639 net.cpp:408] conv7_2_mbox_priorbox -> conv7_2_mbox_priorbox
I0411 05:36:45.432344 16639 net.cpp:150] Setting up conv7_2_mbox_priorbox
I0411 05:36:45.432350 16639 net.cpp:157] Top shape: 1 2 600 (1200)
I0411 05:36:45.432353 16639 net.cpp:165] Memory required for data: 1998016064
I0411 05:36:45.432356 16639 layer_factory.hpp:77] Creating layer conv8_2_mbox_loc
I0411 05:36:45.432364 16639 net.cpp:100] Creating Layer conv8_2_mbox_loc
I0411 05:36:45.432369 16639 net.cpp:434] conv8_2_mbox_loc <- conv8_2_conv8_2_relu_0_split_1
I0411 05:36:45.432376 16639 net.cpp:408] conv8_2_mbox_loc -> conv8_2_mbox_loc
I0411 05:36:45.432926 16639 net.cpp:150] Setting up conv8_2_mbox_loc
I0411 05:36:45.432934 16639 net.cpp:157] Top shape: 8 16 3 3 (1152)
I0411 05:36:45.432938 16639 net.cpp:165] Memory required for data: 1998020672
I0411 05:36:45.432965 16639 layer_factory.hpp:77] Creating layer conv8_2_mbox_loc_perm
I0411 05:36:45.432972 16639 net.cpp:100] Creating Layer conv8_2_mbox_loc_perm
I0411 05:36:45.432977 16639 net.cpp:434] conv8_2_mbox_loc_perm <- conv8_2_mbox_loc
I0411 05:36:45.433009 16639 net.cpp:408] conv8_2_mbox_loc_perm -> conv8_2_mbox_loc_perm
I0411 05:36:45.433136 16639 net.cpp:150] Setting up conv8_2_mbox_loc_perm
I0411 05:36:45.433143 16639 net.cpp:157] Top shape: 8 3 3 16 (1152)
I0411 05:36:45.433146 16639 net.cpp:165] Memory required for data: 1998025280
I0411 05:36:45.433151 16639 layer_factory.hpp:77] Creating layer conv8_2_mbox_loc_flat
I0411 05:36:45.433156 16639 net.cpp:100] Creating Layer conv8_2_mbox_loc_flat
I0411 05:36:45.433159 16639 net.cpp:434] conv8_2_mbox_loc_flat <- conv8_2_mbox_loc_perm
I0411 05:36:45.433166 16639 net.cpp:408] conv8_2_mbox_loc_flat -> conv8_2_mbox_loc_flat
I0411 05:36:45.433188 16639 net.cpp:150] Setting up conv8_2_mbox_loc_flat
I0411 05:36:45.433193 16639 net.cpp:157] Top shape: 8 144 (1152)
I0411 05:36:45.433197 16639 net.cpp:165] Memory required for data: 1998029888
I0411 05:36:45.433200 16639 layer_factory.hpp:77] Creating layer conv8_2_mbox_conf
I0411 05:36:45.433208 16639 net.cpp:100] Creating Layer conv8_2_mbox_conf
I0411 05:36:45.433213 16639 net.cpp:434] conv8_2_mbox_conf <- conv8_2_conv8_2_relu_0_split_2
I0411 05:36:45.433219 16639 net.cpp:408] conv8_2_mbox_conf -> conv8_2_mbox_conf
I0411 05:36:45.434945 16639 net.cpp:150] Setting up conv8_2_mbox_conf
I0411 05:36:45.434955 16639 net.cpp:157] Top shape: 8 84 3 3 (6048)
I0411 05:36:45.434959 16639 net.cpp:165] Memory required for data: 1998054080
I0411 05:36:45.434967 16639 layer_factory.hpp:77] Creating layer conv8_2_mbox_conf_perm
I0411 05:36:45.434973 16639 net.cpp:100] Creating Layer conv8_2_mbox_conf_perm
I0411 05:36:45.434978 16639 net.cpp:434] conv8_2_mbox_conf_perm <- conv8_2_mbox_conf
I0411 05:36:45.434985 16639 net.cpp:408] conv8_2_mbox_conf_perm -> conv8_2_mbox_conf_perm
I0411 05:36:45.435086 16639 net.cpp:150] Setting up conv8_2_mbox_conf_perm
I0411 05:36:45.435092 16639 net.cpp:157] Top shape: 8 3 3 84 (6048)
I0411 05:36:45.435097 16639 net.cpp:165] Memory required for data: 1998078272
I0411 05:36:45.435101 16639 layer_factory.hpp:77] Creating layer conv8_2_mbox_conf_flat
I0411 05:36:45.435107 16639 net.cpp:100] Creating Layer conv8_2_mbox_conf_flat
I0411 05:36:45.435112 16639 net.cpp:434] conv8_2_mbox_conf_flat <- conv8_2_mbox_conf_perm
I0411 05:36:45.435119 16639 net.cpp:408] conv8_2_mbox_conf_flat -> conv8_2_mbox_conf_flat
I0411 05:36:45.435142 16639 net.cpp:150] Setting up conv8_2_mbox_conf_flat
I0411 05:36:45.435148 16639 net.cpp:157] Top shape: 8 756 (6048)
I0411 05:36:45.435151 16639 net.cpp:165] Memory required for data: 1998102464
I0411 05:36:45.435156 16639 layer_factory.hpp:77] Creating layer conv8_2_mbox_priorbox
I0411 05:36:45.435163 16639 net.cpp:100] Creating Layer conv8_2_mbox_priorbox
I0411 05:36:45.435168 16639 net.cpp:434] conv8_2_mbox_priorbox <- conv8_2_conv8_2_relu_0_split_3
I0411 05:36:45.435173 16639 net.cpp:434] conv8_2_mbox_priorbox <- data_data_0_split_5
I0411 05:36:45.435179 16639 net.cpp:408] conv8_2_mbox_priorbox -> conv8_2_mbox_priorbox
I0411 05:36:45.435204 16639 net.cpp:150] Setting up conv8_2_mbox_priorbox
I0411 05:36:45.435210 16639 net.cpp:157] Top shape: 1 2 144 (288)
I0411 05:36:45.435214 16639 net.cpp:165] Memory required for data: 1998103616
I0411 05:36:45.435219 16639 layer_factory.hpp:77] Creating layer conv9_2_mbox_loc
I0411 05:36:45.435226 16639 net.cpp:100] Creating Layer conv9_2_mbox_loc
I0411 05:36:45.435231 16639 net.cpp:434] conv9_2_mbox_loc <- conv9_2_conv9_2_relu_0_split_0
I0411 05:36:45.435238 16639 net.cpp:408] conv9_2_mbox_loc -> conv9_2_mbox_loc
I0411 05:36:45.435778 16639 net.cpp:150] Setting up conv9_2_mbox_loc
I0411 05:36:45.435786 16639 net.cpp:157] Top shape: 8 16 1 1 (128)
I0411 05:36:45.435791 16639 net.cpp:165] Memory required for data: 1998104128
I0411 05:36:45.435796 16639 layer_factory.hpp:77] Creating layer conv9_2_mbox_loc_perm
I0411 05:36:45.435803 16639 net.cpp:100] Creating Layer conv9_2_mbox_loc_perm
I0411 05:36:45.435808 16639 net.cpp:434] conv9_2_mbox_loc_perm <- conv9_2_mbox_loc
I0411 05:36:45.435814 16639 net.cpp:408] conv9_2_mbox_loc_perm -> conv9_2_mbox_loc_perm
I0411 05:36:45.435925 16639 net.cpp:150] Setting up conv9_2_mbox_loc_perm
I0411 05:36:45.435932 16639 net.cpp:157] Top shape: 8 1 1 16 (128)
I0411 05:36:45.435936 16639 net.cpp:165] Memory required for data: 1998104640
I0411 05:36:45.435940 16639 layer_factory.hpp:77] Creating layer conv9_2_mbox_loc_flat
I0411 05:36:45.435946 16639 net.cpp:100] Creating Layer conv9_2_mbox_loc_flat
I0411 05:36:45.435951 16639 net.cpp:434] conv9_2_mbox_loc_flat <- conv9_2_mbox_loc_perm
I0411 05:36:45.435957 16639 net.cpp:408] conv9_2_mbox_loc_flat -> conv9_2_mbox_loc_flat
I0411 05:36:45.435981 16639 net.cpp:150] Setting up conv9_2_mbox_loc_flat
I0411 05:36:45.435986 16639 net.cpp:157] Top shape: 8 16 (128)
I0411 05:36:45.435991 16639 net.cpp:165] Memory required for data: 1998105152
I0411 05:36:45.435993 16639 layer_factory.hpp:77] Creating layer conv9_2_mbox_conf
I0411 05:36:45.436002 16639 net.cpp:100] Creating Layer conv9_2_mbox_conf
I0411 05:36:45.436007 16639 net.cpp:434] conv9_2_mbox_conf <- conv9_2_conv9_2_relu_0_split_1
I0411 05:36:45.436013 16639 net.cpp:408] conv9_2_mbox_conf -> conv9_2_mbox_conf
I0411 05:36:45.437746 16639 net.cpp:150] Setting up conv9_2_mbox_conf
I0411 05:36:45.437754 16639 net.cpp:157] Top shape: 8 84 1 1 (672)
I0411 05:36:45.437758 16639 net.cpp:165] Memory required for data: 1998107840
I0411 05:36:45.437765 16639 layer_factory.hpp:77] Creating layer conv9_2_mbox_conf_perm
I0411 05:36:45.437772 16639 net.cpp:100] Creating Layer conv9_2_mbox_conf_perm
I0411 05:36:45.437775 16639 net.cpp:434] conv9_2_mbox_conf_perm <- conv9_2_mbox_conf
I0411 05:36:45.437783 16639 net.cpp:408] conv9_2_mbox_conf_perm -> conv9_2_mbox_conf_perm
I0411 05:36:45.437881 16639 net.cpp:150] Setting up conv9_2_mbox_conf_perm
I0411 05:36:45.437887 16639 net.cpp:157] Top shape: 8 1 1 84 (672)
I0411 05:36:45.437891 16639 net.cpp:165] Memory required for data: 1998110528
I0411 05:36:45.437894 16639 layer_factory.hpp:77] Creating layer conv9_2_mbox_conf_flat
I0411 05:36:45.437901 16639 net.cpp:100] Creating Layer conv9_2_mbox_conf_flat
I0411 05:36:45.437904 16639 net.cpp:434] conv9_2_mbox_conf_flat <- conv9_2_mbox_conf_perm
I0411 05:36:45.437911 16639 net.cpp:408] conv9_2_mbox_conf_flat -> conv9_2_mbox_conf_flat
I0411 05:36:45.437932 16639 net.cpp:150] Setting up conv9_2_mbox_conf_flat
I0411 05:36:45.437937 16639 net.cpp:157] Top shape: 8 84 (672)
I0411 05:36:45.437942 16639 net.cpp:165] Memory required for data: 1998113216
I0411 05:36:45.437944 16639 layer_factory.hpp:77] Creating layer conv9_2_mbox_priorbox
I0411 05:36:45.437949 16639 net.cpp:100] Creating Layer conv9_2_mbox_priorbox
I0411 05:36:45.437954 16639 net.cpp:434] conv9_2_mbox_priorbox <- conv9_2_conv9_2_relu_0_split_2
I0411 05:36:45.437958 16639 net.cpp:434] conv9_2_mbox_priorbox <- data_data_0_split_6
I0411 05:36:45.437964 16639 net.cpp:408] conv9_2_mbox_priorbox -> conv9_2_mbox_priorbox
I0411 05:36:45.437988 16639 net.cpp:150] Setting up conv9_2_mbox_priorbox
I0411 05:36:45.437999 16639 net.cpp:157] Top shape: 1 2 16 (32)
I0411 05:36:45.438002 16639 net.cpp:165] Memory required for data: 1998113344
I0411 05:36:45.438006 16639 layer_factory.hpp:77] Creating layer mbox_loc
I0411 05:36:45.438012 16639 net.cpp:100] Creating Layer mbox_loc
I0411 05:36:45.438017 16639 net.cpp:434] mbox_loc <- conv4_3_norm_mbox_loc_flat
I0411 05:36:45.438024 16639 net.cpp:434] mbox_loc <- fc7_mbox_loc_flat
I0411 05:36:45.438030 16639 net.cpp:434] mbox_loc <- conv6_2_mbox_loc_flat
I0411 05:36:45.438035 16639 net.cpp:434] mbox_loc <- conv7_2_mbox_loc_flat
I0411 05:36:45.438038 16639 net.cpp:434] mbox_loc <- conv8_2_mbox_loc_flat
I0411 05:36:45.438043 16639 net.cpp:434] mbox_loc <- conv9_2_mbox_loc_flat
I0411 05:36:45.438050 16639 net.cpp:408] mbox_loc -> mbox_loc
I0411 05:36:45.438073 16639 net.cpp:150] Setting up mbox_loc
I0411 05:36:45.438079 16639 net.cpp:157] Top shape: 8 34928 (279424)
I0411 05:36:45.438083 16639 net.cpp:165] Memory required for data: 1999231040
I0411 05:36:45.438087 16639 layer_factory.hpp:77] Creating layer mbox_conf
I0411 05:36:45.438092 16639 net.cpp:100] Creating Layer mbox_conf
I0411 05:36:45.438105 16639 net.cpp:434] mbox_conf <- conv4_3_norm_mbox_conf_flat
I0411 05:36:45.438112 16639 net.cpp:434] mbox_conf <- fc7_mbox_conf_flat
I0411 05:36:45.438117 16639 net.cpp:434] mbox_conf <- conv6_2_mbox_conf_flat
I0411 05:36:45.438122 16639 net.cpp:434] mbox_conf <- conv7_2_mbox_conf_flat
I0411 05:36:45.438125 16639 net.cpp:434] mbox_conf <- conv8_2_mbox_conf_flat
I0411 05:36:45.438132 16639 net.cpp:434] mbox_conf <- conv9_2_mbox_conf_flat
I0411 05:36:45.438136 16639 net.cpp:408] mbox_conf -> mbox_conf
I0411 05:36:45.438159 16639 net.cpp:150] Setting up mbox_conf
I0411 05:36:45.438165 16639 net.cpp:157] Top shape: 8 183372 (1466976)
I0411 05:36:45.438169 16639 net.cpp:165] Memory required for data: 2005098944
I0411 05:36:45.438172 16639 layer_factory.hpp:77] Creating layer mbox_priorbox
I0411 05:36:45.438179 16639 net.cpp:100] Creating Layer mbox_priorbox
I0411 05:36:45.438182 16639 net.cpp:434] mbox_priorbox <- conv4_3_norm_mbox_priorbox
I0411 05:36:45.438189 16639 net.cpp:434] mbox_priorbox <- fc7_mbox_priorbox
I0411 05:36:45.438194 16639 net.cpp:434] mbox_priorbox <- conv6_2_mbox_priorbox
I0411 05:36:45.438197 16639 net.cpp:434] mbox_priorbox <- conv7_2_mbox_priorbox
I0411 05:36:45.438201 16639 net.cpp:434] mbox_priorbox <- conv8_2_mbox_priorbox
I0411 05:36:45.438206 16639 net.cpp:434] mbox_priorbox <- conv9_2_mbox_priorbox
I0411 05:36:45.438210 16639 net.cpp:408] mbox_priorbox -> mbox_priorbox
I0411 05:36:45.438232 16639 net.cpp:150] Setting up mbox_priorbox
I0411 05:36:45.438238 16639 net.cpp:157] Top shape: 1 2 34928 (69856)
I0411 05:36:45.438242 16639 net.cpp:165] Memory required for data: 2005378368
I0411 05:36:45.438246 16639 layer_factory.hpp:77] Creating layer mbox_conf_reshape
I0411 05:36:45.438251 16639 net.cpp:100] Creating Layer mbox_conf_reshape
I0411 05:36:45.438256 16639 net.cpp:434] mbox_conf_reshape <- mbox_conf
I0411 05:36:45.438262 16639 net.cpp:408] mbox_conf_reshape -> mbox_conf_reshape
I0411 05:36:45.438292 16639 net.cpp:150] Setting up mbox_conf_reshape
I0411 05:36:45.438299 16639 net.cpp:157] Top shape: 8 8732 21 (1466976)
I0411 05:36:45.438302 16639 net.cpp:165] Memory required for data: 2011246272
I0411 05:36:45.438308 16639 layer_factory.hpp:77] Creating layer mbox_conf_softmax
I0411 05:36:45.438313 16639 net.cpp:100] Creating Layer mbox_conf_softmax
I0411 05:36:45.438318 16639 net.cpp:434] mbox_conf_softmax <- mbox_conf_reshape
I0411 05:36:45.438323 16639 net.cpp:408] mbox_conf_softmax -> mbox_conf_softmax
I0411 05:36:45.438387 16639 net.cpp:150] Setting up mbox_conf_softmax
I0411 05:36:45.438393 16639 net.cpp:157] Top shape: 8 8732 21 (1466976)
I0411 05:36:45.438396 16639 net.cpp:165] Memory required for data: 2017114176
I0411 05:36:45.438400 16639 layer_factory.hpp:77] Creating layer mbox_conf_flatten
I0411 05:36:45.438405 16639 net.cpp:100] Creating Layer mbox_conf_flatten
I0411 05:36:45.438408 16639 net.cpp:434] mbox_conf_flatten <- mbox_conf_softmax
I0411 05:36:45.438413 16639 net.cpp:408] mbox_conf_flatten -> mbox_conf_flatten
I0411 05:36:45.438434 16639 net.cpp:150] Setting up mbox_conf_flatten
I0411 05:36:45.438441 16639 net.cpp:157] Top shape: 8 183372 (1466976)
I0411 05:36:45.438444 16639 net.cpp:165] Memory required for data: 2022982080
I0411 05:36:45.438447 16639 layer_factory.hpp:77] Creating layer detection_out
I0411 05:36:45.438464 16639 net.cpp:100] Creating Layer detection_out
I0411 05:36:45.438469 16639 net.cpp:434] detection_out <- mbox_loc
I0411 05:36:45.438473 16639 net.cpp:434] detection_out <- mbox_conf_flatten
I0411 05:36:45.438477 16639 net.cpp:434] detection_out <- mbox_priorbox
I0411 05:36:45.438483 16639 net.cpp:408] detection_out -> detection_out
I0411 05:36:45.440645 16639 net.cpp:150] Setting up detection_out
I0411 05:36:45.440655 16639 net.cpp:157] Top shape: 1 1 1 7 (7)
I0411 05:36:45.440659 16639 net.cpp:165] Memory required for data: 2022982108
I0411 05:36:45.440663 16639 layer_factory.hpp:77] Creating layer detection_eval
I0411 05:36:45.440671 16639 net.cpp:100] Creating Layer detection_eval
I0411 05:36:45.440675 16639 net.cpp:434] detection_eval <- detection_out
I0411 05:36:45.440688 16639 net.cpp:434] detection_eval <- label
I0411 05:36:45.440696 16639 net.cpp:408] detection_eval -> detection_eval
I0411 05:36:45.442158 16639 net.cpp:150] Setting up detection_eval
I0411 05:36:45.442167 16639 net.cpp:157] Top shape: 1 1 21 5 (105)
I0411 05:36:45.442170 16639 net.cpp:165] Memory required for data: 2022982528
I0411 05:36:45.442174 16639 net.cpp:228] detection_eval does not need backward computation.
I0411 05:36:45.442180 16639 net.cpp:228] detection_out does not need backward computation.
I0411 05:36:45.442184 16639 net.cpp:228] mbox_conf_flatten does not need backward computation.
I0411 05:36:45.442189 16639 net.cpp:228] mbox_conf_softmax does not need backward computation.
…
